runs/results_for_RL_paper/gridSamples_nonlinf5_ae2_trial8_enc_None_no_dec_pred_tanh_3lay_latentd_4_bs_10_lr_0_001_w_l1_0p01_to_enc_and_to_pred/checkpoints/epoch=613-total_val_loss=0.23.ckpt (torch, 15423 bytes, 21 tensors)

submodules.encoder.0.weight f4 [4, 5]
0	0x3adca851	0.001683483
1	0xbc9f047e	-0.019411322
2	0x3f66b1e2	0.9011518
3	0x3ed62362	0.4182387
4	0x3b1b8d35	0.002373529
5	0xba9584ea	-0.0011407409
6	0xbe2513db	-0.16120856
7	0x3a30ebd3	0.0006749008
8	0x38902f3b	6.8752524e-05
9	0xba8c4048	-0.001070031
10	0x3e94a038	0.29028487
11	0xbe9144f2	-0.28372914
12	0xbe039fc7	-0.12853919
13	0xbe46b594	-0.19405204
14	0xbe71bfb9	-0.23608293
15	0xbb0604cd	-0.0020449639
16	0xba973c82	-0.0011538418
17	0x3a44ef7d	0.0007512493
18	0xbbbce392	-0.005764433
19	0x3ebb9757	0.366389

submodules.encoder.0.bias f4 [4]
0	0xbf123769	-0.571158
1	0xbeb77ff5	-0.3583981
2	0xbe2f314f	-0.17108653
3	0x3e2729f0	0.16324592

submodules.predictor.0.weight f4 [4, 4]
0	0x400e4a2d	2.2232773
1	0xbedb1b6f	-0.42794368
2	0xbf4b22fd	-0.7935026
3	0xbe1ae5ff	-0.15126799
4	0xbf86e39a	-1.0538208
5	0xbfa9d2fd	-1.3267514
6	0xbfd6d8ca	-1.6784909
7	0x3e10b28d	0.14130612
8	0xbfdd3439	-1.7281562
9	0x3d71ebf7	0.059062924
10	0x3f523fd2	0.8212863
11	0x3ee9e71a	0.4568413
12	0x3eb1b174	0.34705698
13	0xbe9943cb	-0.29934534
14	0xbf87c8a0	-1.0608101
15	0xbead7d81	-0.33884814

submodules.predictor.0.bias f4 [4]
0	0xbdc9b774	-0.09849444
1	0x3e7f0a42	0.24906257
2	0x3e2b137c	0.16706651
3	0x3e3386fb	0.1753196

submodules.predictor.2.weight f4 [4, 4]
0	0x40290be8	2.6413517
1	0x3e9f9406	0.3116762
2	0xbff22de5	-1.8920256
3	0x3ec97d9f	0.39353654
4	0xbdf36fdb	-0.11886569
5	0x3f67995c	0.9046838
6	0xbf0a0215	-0.53909427
7	0xbf5e2025	-0.867678
8	0x3f4548f8	0.77064466
9	0x3f5b0ea8	0.8556924
10	0xbf462d7d	-0.7741316
11	0xbe91de81	-0.2849007
12	0x3c3ab62c	0.011395972
13	0xbf0f565a	-0.5599114
14	0x3e3d901a	0.18512002
15	0x3ed7071e	0.41997617

submodules.predictor.2.bias f4 [4]
0	0xbd967b39	-0.073477216
1	0x3e4d434f	0.20045207
2	0xbed8d483	-0.42349634
3	0xbe44a993	-0.19205312

submodules.predictor.4.weight f4 [1, 4]
0	0xbf854729	-1.0412341
1	0xbfb49ebd	-1.4110943
2	0xbfc080e8	-1.5039339
3	0x3ef841b3	0.48487625

exp_avg f4 [4, 5]
0	0xbda7afbb	-0.08187815
1	0xbd9c2b04	-0.07625392
2	0x3dbb2e7c	0.091397256
3	0xbd440f9b	-0.047866445
4	0xbda9ebde	-0.08296941
5	0x3d3d2145	0.046174306
6	0x3d32cef7	0.04365441
7	0xbd2bae61	-0.041914348
8	0x3b67bc9c	0.0035360223
9	0x3d45230a	0.04812912
10	0x3dc5dd92	0.09661402
11	0x3da9d5e4	0.082927495
12	0xbdac4f2d	-0.08413539
13	0x3c293948	0.010328598
14	0x3db09ee5	0.08624057
15	0x3bbf1037	0.0058307904
16	0x3b71518c	0.0036822287
17	0xbba424c1	-0.005009264
18	0xba7fb11c	-0.00097538694
19	0x3ccbf5af	0.024897425

exp_avg_sq f4 [4, 5]
0	0x3e47bbf6	0.19505295
1	0x3ef3543b	0.475252
2	0x3df86009	0.12127692
3	0x3e4b735e	0.19868228
4	0x3e961a4a	0.29316932
5	0x3d2159d1	0.039392296
6	0x3d96df71	0.07366837
7	0x3cc2ca45	0.02377809
8	0x3c6bae86	0.014384871
9	0x3d66b851	0.05632812
10	0x3dee7475	0.11643306
11	0x3e565f95	0.20934899
12	0x3d98c67a	0.074597314
13	0x3d4ba713	0.04971988
14	0x3e24a303	0.16077809
15	0x3ba501f2	0.0050356323
16	0x3c1c6fe9	0.009548166
17	0x3b716c7a	0.0036838339
18	0x3b9fbb0f	0.004874594
19	0x3bd2e75b	0.006436271

exp_avg f4 [4]
0	0x3dd9b9f9	0.106311746
1	0xbd237d66	-0.03991451
2	0xbd814b44	-0.06313184
3	0xbbe97782	-0.007124842

exp_avg_sq f4 [4]
0	0x3eb450c4	0.3521787
1	0x3d1649e6	0.03669157
2	0x3e00f22d	0.12592383
3	0x3bf9f2ea	0.0076278346

exp_avg f4 [4, 4]
0	0xbb84246b	-0.0040326617
1	0xbc0b74af	-0.008511706
2	0xb9e8705c	-0.00044334203
3	0xbba7ed28	-0.005124707
4	0x3aaf7a47	0.0013387882
5	0xbb88e76e	-0.004177979
6	0x3b2f332e	0.0026733386
7	0xbbd15b0b	-0.006389027
8	0x3ba626fa	0.0050705643
9	0x3c2a9cce	0.010413362
10	0x3a67da7b	0.0008844507
11	0x3bc8e52d	0.0061308355
12	0x3ce3a34a	0.027787823
13	0x3c5e92a8	0.01358477
14	0x3b57db3e	0.0032937075
15	0xbba49576	-0.0050227

exp_avg_sq f4 [4, 4]
0	0x3ac80768	0.0015260996
1	0x3b5c4aad	0.0033613846
2	0x3b987121	0.004652158
3	0x3bb5ca76	0.005547817
4	0x3ad876dc	0.0016514915
5	0x39c67a55	0.00037856647
6	0x39f9103b	0.00047505074
7	0x3b7a7866	0.0038218736
8	0x3b2e90c4	0.002663658
9	0x3b864f86	0.0040988354
10	0x3bbfbd84	0.0058514494
11	0x3c0ab582	0.008466126
12	0x3c967a14	0.018368758
13	0x3b317b0a	0.0027081394
14	0x3add0da1	0.0016865024
15	0x3bc7c30d	0.00609625

exp_avg f4 [4]
0	0x3d0d100a	0.034439124
1	0x3cd0fa51	0.025509985
2	0xbd261c9e	-0.040554635
3	0xbd1c60db	-0.038178306

exp_avg_sq f4 [4]
0	0x3cebe268	0.028794482
1	0x3c6b9a75	0.014380087
2	0x3d259f6d	0.040435243
3	0x3cafc63c	0.02145683

exp_avg f4 [4, 4]
0	0xbb07e686	-0.0020736768
1	0x3b811d06	0.0039402274
2	0x3b2c607c	0.0026302626
3	0x3b15d8ca	0.0022864812
4	0xbc90806f	-0.017639367
5	0x3cc7f12c	0.024406992
6	0x3c94b301	0.018151762
7	0x3b0af547	0.0021203326
8	0xbcb389fb	-0.02191638
9	0x3cde7e7b	0.02715992
10	0x3cba2fba	0.022727836
11	0xbb907e95	-0.004409621
12	0x3c12ca9c	0.008959439
13	0xbc3cb40a	-0.011517534
14	0xbc162f98	-0.009166621
15	0x3aa1613e	0.0012312306

exp_avg_sq f4 [4, 4]
0	0x387127d1	5.749596e-05
1	0x3a9b871c	0.0011865827
2	0x39108958	0.00013784075
3	0x39cdcb91	0.00039252316
4	0x3c1212b4	0.008915592
5	0x3c60212e	0.013679786
6	0x3c1235ef	0.008923992
7	0x3b2a333f	0.0025970486
8	0x3c24937d	0.01004493
9	0x3c80420b	0.015656492
10	0x3c26d5e6	0.010182833
11	0x3b9ee86d	0.0048494847
12	0x3ae344d0	0.0017339233
13	0x3b173bf2	0.0023076502
14	0x3ae25d94	0.001727032
15	0x3a0be28d	0.0005336188

exp_avg f4 [4]
0	0x3c10be9e	0.008834509
1	0x3d0a2552	0.033726998
2	0x3d3bfcd4	0.045895413
3	0xbc73c425	-0.0148783075

exp_avg_sq f4 [4]
0	0x3b0c17d2	0.0021376503
1	0x3ca8895c	0.02057331
2	0x3cb87e83	0.022521263
3	0x3b537810	0.0032267608

exp_avg f4 [1, 4]
0	0x3d2ce738	0.042212695
1	0xbce4b9ba	-0.027920593
2	0x3ce9d0b6	0.028541904
3	0x3cc8230a	0.02443077

exp_avg_sq f4 [1, 4]
0	0x3caedf8a	0.021346826
1	0x3c28be31	0.010299251
2	0x3c29907c	0.010349389
3	0x3be89225	0.0070975
