runs/results_for_RL_paper/gridSamples_sumf5_ae2_trial2_enc_linear_dec_linear_pred_linear_1lay_latentd_5_bs_10_lr_0_001_w_l1_0p01_to_enc_and_to_pred/submodule_params/encoder_params.pt (torch, 1219 bytes, 2 tensors)

0.weight f4 [5, 5]
-0.3992171 -0.056119405 -0.88504577 -0.25663498 -0.23842393 -0.26067352 -0.04350004 0.0013072395
-0.20741522 -0.2102003 0.000657649 0.00042521773 -0.0005994456 0.00085945806 0.00067317986 -0.00013400785
0.3042959 7.832324e-05 -0.2454364 -0.00011669771 -9.24229e-05 -0.25578448 -0.38183188 -0.39598233
-1.513795e-05
00000000: 2f66 ccbe 76dd 65bd 5c92 62bf a965 83be
00000010: 6725 74be 0077 85be 192d 32bd ae57 ab3a
00000020: a864 54be bf3e 57be 1466 2c3a c2ef de39
00000030: 1d24 1dba 414d 613a 5678 303a 7584 0cb9
00000040: accc 9b3e 7841 a438 ae53 7bbe 9bbb f4b8
00000050: 2bd3 c1b8 2ff6 82be 787f c3be 32be cabe
00000060: 00f9 7db7

0.bias f4 [5]
0.0077878204 -0.017831098 0.016008085 0.012358241 0.025587538
00000000: f930 ff3b 8612 92bc 6323 833c 387a 4a3c
00000010: f59c d13c
