runs/results_for_RL_paper/trial1_ae2_enc_linear_dec_linear_pred_relu_latentd_4_bs_10_lr_0_001_w_l1_0p01_to_enc_and_to_pred_dataset_grid_f5_nonlinear/checkpoints/epoch=603-total_val_loss=0.65.ckpt (torch, 13207 bytes, 15 tensors)

submodules.encoder.0.weight f4 [4, 5]
000000 b0 3b 93 3d a5 9d d7 be a5 7b 0d be 0b b3 0c 3e
       0.07189119 -0.4211246 -0.13816698 0.13740174
000010 0d 4c 56 be 2e 98 09 39 4c 7f 0d 3e a9 b9 68 39
       -0.20927449 0.0001312203 0.13818091 0.00022194408
000020 cd 01 e0 3e f8 58 23 3a ef d2 97 bd 3d 3a 64 3d
       0.43751374 0.0006231214 -0.07413279 0.055719603
000030 ce a4 88 3e f9 2f 7e 3d bc 02 db be 97 12 96 3d
       0.26688236 0.06205747 -0.42775524 0.073277645
000040 cc 38 e8 37 0b b8 2a be 35 da c9 3d 9e 37 17 3f
       2.7683003e-05 -0.1667177 0.09856073 0.5906924

submodules.encoder.0.bias f4 [4]
000000 44 2c 01 be 63 f8 9f 3d 49 34 a3 bc f2 c0 af bd
       -0.12614542 0.07811048 -0.019922392 -0.08581723

submodules.predictor.0.weight f4 [1, 4]
000000 e2 e7 67 bf 19 4a 2c ba cd 9c eb 3a 85 7b 0c be
       -0.905882 -0.00065723207 0.0017975807 -0.13718994

submodules.decoder.0.weight f4 [5, 4]
000000 f4 99 be 3d 97 e4 86 3e ae 79 d4 bf 0d 42 44 be
       0.09306708 0.26346275 -1.6599634 -0.19165821
000010 4b 1a c2 bf 88 2b f6 3e 52 74 81 be 7f 9f 84 3d
       -1.5164274 0.48080087 -0.25284058 0.06475734
000020 5c 1e 81 bf f3 51 a8 3e 2c 0f 9b 3f 28 88 16 bf
       -1.008739 0.32875022 1.2114005 -0.5880151
000030 6c 58 2c 3f be bb e0 3f e8 aa 69 3f 2a fa 54 3f
       0.6732242 1.7557294 0.9127641 0.8319422
000040 ee b1 14 bf c5 a0 b9 3d 1b c7 a1 be 98 d9 2d 3f
       -0.58084 0.090638675 -0.31597218 0.67910147

submodules.decoder.0.bias f4 [5]
000000 90 8c 5d bd f1 ab 65 be 82 eb 46 be 92 5e 19 3d
       -0.05408913 -0.22428872 -0.19425777 0.037443705
000010 fc 34 0a bd
       -0.033741936

exp_avg f4 [4, 5]
000000 18 e3 85 bc 74 21 86 bc 7a ec 03 3d a8 0f ae 3c
       -0.016343638 -0.016373374 0.032207943 0.0212477
000010 97 0c d4 bc e2 7f e1 bb f3 af 9d bc 0c ea 51 3a
       -0.02588491 -0.0068817 -0.019248938 0.0008007593
000020 d0 9f fa 3b 64 d4 98 bc b2 24 b8 bc f2 2f fa bc
       0.0076484457 -0.018655963 -0.022478435 -0.03054044
000030 aa 5d 72 3c 9e c0 98 3c 8d ae 10 bd 24 47 67 ba
       0.014792839 0.018646535 -0.035322715 -0.00088225515
000040 d4 79 2b bc 64 ff b3 3a 81 98 2c 3c 58 f0 e9 ba
       -0.010466058 0.0013732729 0.010534407 -0.0017848117

exp_avg_sq f4 [4, 5]
000000 6e 4a a6 3d 83 dc 38 3d 65 f1 b6 3d d6 64 ad 3d
       0.08119665 0.04513217 0.08932761 0.084664986
000010 86 94 8c 3d 59 59 1e 3d 0a 7b f8 3c 58 9c 11 3d
       0.06864266 0.038659427 0.030332107 0.03554949
000020 78 5e c8 3c 7c f2 16 3d cb 49 a9 3c 2e df af 3c
       0.024459109 0.036852345 0.02066507 0.021468725
000030 a6 0e 96 3c 62 53 70 3c 49 4c b3 3c 0e 15 44 3c
       0.018317532 0.0146683175 0.021886962 0.01196791
000040 fb 18 1b 3c 43 e1 40 3c f8 8d 08 3c 5d a7 38 3c
       0.009466405 0.011772457 0.008334629 0.011270371

exp_avg f4 [4]
000000 9b 39 2c 3d d6 42 25 bd 5b 45 0f bd 40 d2 8d bc
       0.042047124 -0.040346943 -0.034978252 -0.01731217

exp_avg_sq f4 [4]
000000 6c b3 aa 3d 66 63 dc 3c 3b b3 82 3c 56 21 18 3c
       0.08335003 0.026902866 0.015954604 0.009285292

exp_avg f4 [1, 4]
000000 93 93 84 3b 98 5c 88 bc 34 8c 2a 3b 08 66 69 bb
       0.0040459125 -0.016645715 0.002602351 -0.0035613794

exp_avg_sq f4 [1, 4]
000000 f9 a2 7d 3c d0 a6 a1 3c 3a 1e 2e 3d d0 e2 78 3d
       0.01548075 0.019732863 0.042509295 0.06076318

exp_avg f4 [5, 4]
000000 f0 5d 7a bb eb e2 86 3a 85 c3 33 bb dc 0d c0 ba
       -0.0038202964 0.0010291015 -0.002742977 -0.0014652568
000010 5e 2d 88 bb 91 8e 3f bb 51 af 94 bb 02 ab 24 3c
       -0.004155799 -0.0029229263 -0.004537501 0.010050537
000020 49 ca c9 3b 82 43 8f 39 38 7a 7e ba cd b6 8e bb
       0.0061581475 0.00027325383 -0.0009707543 -0.0043552876
000030 80 88 5a 3c da 7b 84 bb d8 e1 07 3c 0c 04 1b bc
       0.013338208 -0.0040430846 0.008293591 -0.009461414
000040 ba 83 0d 3b f0 19 cd 39 00 17 93 38 60 09 8b bb
       0.0021593408 0.00039119972 7.01379e-05 -0.004243061

exp_avg_sq f4 [5, 4]
000000 d1 16 a5 3a 71 81 56 3a 06 33 22 3b 19 01 83 3b
       0.0012595301 0.00081827404 0.002474965 0.0039979336
000010 ee 9a 94 3a 36 71 55 3a 16 c8 13 3b ed 80 67 3b
       0.0011337677 0.0008142175 0.002254968 0.0035324648
000020 b4 fc 8d 3a e6 51 4b 3a e9 86 0c 3b 0c 60 57 3b
       0.0010832758 0.0007756039 0.0021442717 0.0032863645
000030 43 b8 51 3b bf cb e3 3a bc 10 e9 3b d8 ec 2e 3c
       0.0032000698 0.0017379447 0.0071125906 0.010676585
000040 2c 51 92 3a de da 4d 3a 29 95 0f 3b 21 9b 5e 3b
       0.0011163107 0.0007852743 0.0021908975 0.0033966976

exp_avg f4 [5]
000000 a8 92 8d 3c 9e c0 a8 bc 40 f5 18 3c 0d 26 b5 bc
       0.017281845 -0.02059966 0.009335816 -0.02211287
000010 b1 20 03 3c
       0.0080034

exp_avg_sq f4 [5]
000000 4d 72 85 3b f7 88 79 3b 34 46 7a 3b ee 80 19 3c
       0.0040724636 0.0038076022 0.0038188817 0.009369118
000010 76 7f 76 3b
       0.0037612594
