runs/results_for_RL_paper/gridSamples_nonlinf5_ae2_trial18_enc_linear_dec_linear_pred_tanh_3lay_latentd_4_bs_10_lr_0_001_w_l1_0p01_to_enc_and_to_pred_split_0/submodule_params/predictor_params.pt (torch, 2399 bytes, 5 tensors)

0.weight f4 [4, 4]
0.84219927 0.0002709718 0.4604322 -0.3387316 -6.0827908e-05 -0.00020709333 -5.2109914e-05 -5.5875982e-05
-0.00022141889 -0.000114434595 -2.6960828e-05 -1.5648257e-06 1.7286075e-05 5.7794998e-05 -3.3440258e-05 0.00026992656
00000000: 5f9a 573f 3811 8e39 c5bd eb3e 3a6e adbe
00000010: 7821 7fb8 3127 59b9 9890 5ab8 615c 6ab8
00000020: ae2c 68b9 9bfc efb8 f029 e2b7 0007 d2b5
00000030: 9001 9137 e868 7238 3442 0cb8 ee84 8d39

0.bias f4 [4]
-0.58148265 0.0049935905 0.08562178 0.01056395
00000000: 0cdc 14bf 46a1 a33b 795a af3d 6b14 2d3c

2.weight f4 [4, 4]
0.000100259254 9.110615e-05 -4.9147093e-05 0.00016683401 -0.0002815939 -0.0001930748 -2.8223149e-06 2.8372477e-05
1.640133 1.0249554e-05 0.000107504515 0.00021582303 -5.1251118e-05 -0.00018552972 -4.867725e-07 -0.00012664238
00000000: 4742 d238 3e10 bf38 4a23 4eb8 2af0 2e39
00000010: e5a2 93b9 1f74 4ab9 0067 3db6 6e01 ee37
00000020: e1ef d13f 80f5 2b37 0c74 e138 8e4e 6239
00000030: 78f6 56b8 c18a 42b9 c0aa 02b5 4ecb 04b9

2.bias f4 [4]
0.027453981 0.010666302 -0.0067698546 -0.0086024655
00000000: 2ce7 e03c b7c1 2e3c a8d5 ddbb 5bf1 0cbc

4.weight f4 [1, 4]
-0.000120990844 2.690847e-05 -1.6596652 6.514484e-05
00000000: 77bc fdb8 80b9 e137 e96f d4bf 5f9e 8838
