runs/results_for_RL_paper/gridSamples_nonlinf5_ae2_trial4_enc_tanh_no_dec_pred_tanh_5lay_latentd_4_bs_10_lr_0_001_w_l1_0p01_to_enc_and_to_pred/submodule_params/encoder_params.pt (torch, 1219 bytes, 2 tensors)

0.weight f4 [4, 5]
000000 92 a1 0e 3b 86 39 d6 3a 5d 08 d2 ba 2e 03 26 3b
       0.0021763784 0.0016344048 -0.0016024221 0.0025331485
000010 43 e2 25 3b b6 e7 69 3b e1 e3 1a 3d e3 78 47 bb
       0.0025311864 0.003569109 0.03781498 -0.0030437044
000020 90 b9 ef bc 42 cf 9e 3e 16 d8 f2 3e 8e 0f 51 bd
       -0.029263288 0.310175 0.47430485 -0.051040225
000030 91 39 58 be 2a 8b 44 be 8c dc df be 3a f8 78 3b
       -0.2111571 -0.19193712 -0.4372295 0.0037989751
000040 3a 4d 6a 3b e1 a3 50 bb 5b 08 fd ba 4e fc 4c 3e
       0.0035751597 -0.003183596 -0.0019304858 0.20018122

0.bias f4 [4]
000000 72 29 d5 3e 06 56 b1 3c 85 9a b3 3d 5b d3 06 be
       0.41633183 0.021647464 0.08769707 -0.13166563
