runs/results_for_RL_paper/gridSamples_nonlinf5_ae2_trial4_enc_tanh_no_dec_pred_tanh_5lay_latentd_4_bs_10_lr_0_001_w_l1_0p01_to_enc_and_to_pred/submodule_params/predictor_ext_params.pt (torch, 3153 bytes, 8 tensors)

0.weight f4 [4, 4]
-0.108215265 0.6659101 2.052428 0.4816358 0.31750593 1.6941876 -0.16305259 1.3471719
1.3182998 0.36632428 0.9875512 0.24700096 0.41095084 -0.042988524 -1.0271564 0.0961311
00000000: f79f ddbd 1679 2a3f fb5a 0340 f898 f63e
00000010: 2390 a23e 24db d83f 42f7 26be 2170 ac3f
00000020: 0cbe a83f db8e bb3e 28d0 7c3f d2ed 7c3e
00000030: 2668 d23e bc14 30bd dc79 83bf 62e0 c43d

0.bias f4 [4]
0.18760985 0.38731438 0.17171024 0.045971792
00000000: cc1c 403e 124e c63e cfd4 2f3e eb4c 3c3d

2.weight f4 [4, 4]
-2.2411594 -0.4195057 -0.19329819 0.50052285 0.77449554 -0.7488011 -0.33630645 -0.506772
1.2244215 -0.0025732284 0.556273 -0.9330007 -0.17088671 0.25932902 0.17937481 0.5408086
00000000: 286f 0fc0 73c9 d6be f6ef 45be 4422 003f
00000010: 5745 463f 6eb1 3fbf 5c30 acbe cfbb 01bf
00000020: d8b9 9c3f 9ca3 28bb e867 0e3f 22d9 6ebf
00000030: edfc 2ebe c6c6 843e 08ae 373e 6f72 0a3f

2.bias f4 [4]
-0.10765764 -0.13587783 0.16312984 0.024035068
00000000: 9c7b dcbd 8f23 0bbe 820b 273e 31e5 c43c

4.weight f4 [4, 4]
-2.4993403 -0.22783177 2.6153405 -0.68573 0.012839271 -0.8609657 -0.98311704 0.1802944
-0.7449182 1.0266157 0.04453832 -0.7973995 -2.741449 0.35166228 2.9109397 -0.35274658
00000000: 31f5 1fc0 bb4c 69be bd61 2740 008c 2fbf
00000010: ce5b 523c 4068 5cbf 8fad 7bbf 189f 383e
00000020: f6b2 3ebf 2568 833f d06d 363d 6022 4cbf
00000030: e773 2fc0 140d b43e d64c 3a40 339b b4be

4.bias f4 [4]
0.6973021 -0.09870934 -0.06532905 0.19814731
00000000: 6482 323f 1f28 cabd 3dcb 85bd 21e7 4a3e

6.weight f4 [4, 4]
-0.31981006 -0.63824636 1.3284541 -1.4201326 -0.39778087 0.33008882 0.90053385 -0.030386962
0.8017383 -2.21908 1.9349477 0.5630793 2.1040463 -1.230116 0.17779209 1.3963356
00000000: 25be a3be 1d64 23bf c90a aa3f e8c6 b5bf
00000010: efa9 cbbe 6701 a93e 6389 663f 14ee f8bc
00000020: b93e 4d3f 6805 0ec0 5eac f73f f725 103f
00000030: b2a8 0640 7174 9dbf 210f 363e 20bb b23f

6.bias f4 [4]
0.8313491 0.3513222 0.43462074 1.019854
00000000: 4bd3 543f 81e0 b33e 9c86 de3e 938a 823f
