runs/results_for_RL_paper/gridSamples_sumf5_ae1_trial8_enc_linear_dec_linear_no_predictor_latentd_1_bs_10_lr_0_001_w_l1_0p01_to_enc/checkpoints/last.ckpt (torch, 10095 bytes, 9 tensors)

submodules.encoder.0.weight f4 [1, 8]
0.14984068 0.0002725545 0.0002482778 0.0598515 0.00027330636 0.058685433 0.0002455551 1.1870189
00000000: d66f 193e a5e5 8e39 482b 8239 d926 753d
00000010: 8f4a 8f39 2360 703d d9bd 8039 3cf0 973f

submodules.decoder.0.weight f4 [8, 1]
0.6871325 0.68721694 0.6877559 0.687314 0.68761975 0.6870184 0.6870305 0.68723536
00000000: eae7 2f3f 73ed 2f3f c510 303f cff3 2f3f
00000010: d907 303f 70e0 2f3f 3be1 2f3f a8ee 2f3f

submodules.decoder.0.bias f4 [8]
-0.016766941 -0.01699987 -0.016755963 -0.016645474 -0.016881883 -0.016991664 -0.016909262 -0.016158331
00000000: d35a 89bc 5043 8bbc cd43 89bc 175c 88bc
00000010: e04b 8abc 1a32 8bbc 4b85 8abc 7a5e 84bc

exp_avg f4 [1, 8]
0.033521682 0.028919864 0.029374324 0.033521682 0.028919864 0.033521682 0.029379873 0.033521682
00000000: 084e 093d 5ae9 ec3c 6ca2 f03c 084e 093d
00000010: 5ae9 ec3c 084e 093d 0fae f03c 084e 093d

exp_avg_sq f4 [1, 8]
0.12549186 0.12816812 0.128325 0.12549186 0.12835535 0.12549186 0.12737459 0.12549186
00000000: f080 003e 813e 033e a167 033e f080 003e
00000010: 966f 033e f080 003e 7c6e 023e f080 003e

exp_avg f4 [8, 1]
0.009655116 0.006285969 0.008361831 0.013355767 0.0055776765 0.006622315 0.0025556097 -0.002002729
00000000: 7e30 1e3c 88fa cd3b 1000 093c 26d2 5a3c
00000010: f1c4 b63b 0100 d93b 047c 273b 3840 03bb

exp_avg_sq f4 [8, 1]
0.01718554 0.017246783 0.01719416 0.016958872 0.016945263 0.016805131 0.016414985 0.016941419
00000000: b1c8 8c3c 2049 8d3c c4da 8c3c 55ed 8a3c
00000010: cbd0 8a3c eaaa 893c b878 863c bbc8 8a3c

exp_avg f4 [8]
-0.01808998 0.011955309 -0.007135215 0.010666793 -0.002674937 0.008588186 -0.0029390987 0.007747715
00000000: 7031 94bc 33e0 433c 86ce e9bb c6c3 2e3c
00000010: ff4d 2fbb 77b5 0c3c e59d 40bb 8be0 fd3b

exp_avg_sq f4 [8]
0.005977884 0.0060743755 0.005998465 0.006036664 0.006039706 0.0061768545 0.0063469415 0.0060471566
00000000: 20e2 c33b 8e0b c73b c68e c43b 35cf c53b
00000010: bae8 c53b 3667 ca3b 01fa cf3b 3a27 c63b
