runs/results_for_RL_paper/trial2_enc_relu_dec_relu_pred_relu_latentd_4_bs_10_lr_0_001/checkpoints/last.ckpt (torch, 12823 bytes, 15 tensors)

submodules.encoder.0.weight f4 [4, 4]
000000 68 cd 6e 3e 59 30 e4 3e ea 0b 39 3a 51 40 83 3e
       0.23320544 0.44568136 0.0007058965 0.25635007
000010 da 88 ce 3d 07 4f 14 3e db 26 6f 3f fb 9f fb bc
       0.10084696 0.14483272 0.93418664 -0.030715933
000020 1f 97 ed be 12 b0 5a be 12 07 21 3d 4d c2 98 3b
       -0.4640436 -0.21356228 0.039313383 0.0046618343
000030 3a 68 ff be e8 76 36 be d7 77 6d bf c1 d3 cc be
       -0.49884206 -0.17818797 -0.92760986 -0.40005305

submodules.encoder.0.bias f4 [4]
000000 be 2b 04 3f 6c 77 78 3f 18 fd 7f 3e ce ba 63 3f
       0.51629245 0.97057223 0.24998891 0.88956916

submodules.predictor.0.weight f4 [1, 4]
000000 a7 d1 8f 3e 01 6e 9d 3e 95 19 f1 bd b8 5f ca bf
       0.2808964 0.3074799 -0.117724575 -1.5810461

submodules.decoder.0.weight f4 [4, 4]
000000 a6 d0 7b 3f c8 2b 5a be c9 b9 0d bf c5 fc 25 3f
       0.9836525 -0.21305764 -0.5536161 0.6483882
000010 ff 7a 6f 3e f6 7c 0d be 25 9b 47 bf ab a5 1e 3e
       0.23386763 -0.138172 -0.77971107 0.15492885
000020 06 f8 ac bc 60 04 50 3f 43 0e fa 3e 53 3f 89 bd
       -0.02111436 0.81256676 0.48839006 -0.06701531
000030 72 47 00 80 58 45 11 00 63 d2 04 80 bf eb 02 00
       -2.563e-41 1.586079e-39 -4.42815e-40 2.68241e-40

submodules.decoder.0.bias f4 [4]
000000 9a fc 35 bf 1f 3e fe 3e f6 eb 4b bf 3e 7c 1e bd
       -0.71088564 0.4965677 -0.7965692 -0.038692705

exp_avg f4 [4, 4]
000000 f5 ea e0 bc fc a2 ae bc 83 51 e2 3c c2 09 05 bc
       -0.027455786 -0.021317951 0.027626758 -0.008120002
000010 10 a0 e7 bb f2 4f 2c bc 65 ae bf 3a c8 75 24 ba
       -0.0070686415 -0.010517107 0.0014624117 -0.0006273654
000020 dd 6c 5e bb 24 aa ee 3a 1e 98 34 3b 14 0b 6e 3b
       -0.00339394 0.0018208665 0.002755649 0.003632252
000030 be d3 e4 3c 8d c9 42 3d ce 4b 39 bc 85 72 aa 3c
       0.027932998 0.047555495 -0.011309577 0.02080656

exp_avg_sq f4 [4, 4]
000000 de d8 14 3c 16 f1 b5 3b db 57 21 3c 52 ab 18 3c
       0.009084908 0.0055524213 0.0098476065 0.00931819
000010 43 56 a0 3b 00 97 a7 3b e3 c5 93 3b a2 43 fd 3b
       0.0048930957 0.005114436 0.004509674 0.0077290097
000020 dc ba f6 3a 87 63 1c 3b 9a 54 e2 3a 47 3b 78 3b
       0.0018823999 0.0023863034 0.0017267645 0.003787713
000030 f4 66 c9 3d 98 23 e1 3d 78 e7 b1 3d cc 0b 18 3e
       0.0983409 0.10993117 0.08686727 0.1484825

exp_avg f4 [4]
000000 a4 1e 16 bd b8 a2 06 bc a5 69 98 3b 4e 0e ee 3c
       -0.036650315 -0.008217506 0.0046512657 0.029059555

exp_avg_sq f4 [4]
000000 a6 6f 57 3c 14 3b 53 3c 85 73 8f 3b c1 ca 65 3e
       0.013149178 0.012892503 0.0043777847 0.22440626

exp_avg f4 [1, 4]
000000 4b 4e 24 bd a6 8b 02 bd 84 31 fd 3a c2 a3 73 bc
       -0.04011373 -0.03187146 0.0019317125 -0.014870586

exp_avg_sq f4 [1, 4]
000000 a0 91 54 3d c7 64 25 3e cd 5c ed 3c 73 4a b4 3c
       0.05189669 0.16151725 0.028974915 0.022008156

exp_avg f4 [4, 4]
000000 c6 d9 95 bc b6 66 b5 bb 14 73 0f 39 63 2f 98 bc
       -0.018292319 -0.0055359257 0.00013680413 -0.018577283
000010 73 b8 02 bd 83 72 a7 bc de 91 48 bb 37 35 13 bd
       -0.031914186 -0.020440346 -0.0030604522 -0.03593942
000020 a5 f0 33 bb c2 c6 7d bb 93 1f a2 3a d7 c6 4e bb
       -0.0027456668 -0.0038723205 0.0012369029 -0.0031551623
000030 04 00 00 00 ea 00 00 00 40 00 00 80 2c 00 00 00
       6e-45 3.28e-43 -9e-44 6.2e-44

exp_avg_sq f4 [4, 4]
000000 ff 0e 88 3b bb 4e b6 3a 3e f9 82 36 9d c1 c7 3b
       0.0041521783 0.0013908962 3.9033175e-06 0.0060960785
000010 4c 39 98 3b c9 34 82 3b 53 68 53 39 94 5e d8 3b
       0.004645502 0.0039735776 0.00020161392 0.0066030715
000020 b4 19 76 3a 6e 3e 6f 3c 70 28 7f 3b bd ff 8b 3b
       0.00093879853 0.014602287 0.0038934015 0.0042724297
000030 82 b0 a9 26 64 32 10 2b 04 83 ca 25 1c bc ba 26
       1.1774573e-15 5.122901e-13 3.5130194e-16 1.295733e-15

exp_avg f4 [4]
000000 c3 d7 53 bc d8 b9 f9 bc ac 74 35 ba 04 00 00 00
       -0.01292986 -0.030484125 -0.00069219875 6e-45

exp_avg_sq f4 [4]
000000 f3 69 5b 3b b1 bf 94 3b 5f d3 e3 3b fd 4d b2 2b
       0.0033479899 0.004539453 0.0069526876 1.2669307e-12
