runs/results_for_RL_paper/randomSamples_sumf5_ae2_trial5_enc_linear_dec_linear_no_pred_latentd_12_bs_10_lr_0_001_w_l1_0p01_to_enc/checkpoints/last.ckpt (torch, 13359 bytes, 12 tensors)

submodules.encoder.0.weight f4 [12, 12]
0	0xbbbfcee2	-0.00585352
1	0xbdb41482	-0.08792974
2	0xbaca126a	-0.0015416865
3	0x3a310ae9	0.000675364
4	0xbcdb414d	-0.026764536
5	0x3a0ac9c0	0.00052943453
6	0x3a82d9ad	0.0009983085
7	0x3aa2955f	0.0012404135
8	0x3dbbba88	0.091664374
9	0x3d89c721	0.06727434
10	0x3e3847f3	0.17996196
11	0x3dcadf3f	0.09905862
12	0xbbc75064	-0.0060825814
13	0x3e3bc56b	0.18337028
14	0x3aac5350	0.0013147388
15	0x3cffaea8	0.031211212
16	0xbe7b7fcb	-0.24560468
17	0x3a5264a3	0.00080258603
18	0xba387552	-0.0007036525
19	0xb8cbeff8	-9.724492e-05
20	0x3a3bf575	0.000717006
21	0x3811b3a8	3.4738012e-05
22	0x3a111d9d	0.0005535724
23	0x3ba15ccc	0.0049243923
24	0xba60c1ce	-0.0008573801
25	0xbd6c5c1e	-0.057705037
26	0x3de776bd	0.113019444
27	0x39fa0421	0.00047686792
28	0xb9e1a780	-0.00043040141
29	0xbb3c99f5	-0.002877829
30	0x38b0ee94	8.4367726e-05
31	0x3e62b5ec	0.2213971
32	0xb6823820	-3.8808357e-06
33	0xb9ad5e88	-0.00033067563
34	0xbd878959	-0.06617994
35	0x3a95d4b3	0.0011431187
36	0x3b5b1dd4	0.0033434527
37	0x38e35876	0.000108406806
38	0xbaba2dbd	-0.0014204305
39	0xb9bd2890	-0.0003607911
40	0xb9cee3fc	-0.00039461243
41	0xba48bba6	-0.00076573563
42	0x3eaf3a6f	0.3422427
43	0xb9ebd494	-0.00044981076
44	0x3c2099c2	0.009802284
45	0x39eefac6	0.00045581738
46	0xbc1f116a	-0.009708742
47	0x39feaf79	0.00048577393
48	0x3a12ea68	0.0005604387
49	0x3d985264	0.0743759
50	0x3a50f246	0.0007970672
51	0xbe0a4eca	-0.13506618
52	0x3a7b5416	0.000958742
53	0xbdd43e77	-0.10363477
54	0xb8ab314e	-8.163099e-05
55	0x39c0c13f	0.00036765073
56	0x399207db	0.00027853143
57	0xba54165f	-0.0008090492
58	0x3d9e798c	0.07738027
59	0xbdc539b9	-0.0963015
60	0xb9dd19b2	-0.0004217155
61	0xbabccf82	-0.0014405104
62	0xbe2ec7cc	-0.17068404
63	0xb7b35ba0	-2.1381129e-05
64	0xba2b49f9	-0.0006534155
65	0xbdc5e918	-0.096636
66	0xb91637b7	-0.0001432587
67	0xb8f4715c	-0.000116559415
68	0x38d421da	0.00010115253
69	0x3dbab357	0.091162376
70	0xbde437f9	-0.111434884
71	0x393e01c7	0.00018120474
72	0xba338c17	-0.0006849183
73	0x3d6fe1db	0.058565002
74	0xbe148575	-0.14504035
75	0x390facd0	0.0001370192
76	0xb8fc5848	-0.0001203274
77	0x3d2f6c49	0.04282788
78	0x3659b980	3.2443495e-06
79	0x3e390a75	0.18070395
80	0x3987591e	0.00025815604
81	0x38f48e94	0.00011661384
82	0x3d677997	0.05651244
83	0x3a474572	0.0007601596
84	0xbb365c6d	-0.0027826086
85	0xbd89c5b5	-0.06727163
86	0x394d34ae	0.00019569948
87	0xbac09a11	-0.0014694353
88	0xbe3b52ba	-0.18293276
89	0xba4f134e	-0.00078993
90	0xba5ec8c2	-0.0008498543
91	0xb8857255	-6.36323e-05
92	0x39b6830f	0.0003481139
93	0x3dad6332	0.08466186
94	0xb91b4592	-0.00014807869
95	0xbe2080d8	-0.1567415
96	0xbb783cb6	-0.0037877983
97	0x3953687e	0.00020161454
98	0x3a5c5b33	0.0008405924
99	0x399d8bbc	0.00030049484
100	0x386219c8	5.390661e-05
101	0xba4d7a42	-0.0007838347
102	0xbd238d87	-0.039929893
103	0x3a2f5bd3	0.0006689403
104	0x3e931de9	0.28733757
105	0xba7910ca	-0.0009501098
106	0xbbacd2b2	-0.0052741403
107	0xba530d21	-0.00080509676
108	0xba5c6d0e	-0.00084085844
109	0x3dfcf5c4	0.123515636
110	0x3d80524f	0.06265699
111	0x36d18f50	6.245369e-06
112	0x3cc7d7f3	0.024394965
113	0x394bed50	0.00019447994
114	0xb8326fac	-4.254251e-05
115	0x39b0d00e	0.0003372435
116	0x3a27567c	0.00063834316
117	0x3e7f5df5	0.24938186
118	0x398fad76	0.00027404324
119	0x3931038c	0.00016881357
120	0xbb1261a0	-0.002233602
121	0x3a843e22	0.0010089318
122	0xb9f41564	-0.00046555244
123	0xbdf3e3e4	-0.11908701
124	0xb9e068c4	-0.00042802666
125	0x3e4b4345	0.1984988
126	0xba35cdfe	-0.0006935297
127	0xba619034	-0.0008604557
128	0x3c40298c	0.011728656
129	0x38791698	5.938727e-05
130	0xbd27b0cc	-0.04094009
131	0xba9a4aa1	-0.0011771509
132	0x3a2d85ce	0.0006619365
133	0xbab9df9a	-0.0014181018
134	0x3984cc99	0.0002532944
135	0xbe3e0aeb	-0.18558852
136	0xbc90f81f	-0.017696438
137	0xbc1aadcb	-0.00944085
138	0x38a463ad	7.8386955e-05
139	0xba2a481a	-0.00064957293
140	0xba9d0473	-0.0011979475
141	0x39304792	0.0001681133
142	0x3a27c01c	0.0006399171
143	0x3e2c8478	0.16847408

submodules.encoder.0.bias f4 [12]
0	0xba06c5ee	-0.0005141188
1	0xbae3c20a	-0.0017376554
2	0xbbc7db70	-0.006099157
3	0x3c395907	0.01131273
4	0x3b8d4977	0.004311736
5	0x3a77e430	0.0009456305
6	0x3aea41be	0.0017872376
7	0x3b9afa87	0.004729572
8	0x3c1d6b0a	0.00960804
9	0x3b1c71cf	0.0023871546
10	0xbbb081b2	-0.0053865546
11	0x3bab342b	0.0052247248

submodules.decoder.0.weight f4 [12, 12]
0	0xbfac2ebd	-1.3451763
1	0xbfae91eb	-1.3638281
2	0xbee9fcac	-0.45700586
3	0x3f8a35ff	1.0797728
4	0x3ede8a89	0.4346507
5	0xbf127f29	-0.5722528
6	0xbed4362c	-0.4144758
7	0xbf7eae4e	-0.9948472
8	0xbf96cc06	-1.1781013
9	0xbf0ba8c2	-0.5455438
10	0xbf69c9be	-0.9132346
11	0xbd182290	-0.037142336
12	0xbfbb0cbf	-1.4613265
13	0x3ffbadc8	1.9662409
14	0xbf36fd70	-0.71480465
15	0x3d5ccf72	0.053908773
16	0x3f961b6d	1.172712
17	0xbf2cdf31	-0.67528063
18	0x3f5d5b22	0.8646718
19	0xc00b75ad	-2.1790574
20	0x3ee6246a	0.44949657
21	0x3fb2cbd5	1.3968455
22	0x3d7078b2	0.058708854
23	0xbf07bef7	-0.53025764
24	0xbe80b03c	-0.25134456
25	0x3e98e95e	0.29865545
26	0x3fef41e8	1.8691988
27	0x3c0350a7	0.0080148345
28	0x3ea13b4a	0.31490546
29	0xc013114f	-2.2979314
30	0xc0123f90	-2.2851295
31	0xbe728aa9	-0.23685707
32	0x3dd8e7c8	0.10591084
33	0x3f7f424d	0.9971054
34	0xbedc95d5	-0.43083063
35	0x3dc9f0c3	0.09860375
36	0x3eed8aa8	0.4639485
37	0x3f30da70	0.6908331
38	0xbe3a63e7	-0.18202172
39	0xbc1b48fc	-0.00947785
40	0xc0219ef0	-2.5253258
41	0xbe6d29f4	-0.23160535
42	0x3e65614d	0.22400399
43	0xbf3f9575	-0.7483743
44	0xbda67399	-0.08127517
45	0x3e5804f6	0.21095642
46	0xbfca37a2	-1.5798228
47	0xc01b8331	-2.4298823
48	0xbf47ae49	-0.78000313
49	0xc014a86e	-2.3227801
50	0xbed46c38	-0.41488814
51	0x3bd8fdca	0.006622051
52	0x3f267097	0.6501555
53	0xbea78a45	-0.3272268
54	0x3f07c533	0.5303528
55	0xbff8e9df	-1.9446372
56	0x3e931387	0.28725836
57	0x3f82cdd1	1.021906
58	0x3d10dbd2	0.035365887
59	0xbf62bd02	-0.88569653
60	0xbd0c47b0	-0.034248054
61	0xbde3a0f6	-0.11114685
62	0xbf60f521	-0.8787404
63	0xbbd2e725	-0.006436246
64	0xbfe3d5db	-1.7799639
65	0xbface9c1	-1.3508836
66	0x3f89247f	1.0714263
67	0x3e847008	0.25866723
68	0xbe0efb63	-0.13963084
69	0x3ece9b16	0.40352696
70	0x4049dbfc	3.1540518
71	0xbf3c508f	-0.7356042
72	0x3efaf408	0.49014306
73	0x3e6bd723	0.23031287
74	0x3e689ac9	0.22715296
75	0x4038b258	2.8858852
76	0x3ea0ea29	0.3142865
77	0x3eab28bc	0.33429515
78	0xbe896756	-0.26836652
79	0xbead018d	-0.33790246
80	0xbe861a71	-0.26192048
81	0xbe00a9c5	-0.12564762
82	0x3ec06631	0.37577966
83	0xbeda9772	-0.4269367
84	0xbd88f0fb	-0.066865884
85	0xbd391c7b	-0.045193177
86	0x40269d69	2.6033576
87	0x3bcf4feb	0.0063266656
88	0x3e12200e	0.1427004
89	0xbe64e4e6	-0.22352943
90	0x40157fb3	2.3359191
91	0x3d844282	0.06457998
92	0x3d241dd7	0.04006752
93	0x3d99a15d	0.07501481
94	0xbeeb4541	-0.45951274
95	0x3e3a703b	0.18206875
96	0x3f4a6062	0.7905332
97	0x3ec9c0ab	0.39404806
98	0x3ee8c074	0.4545933
99	0x3ecebf06	0.40380114
100	0x3f0e3fef	0.55566305
101	0x3f2cf05b	0.67554253
102	0xbf121872	-0.5706855
103	0xbf28d8cf	-0.65955824
104	0x40498b97	3.149145
105	0xbe858960	-0.2608137
106	0x3f33288b	0.6998374
107	0xbf472713	-0.77794
108	0x3f94f128	1.1636095
109	0xbf2c2b46	-0.6725353
110	0x3df49904	0.11943248
111	0xbd201195	-0.039079268
112	0xbf0580e7	-0.52149814
113	0x3fa03e28	1.2518969
114	0xbe1bf672	-0.1523073
115	0x3f897f28	1.074193
116	0xbecadf26	-0.39623374
117	0x4037039a	2.8595948
118	0x3ebadabe	0.36495012
119	0x3cca4754	0.024692215
120	0x401f54a1	2.4895403
121	0xbe9aa3a3	-0.3020297
122	0xbfa134d8	-1.2594252
123	0xbdaee267	-0.085392766
124	0x3fb152ee	1.3853433
125	0xc0065d15	-2.0994313
126	0x3fc319f4	1.5242295
127	0x3da9f43f	0.08298539
128	0xbf479a78	-0.77970076
129	0x3d8e77b5	0.06956426
130	0xbf320def	-0.6955251
131	0xbf195f19	-0.5991073
132	0x3fb6d874	1.4284806
133	0x3f8d06f9	1.1017753
134	0x3eb84f59	0.35998037
135	0xbd2a1a9a	-0.041529275
136	0xc006881e	-2.102058
137	0x3f1c2cfc	0.6100614
138	0xbee297cd	-0.4425644
139	0xbff44e0d	-1.9086319
140	0xbee01269	-0.43764046
141	0x3cbc5193	0.022988116
142	0xbf183f9c	-0.5947206
143	0x4005aa3c	2.0885153

submodules.decoder.0.bias f4 [12]
0	0xbbf082f6	-0.0073398305
1	0x39881f7b	0.00025963396
2	0x3c5045f5	0.012711992
3	0x3c974b56	0.01846854
4	0x3b0f3787	0.0021853165
5	0x3cc44fd8	0.023963854
6	0xbca39a4c	-0.019971035
7	0x3ba72ba4	0.005101638
8	0xbc8fdc38	-0.017561063
9	0xbbcfb398	-0.006338548
10	0xbbb6e39f	-0.005581334
11	0x3c61a578	0.013772361

exp_avg f4 [12, 12]
0	0xbbba46c7	-0.005684707
1	0x3c8a7c5f	0.016905008
2	0x3cf78e3a	0.030219186
3	0xbc0b439f	-0.008500009
4	0xbc2a20ca	-0.010383794
5	0x3d0a67b9	0.033790324
6	0xbc0602cf	-0.008179381
7	0xbbe3f5f8	-0.006956812
8	0xbc3093fb	-0.010777469
9	0x3a8be061	0.0010671729
10	0xbcda6276	-0.026658278
11	0x3bcd30ae	0.0062619066
12	0xbcd8e6e4	-0.026477285
13	0xbb913c00	-0.0044322014
14	0x3bb3839a	0.0054783346
15	0x3c7d3bb2	0.015456127
16	0xbc86e020	-0.016464293
17	0x3a8cddf8	0.0010747304
18	0x3cc0810a	0.02349903
19	0x3cae957a	0.02131151
20	0x3cac0415	0.02099804
21	0x3d0835fd	0.033254612
22	0x3c32f1ea	0.010921935
23	0xbbb566c9	-0.0055359346
24	0x3c9bf279	0.019036518
25	0x3d4aa9d2	0.04947836
26	0xbc79a399	-0.015236759
27	0xbc25835c	-0.010102119
28	0xbcbda82d	-0.023151482
29	0xbb968512	-0.0045935
30	0x3d2967ab	0.04135863
31	0xbc1d93a1	-0.009617717
32	0xbd036693	-0.032080244
33	0xbca491cb	-0.02008905
34	0xbd1afa2d	-0.037836242
35	0x3b9d1e85	0.004794898
36	0x3d2f067d	0.042730797
37	0xbc006be0	-0.007838219
38	0xbb56d724	-0.0032782042
39	0xbc273c39	-0.010207229
40	0x3cf3b875	0.029751042
41	0xbd10c1eb	-0.035341185
42	0x3cbc36f8	0.02297543
43	0x3c161bd2	0.009161906
44	0xbc13e140	-0.009025872
45	0xbc43939f	-0.011937051
46	0x3c527263	0.012844655
47	0x3b3055bb	0.0026906568
48	0xbcf6d085	-0.030128727
49	0xbd858721	-0.065199144
50	0x3bdbbd29	0.0067058993
51	0x3d08af87	0.03337052
52	0x3b2bafaf	0.0026197245
53	0xbc9ea856	-0.019367378
54	0xbcbf6ea4	-0.023368187
55	0x3c65c754	0.014024574
56	0x3d2c2c77	0.042034592
57	0x3c16e76f	0.0092104515
58	0x3d8a1ac8	0.06743389
59	0x3ae247e4	0.0017263857
60	0x3ca36549	0.019945757
61	0x3d4ed460	0.050495505
62	0xbb762d25	-0.003756353
63	0xbd2cd526	-0.04219546
64	0x3b576227	0.00328649
65	0x3d1757bf	0.036948916
66	0x3d523729	0.051322136
67	0xbc9ff8ef	-0.01952788
68	0xbcba1f3e	-0.022719976
69	0x3c5df9b1	0.013548301
70	0xbd116b66	-0.035502814
71	0x3cdad320	0.026712
72	0x3c98ca07	0.018651022
73	0xbc6270dd	-0.013820854
74	0xb8aeda79	-8.33766e-05
75	0x3b545b13	0.0032402917
76	0x3c32b13c	0.010906514
77	0xbcead03f	-0.028663753
78	0xbd1d634b	-0.03842477
79	0xbcb47f3b	-0.022033324
80	0x3b7a1924	0.0038161958
81	0xbd81e2cd	-0.06342087
82	0x3c104f75	0.0088080065
83	0xbcfa81d3	-0.030579483
84	0xbd14e224	-0.036348477
85	0xba2edc9c	-0.00066704466
86	0x3cd09a43	0.025464183
87	0x3c8a4811	0.016880067
88	0xbd1e8eb3	-0.038710307
89	0x3d7d4d56	0.06184133
90	0xbc79a84d	-0.01523788
91	0x3c608488	0.013703473
92	0xbbc5fcc8	-0.0060420968
93	0x3ccc4318	0.024934337
94	0xbbeab6d1	-0.0071629067
95	0x3c8508da	0.016239572
96	0xb8818c75	-6.1773615e-05
97	0xbcd4f756	-0.025996845
98	0x3b076fd7	0.0020666027
99	0xbc59ede4	-0.013301346
100	0x3c8823cb	0.01661863
101	0xbb4524e5	-0.0030081805
102	0x3d0647ec	0.032783434
103	0x3b9828e8	0.0046435483
104	0x3d19274b	0.03739099
105	0x3cc09dee	0.023512807
106	0x3cb8ad6e	0.022543635
107	0x3bf5fb36	0.0075067533
108	0xbcbe7fb9	-0.023254262
109	0x3c802b22	0.015645567
110	0x3cdb6733	0.026782608
111	0x3b57228d	0.003282699
112	0xbaa9a093	-0.0012941532
113	0x3c2ffa3c	0.010740813
114	0x3b1ee62b	0.0024246078
115	0x3c05ee1b	0.008174445
116	0x3cfd6063	0.03092975
117	0x3ce1afcf	0.027549652
118	0xbce15357	-0.02750556
119	0x3c32fe24	0.01092485
120	0x3a82b056	0.0009970765
121	0xbd279791	-0.04091603
122	0x3d096a77	0.0335488
123	0xbced3a69	-0.028958516
124	0x3cf8d801	0.030376436
125	0xbb38133b	-0.0028087634
126	0x39823e72	0.00024842058
127	0x3b43dd84	0.0029886672
128	0x3d26e5b9	0.040746424
129	0x3cc0374f	0.023463873
130	0x3cf42558	0.029802963
131	0xbba09109	-0.004900102
132	0x3ae724e4	0.0017634896
133	0x3d1c3373	0.038135003
134	0x38e16dbe	0.00010749277
135	0xbce0ebe6	-0.027456235
136	0xbc145450	-0.009053305
137	0x3cbbca8c	0.02292373
138	0x3c4c43cf	0.012467339
139	0xbcc401cd	-0.02392664
140	0xbc8e83cb	-0.017396828
141	0x3c89e710	0.016833812
142	0xbcce6190	-0.025193006
143	0x3c2f4e1c	0.010699775

exp_avg_sq f4 [12, 12]
0	0x3c94bf9f	0.018157778
1	0x3c6decd1	0.014521793
2	0x3c633338	0.013867192
3	0x3c607df5	0.0137019055
4	0x3c6261c5	0.013817255
5	0x3c6263e5	0.013817762
6	0x3c77feb0	0.015136406
7	0x3c593cda	0.013259137
8	0x3c621547	0.013799018
9	0x3c79262b	0.015206854
10	0x3c6fd90d	0.014639151
11	0x3c553132	0.013012217
12	0x3c7809c9	0.015139052
13	0x3c5df99f	0.013548284
14	0x3c4105e4	0.01178119
15	0x3c3f43c0	0.011673868
16	0x3c342416	0.010994932
17	0x3c503667	0.012708283
18	0x3c557bc8	0.01303
19	0x3c4e61a4	0.0125965215
20	0x3c65a75a	0.0140169505
21	0x3c546edc	0.012965884
22	0x3c643be6	0.0139302965
23	0x3c39fbc9	0.011351534
24	0x3cb52ab1	0.022115083
25	0x3ca10a1d	0.019658143
26	0x3c7c1a55	0.015387137
27	0x3c932f0e	0.017966773
28	0x3c81a8e9	0.015827613
29	0x3c769b38	0.0150516555
30	0x3ca340bf	0.019928334
31	0x3c805447	0.015665187
32	0x3c99637d	0.018724198
33	0x3c9e233e	0.019303914
34	0x3ca990eb	0.020698985
35	0x3c873916	0.016506713
36	0x3c36edf4	0.011165131
37	0x3c47e948	0.012201615
38	0x3c17fc86	0.009276515
39	0x3c24350a	0.010022411
40	0x3c2e1197	0.010624311
41	0x3c177e0b	0.00924636
42	0x3c1ae4f0	0.009453997
43	0x3c1fe80e	0.009759916
44	0x3c2838bc	0.010267433
45	0x3c33d8b7	0.010976962
46	0x3c34a988	0.0110267475
47	0x3c1dbe70	0.009627923
48	0x3cef2423	0.029192036
49	0x3cd4837c	0.025941603
50	0x3cb05f3b	0.021529784
51	0x3c9f52f0	0.019448727
52	0x3cb27b56	0.021787327
53	0x3ca1d037	0.019752605
54	0x3cbce2fd	0.023057455
55	0x3ca4b8ec	0.020107709
56	0x3cc0f1fb	0.023552885
57	0x3cc60952	0.024174366
58	0x3cce81c5	0.025208363
59	0x3ca584fd	0.020205015
60	0x3ca3e0d0	0.02000466
61	0x3ca4f8ea	0.020138223
62	0x3c81386e	0.015773978
63	0x3c926b78	0.01787351
64	0x3c8f01f3	0.017456984
65	0x3c81a3d1	0.015825184
66	0x3c9d324d	0.019189024
67	0x3c8665ec	0.016406022
68	0x3c9f0cd3	0.019415295
69	0x3c88710c	0.016655467
70	0x3ca15502	0.019693855
71	0x3c8a92b1	0.016915651
72	0x3cde1c4b	0.0271131
73	0x3cc53c34	0.024076559
74	0x3ca2d61e	0.01987749
75	0x3ca86e11	0.020560296
76	0x3cb2ac77	0.021810753
77	0x3c9790e1	0.0185017
78	0x3cc70cc7	0.024298085
79	0x3ca5641c	0.020189337
80	0x3ccae869	0.024769025
81	0x3cbd8665	0.023135373
82	0x3cc8b3e9	0.02449985
83	0x3ca2b03e	0.01985943
84	0x3c964076	0.018341284
85	0x3c7ba870	0.015359983
86	0x3c706c81	0.014674307
87	0x3c82b708	0.015956417
88	0x3c768bc6	0.015047973
89	0x3c719a81	0.014746309
90	0x3c883682	0.016627554
91	0x3c8be4c3	0.017076856
92	0x3c86cc22	0.01645476
93	0x3c7f27b3	0.01557343
94	0x3c8687e2	0.016422216
95	0x3c7f6e61	0.015590281
96	0x3c6bb308	0.014385946
97	0x3c7ad96d	0.015310627
98	0x3c49e918	0.01232364
99	0x3c58cad6	0.013231954
100	0x3c58bfae	0.013229294
101	0x3c4a1042	0.012332978
102	0x3c4336ad	0.011914891
103	0x3c4fb3dd	0.01267716
104	0x3c4f0b0e	0.012636913
105	0x3c5b9bc5	0.013403838
106	0x3c651838	0.013982825
107	0x3c52550e	0.012837661
108	0x3c7de2b1	0.015495942
109	0x3c6fb3b1	0.014630244
110	0x3c3e5d4a	0.0116189215
111	0x3c5b3673	0.013379681
112	0x3c3d2fa1	0.011547
113	0x3c409610	0.011754528
114	0x3c63f30b	0.013912926
115	0x3c3ccbba	0.011523182
116	0x3c6a9554	0.014317829
117	0x3c55c06f	0.013046368
118	0x3c732c3b	0.014842088
119	0x3c530d77	0.012881628
120	0x3ca0647f	0.01957917
121	0x3ca442a9	0.020051317
122	0x3c81b979	0.01583551
123	0x3c7e1f2e	0.0155103635
124	0x3c81aeec	0.01583048
125	0x3c6e0cbc	0.014529403
126	0x3c929bec	0.017896615
127	0x3c903df3	0.017607665
128	0x3c9ad771	0.018901559
129	0x3c91d50f	0.01780179
130	0x3c99ca43	0.018773204
131	0x3c84bde2	0.016203824
132	0x3cb0bf35	0.02157555
133	0x3c9289ac	0.017887913
134	0x3c8a3e7c	0.016875498
135	0x3c825156	0.015907925
136	0x3c7a5ebe	0.015281377
137	0x3c6f2a13	0.014597434
138	0x3ca7997b	0.020458927
139	0x3c866ad3	0.01640836
140	0x3c98fce7	0.01867528
141	0x3c94c2a0	0.01815921
142	0x3c9a368d	0.01882484
143	0x3c7b2056	0.015327534

exp_avg f4 [12]
0	0xbca345ec	-0.019930802
1	0x3c8020fe	0.015640732
2	0xbcb8248a	-0.02247836
3	0x3ccc7884	0.02495981
4	0x3cac8dee	0.021063771
5	0xbc26f698	-0.0101906285
6	0x3cd9ad39	0.026571857
7	0xbd28f2cb	-0.04124717
8	0x3cec627d	0.028855557
9	0xbc8a1afb	-0.016858568
10	0x3d0dc82d	0.03461473
11	0xbc9f5c7c	-0.01945328

exp_avg_sq f4 [12]
0	0x3c67102d	0.014102978
1	0x3c38662e	0.01125483
2	0x3c965a0b	0.018353483
3	0x3c18c0a1	0.00932327
4	0x3caecf7c	0.02133917
5	0x3c87e82f	0.016590206
6	0x3caecfdb	0.021339348
7	0x3c7ff504	0.015622381
8	0x3c3b9684	0.01144946
9	0x3c39e33e	0.011345683
10	0x3c866652	0.016406212
11	0x3c915dcb	0.01774492

exp_avg f4 [12, 12]
0	0x3a1c513a	0.00059630314
1	0xba0a4be3	-0.000527559
2	0xbaae9831	-0.0013320503
3	0xb76b2da2	-1.4017716e-05
4	0x3a2f3256	0.0006683221
5	0x38e5f6cd	0.00010965541
6	0x396f9bd3	0.00022850865
7	0xb7af6ca9	-2.0912224e-05
8	0xb9dc7cfc	-0.0004205479
9	0xbad561bb	-0.0016279736
10	0xba7cd644	-0.0009644965
11	0xb9fb0b45	-0.00047882847
12	0x3b8773fb	0.004133699
13	0xbb387a87	-0.0028149204
14	0x3a8269fb	0.0009949798
15	0x39b016aa	0.00033586222
16	0x3a071e18	0.00051543256
17	0x3a58325d	0.0008247251
18	0x37890bb8	1.633713e-05
19	0x3b173bde	0.0023076455
20	0x3b816103	0.0039483323
21	0xb9a2199c	-0.00030918128
22	0xbb2e70eb	-0.0026617597
23	0xbab642a5	-0.001390536
24	0x3a8272df	0.0009952447
25	0x3adda3fd	0.0016909834
26	0x3a8618a6	0.0010230734
27	0x39e858ec	0.0004431674
28	0xba41d151	-0.00073935563
29	0x3ac970f9	0.0015368751
30	0x3acd0b8c	0.00156437
31	0x3abd4b64	0.0014442024
32	0x3a5eb5e2	0.00084957306
33	0x3acd066f	0.0015642176
34	0xba5636f9	-0.0008171644
35	0xba287c7e	-0.0006427242
36	0xbb492962	-0.0030694832
37	0x3ad35cb3	0.0016125649
38	0x39e192ce	0.00043024722
39	0x39efe45d	0.00045755776
40	0x39c47fd3	0.0003747927
41	0x3aaf0013	0.0013351463
42	0x3a4d7cfb	0.0007838753
43	0xb879d8b1	-5.9568036e-05
44	0xbade0e81	-0.0016941578
45	0xba88dac6	-0.0010441176
46	0xb9fe42b2	-0.00048496347
47	0xb9d62f17	-0.00040852345
48	0xbabfee87	-0.001464323
49	0xbad0a459	-0.001591812
50	0xba783591	-0.0009468431
51	0xba85c319	-0.0010205238
52	0x3ad3c7b4	0.0016157539
53	0x3a4d4ff6	0.00078320445
54	0xba578f76	-0.00082229765
55	0xbb0c7bf4	-0.0021436187
56	0x39bd1a18	0.0003606833
57	0xbafceea7	-0.0019297198
58	0xba8b0a0e	-0.0010607855
59	0x3a9a295f	0.0011761597
60	0x3ac6d45b	0.0015169488
61	0xbb4de51c	-0.0031417077
62	0x3a2959d8	0.0006460226
63	0xba832e78	-0.0010008356
64	0x3ae0c242	0.0017147737
65	0xba829d6b	-0.0009965127
66	0xbaad7a42	-0.0013235288
67	0x3787e8a1	1.620158e-05
68	0x3ac0e564	0.0014716801
69	0xbaa52363	-0.0012599047
70	0xbaa821bf	-0.001282744
71	0x397d1ea0	0.00024139369
72	0xb9f4fb3e	-0.00046726497
73	0xbb1e9386	-0.0024196818
74	0x3a36a1a0	0.0006966833
75	0x3a83635c	0.0010024118
76	0x3ac75787	0.001520858
77	0xb9c0c5db	-0.00036768508
78	0x38ee84ae	0.00011373438
79	0xbb046507	-0.0020201819
80	0xbb089d8a	-0.0020845854
81	0xba820472	-0.0009919538
82	0xbaf14f37	-0.0018410449
83	0x39cc990e	0.00039023947
84	0xbb80a8a9	-0.003926356
85	0x3ad29411	0.0016065856
86	0xbb3af0d5	-0.0028524895
87	0x3a0c57ef	0.00053536793
88	0x3ac70067	0.0015182615
89	0x3a29b519	0.0006473824
90	0xbaa84a96	-0.0012839611
91	0xba78be7c	-0.00094888336
92	0xbb19980a	-0.002343657
93	0xbb412aa4	-0.0029474879
94	0xba85a2a0	-0.0010195561
95	0xb9b3af9e	-0.00034272386
96	0x3b49d970	0.003079977
97	0xbb10187a	-0.0021987245
98	0xba374af1	-0.0006992063
99	0x3b80f232	0.003935122
100	0x3a509174	0.00079562445
101	0xba516033	-0.0007987052
102	0xb93a7645	-0.00017782401
103	0xb84a388d	-4.821322e-05
104	0x3aacbcb1	0.0013178793
105	0x39aee877	0.00033361066
106	0x3a130294	0.0005607989
107	0x3a8b7cc6	0.0010642044
108	0xbac27133	-0.0014834761
109	0x3b2f5c3b	0.0026757855
110	0x3a4f2b91	0.0007902915
111	0x3a1e048b	0.00060278986
112	0xbae391ed	-0.0017362215
113	0xba53f18b	-0.0008085004
114	0xba6b7b2e	-0.0008982894
115	0xb9999f3d	-0.00029301076
116	0x399c1ba6	0.00029775238
117	0x3b20a778	0.0024513882
118	0x3b3cb23f	0.0028792766
119	0x3a82f36d	0.000999076
120	0x3a77287d	0.00094283355
121	0xbabd4357	-0.0014439625
122	0x3a9f7f53	0.0012168683
123	0xbba99c3c	-0.0051760953
124	0xba7d65f7	-0.0009666378
125	0xba9f7b3b	-0.0012167463
126	0xbabfd099	-0.001463431
127	0x3abd35da	0.0014435605
128	0x3abe5cb1	0.0014523474
129	0xbb06c264	-0.0020562643
130	0xbab99695	-0.0014159257
131	0xbb02f2fe	-0.001998126
132	0xbba41d71	-0.0050083925
133	0x3aa3f79e	0.0012509709
134	0xbad76fb8	-0.0016436493
135	0x3af4be1f	0.0018672383
136	0x3b1884d1	0.0023272524
137	0x3a87bae9	0.0010355386
138	0xba8144e7	-0.0009862453
139	0xbac4a5da	-0.0015003041
140	0xbb0b3e3e	-0.0021246816
141	0x3ac62420	0.0015116967
142	0x3af290a4	0.0018506241
143	0x3aa71c8b	0.0012749595

exp_avg_sq f4 [12, 12]
0	0x38a6ab7e	7.94744e-05
1	0x38927f00	6.985478e-05
2	0x384f033e	4.9355665e-05
3	0x38af9dcb	8.3740415e-05
4	0x37e9c0f7	2.786562e-05
5	0x3820d4c5	3.834513e-05
6	0x381c8c52	3.732398e-05
7	0x38483a48	4.7737994e-05
8	0x38735223	5.801221e-05
9	0x388ff568	6.864482e-05
10	0x3819e752	3.6693476e-05
11	0x384d364a	4.892637e-05
12	0x3915c7be	0.00014284157
13	0x3901bed8	0.00012373494
14	0x389b0d1d	7.3934185e-05
15	0x3913d090	0.00014096708
16	0x383013ef	4.1980235e-05
17	0x3886f4c7	6.435211e-05
18	0x386a7cad	5.590606e-05
19	0x389aac64	7.3754025e-05
20	0x38e28d49	0.00010802836
21	0x38f9bd3b	0.00011908492
22	0x385c4b0b	5.2521977e-05
23	0x38914591	6.9270965e-05
24	0x39247792	0.00015684802
25	0x3905d22f	0.00012762168
26	0x38a18e91	7.703633e-05
27	0x3916b860	0.000143738
28	0x382a9e91	4.0678835e-05
29	0x388cfadc	6.7224464e-05
30	0x386e26ce	5.677976e-05
31	0x389d7728	7.508538e-05
32	0x38efd0ec	0.00011435323
33	0x38fe09f8	0.00012113521
34	0x3863741e	5.422916e-05
35	0x389abb6b	7.3782016e-05
36	0x39214e00	0.00015383214
37	0x38f8df4e	0.00011867155
38	0x38abbc05	8.188937e-05
39	0x3919deb4	0.0001467418
40	0x382c5df2	4.109549e-05
41	0x3885b331	6.375311e-05
42	0x38771f57	5.8918577e-05
43	0x389678c0	7.175049e-05
44	0x38ed027f	0.000113015056
45	0x38f34a6d	0.00011601006
46	0x385ace97	5.2167652e-05
47	0x389ca669	7.469656e-05
48	0x390d1103	0.00013453145
49	0x38e42763	0.000108792236
50	0x3895c50b	7.141576e-05
51	0x390b5526	0.00013287793
52	0x38266451	3.967091e-05
53	0x387649ac	5.8719583e-05
54	0x3851c3a9	5.0011706e-05
55	0x38981411	7.2516625e-05
56	0x38c71508	9.492977e-05
57	0x38d908b2	0.00010348986
58	0x38552e13	5.0826067e-05
59	0x388ecc29	6.8091154e-05
60	0x3927c282	0.00015998821
61	0x3901c164	0.00012374442
62	0x38a2300f	7.7337136e-05
63	0x391cfaaf	0.00014970706
64	0x382bf6ce	4.099943e-05
65	0x3892a674	6.992827e-05
66	0x3864c032	5.4538432e-05
67	0x389c93ee	7.466214e-05
68	0x38f2101a	0.000115424584
69	0x38e9ba00	0.00011144951
70	0x38662e97	5.4879663e-05
71	0x388fa8ca	6.850211e-05
72	0x3923cb8a	0.00015620716
73	0x390bacff	0.00013320519
74	0x38a0ecce	7.673503e-05
75	0x3910a171	0.00013793052
76	0x382e8329	4.1606985e-05
77	0x3886e660	6.4325286e-05
78	0x386af26e	5.6015728e-05
79	0x389ee179	7.576025e-05
80	0x38ed3d1e	0.000113124246
81	0x390083d9	0.00012256148
82	0x3858ea69	5.1716725e-05
83	0x388e051d	6.77204e-05
84	0x391dbe6f	0.00015043629
85	0x38fe86aa	0.00012136747
86	0x38aef3b3	8.342359e-05
87	0x39125532	0.00013955383
88	0x3837436d	4.3693395e-05
89	0x38816175	6.169352e-05
90	0x38763687	5.8701753e-05
91	0x3896347e	7.162335e-05
92	0x38e33d2e	0.00010835599
93	0x38f42db0	0.000116433366
94	0x3863be56	5.429828e-05
95	0x388af7c3	6.626502e-05
96	0x391935f7	0.0001461132
97	0x38f85769	0.00011841843
98	0x38976584	7.21915e-05
99	0x3905cb89	0.00012759691
100	0x382a5678	4.061169e-05
101	0x387c6e20	6.0184044e-05
102	0x386e295a	5.6782133e-05
103	0x389614da	7.156441e-05
104	0x38dcb7f4	0.000105246814
105	0x38e71922	0.0001101962
106	0x3853ce44	5.049842e-05
107	0x38982506	7.254821e-05
108	0x391ea828	0.00015130697
109	0x390725b0	0.00012888643
110	0x389e3532	7.5439355e-05
111	0x39125e90	0.00013958872
112	0x38355213	4.32302e-05
113	0x38847022	6.315137e-05
114	0x3871a372	5.7611098e-05
115	0x3899ddfd	7.336957e-05
116	0x38f021d0	0.0001145039
117	0x38f9256d	0.00011880216
118	0x38647bca	5.4474724e-05
119	0x3898bdd0	7.28328e-05
120	0x391c7e80	0.00014924444
121	0x38fc5f3d	0.00012034036
122	0x38a16589	7.695991e-05
123	0x3920dea0	0.00015341723
124	0x382c0e86	4.102152e-05
125	0x388b8f12	6.6546854e-05
126	0x386c52ab	5.6343775e-05
127	0x3894f242	7.102314e-05
128	0x38ddcc25	0.00010576126
129	0x38ed20e1	0.00011307165
130	0x386e8d9a	5.68755e-05
131	0x38962ad9	7.1605384e-05
132	0x392bf95d	0.00016400726
133	0x39018242	0.00012350923
134	0x389ebcfc	7.569228e-05
135	0x3917aa4c	0.00014463923
136	0x382e3766	4.1536427e-05
137	0x3889c401	6.569178e-05
138	0x38512fd9	4.9874045e-05
139	0x389fbc66	7.616803e-05
140	0x38eb0b04	0.00011207725
141	0x38f206b4	0.00011540708
142	0x3862012e	5.3883698e-05
143	0x3891fa47	6.9607566e-05

exp_avg f4 [12]
0	0xbb2d6832	-0.002645981
1	0x3c1d93e4	0.009617779
2	0xbbb3d5da	-0.0054881396
3	0xbb323b67	-0.002719605
4	0x3bbb14c6	0.0057092635
5	0x3bd78b34	0.0065778736
6	0x3c0af8b8	0.008482151
7	0xba29c727	-0.00064765144
8	0x3bc1b188	0.005911056
9	0xbc3480d1	-0.01101704
10	0x391dc2b0	0.00015045214
11	0xba722173	-0.00092365517

exp_avg_sq f4 [12]
0	0x3a312c8d	0.0006758653
1	0x3a93426f	0.0011235009
2	0x3a8c4bac	0.0010703704
3	0x3a91639e	0.001109231
4	0x3a825307	0.0009942957
5	0x3a8b8db9	0.0010647095
6	0x3a88c935	0.0010435941
7	0x3a95e591	0.0011436214
8	0x3a847060	0.0010104291
9	0x3a8edfc0	0.0010900423
10	0x3a95181e	0.0011374985
11	0x3a990c36	0.0011676613
