runs/results_for_RL_paper/trial1_enc_None_dec_None_pred_None_latentd_8_bs_10_lr_0_001_feats_x1_to_x8/checkpoints/last.ckpt (torch, 11311 bytes, 12 tensors)

submodules.encoder.0.weight f4 [8, 8]
0.48617217 0.6864988 0.5552687 0.7908575 -0.43522185 -0.15244435 -0.42363533 -0.07137959
0.120978214 -0.2610879 -0.5554069 0.012455962 -0.25747794 0.07105524 0.22402254 0.2300052
0.050492033 -0.13498215 0.45975524 0.18940693 0.7296095 0.32803884 0.044573817 -0.101014756
-0.68615204 -0.2929633 0.19002047 0.42065173 -0.27648205 -0.6045976 -0.1136089 0.0063222935
-0.021225112 0.34325448 0.052023694 0.10527547 -0.32811657 -0.50077534 -0.30978453 -0.50665164
-0.024147265 -0.21336956 -0.24680127 -0.014858345 0.18281315 -0.16128288 -0.22623335 -0.52069724
-0.19088188 0.41903642 -0.15654598 -0.39342996 0.087889716 -0.17845199 0.2686306 -0.20088138
0.3563865 0.105073005 0.040761117 -0.48366222 -0.06328648 -0.08859147 -0.39180645 -0.040821195
00000000: 8feb f83e 63be 2f3f 1726 0e3f a375 4a3f
00000010: 66d5 debe 5f1a 1cbe bbe6 d8be 762f 92bd
00000020: 6dc3 f73d 50ad 85be 262f 0ebf 1714 4c3c
00000030: 26d4 83be 6985 913d 2a66 653e 7c86 6b3e
00000040: bcd0 4e3d c338 0abe 0a65 eb3e e4f3 413e
00000050: b0c7 3a3f b5f4 a73e 0993 363d d3e0 cebd
00000060: a9a7 2fbf 49ff 95be ba94 423e aa5f d73e
00000070: 0e8f 8dbe e9c6 1abf c8ab e8bd 3e2b cf3b
00000080: 49e0 adbc 0dbf af3e cc16 553d aa9a d73d
00000090: e5fe a7be d032 00bf 149c 9ebe ecb3 01bf
000000a0: 7cd0 c5bc 8d7d 5abe 79b9 7cbe 6a70 73bc
000000b0: 5f33 3b3e 5727 25be b7a9 67be 6a4c 05bf
000000c0: 8a76 43be f18b d63e 974d 20be a76f c9be
000000d0: 86ff b33d 1ebc 36be f389 893e d9b3 4dbe
000000e0: 4b78 b63e 8430 d73d 21f5 263d 93a2 f7be
000000f0: 589c 81bd 726f b5bd db9a c8be 2034 27bd

submodules.encoder.0.bias f4 [8]
0.0043969373 -0.0035592455 0.0042186435 -0.0058782003 -0.005176685 -0.0032849708 -0.0039619403 0.0032101676
00000000: 2f14 903b 3b42 69bb 8c3c 8a3b eb9d c0bb
00000010: 2ea1 a9bb aa48 57bb 2ad3 81bb ad61 523b

submodules.decoder.0.weight f4 [8, 8]
0.39847627 0.043401424 0.3245519 0.31003302 -0.42433873 0.3597151 -0.15957157 -0.43844995
0.49076498 0.3200043 -0.06308168 -0.014969567 -0.07251715 -0.20222002 -0.48736626 -0.016100511
0.046624713 0.4085266 0.24840003 -0.095446825 -0.2353791 0.018756878 -0.23072083 -0.44761026
0.12532215 -0.3226948 0.007879106 0.060145173 -0.50548345 0.078311555 0.25246888 -0.609861
-0.33860275 -0.74783033 0.22241452 -0.624313 0.303564 -0.25817183 0.051662516 -0.06576593
0.044448834 0.31470674 0.38698086 -0.24128707 -0.37328228 -0.021403147 0.59145916 0.21259184
0.08021696 -0.32532623 -0.07337517 -0.24110882 0.10447839 -0.51031893 -0.123241395 0.020356467
0.04291027 0.41283417 0.28572607 -0.26003858 -0.20570602 -0.5475714 0.51442695 0.7427249
00000000: 1505 cc3e b1c5 313d ab2b a63e a6bc 9e3e
00000010: ed42 d9be 942c b83e bb66 23be 837c e0be
00000020: 8c45 fb3e 9bd7 a33e f830 81bd ea42 75bc
00000030: df83 94bd c412 4fbe 1288 f9be 38e5 83bc
00000040: 8ef9 3e3d 662a d13e 945c 7e3e a079 c3bd
00000050: 3807 71be 06a8 993c 1542 6cbe 2c2d e5be
00000060: 7354 003e 4138 a5be 5e17 013c c95a 763d
00000070: 5d67 01bf cf61 a03d 9a43 813e da1f 1cbf
00000080: 575d adbe cf71 3fbf a2c0 633e fad2 1fbf
00000090: be6c 9b3e 192f 84be 139c 533d 4ab0 86bd
000000a0: fb0f 363d 3e21 a13e 5b22 c63e f513 77be
000000b0: db1e bfbe a755 afbc de69 173f adb1 593e
000000c0: ca48 a43d 2991 a6be b945 96bd 3be5 76be
000000d0: c4f8 d53d 43a4 02bf fc65 fcbd 9bc2 a63c
000000e0: aec2 2f3d 005f d33e b04a 923e c723 85be
000000f0: 99a4 52be a42d 0cbf 7cb1 033f 3823 3e3f

submodules.decoder.0.bias f4 [8]
-0.0038564862 -0.004565507 -0.00096520747 -0.0020792342 -0.00559832 -0.0018503345 -0.004185789 -0.0037326748
00000000: 1abd 7cbb 409a 95bb fa05 7dba c343 08bb
00000010: 1d72 b7bb ec86 f2ba f128 89bb e49f 74bb

exp_avg f4 [8, 8]
-0.0054515083 -0.0054114414 -0.005437688 -0.0053905696 -0.0056357924 -0.005579234 -0.0056334753 -0.005563021
-0.01862063 -0.018697046 -0.018755913 -0.018642336 -0.018696323 -0.018630616 -0.018600024 -0.018598825
0.0010991682 0.0010620721 0.0011810216 0.0011269512 0.0012349956 0.0011546774 0.0010979844 0.0010688658
0.0026367703 0.0027154102 0.0028120088 0.002858137 0.0027187057 0.0026530807 0.0027512813 0.0027752693
-0.0025545238 -0.0024816266 -0.0025398736 -0.0025292228 -0.0026159028 -0.0026504353 -0.0026122367 -0.0026516095
0.0017479716 0.0017101258 0.0017034415 0.00174983 0.0017893641 0.0017205446 0.0017075543 0.0016486597
0.003680786 0.003802772 0.003687652 0.003640276 0.0037365425 0.003683273 0.0037726907 0.0036787859
-0.012913403 -0.012963666 -0.012976528 -0.013081414 -0.012997339 -0.0130024 -0.013063045 -0.012992843
00000000: 91a2 b2bb 7652 b1bb a22e b2bb 60a3 b0bb
00000010: 74ac b8bb 02d2 b6bb 0499 b8bb 014a b6bb
00000020: 4b8a 98bc 8c2a 99bc 00a6 99bc d0b7 98bc
00000030: 0829 99bc 3c9f 98bc 145f 98bc 905c 98bc
00000040: f711 903a 3a35 8b3a 82cc 9a3a 35b6 933a
00000050: 93df a13a 8b58 973a 3eea 8f3a 2f19 8c3a
00000060: aacd 2c3b 06f5 313b ae49 383b 954f 3b3b
00000070: 502c 323b 4fdf 2d3b d74e 343b 4be1 353b
00000080: cc69 27bb c9a2 22bb 0274 26bb 51c1 25bb
00000090: 916f 2bbb edb2 2dbb 0f32 2bbb a0c6 2dbb
000000a0: 321c e53a 4d26 e03a 0346 df3a 8d5a e53a
000000b0: 1989 ea3a e683 e13a 04d0 df3a d717 d83a
000000c0: 5739 713b ed37 793b 89ac 713b b291 6e3b
000000d0: c8e0 743b 1163 713b 3f3f 773b c917 713b
000000e0: bd92 53bc 8e65 54bc 819b 54bc 6d53 56bc
000000f0: caf2 54bc 0508 55bc 6206 56bc efdf 54bc

exp_avg_sq f4 [8, 8]
0.006339514 0.0063395207 0.0063395165 0.0063395333 0.0063395123 0.006339511 0.0063395086 0.0063395044
0.014272328 0.014272352 0.014272401 0.014272337 0.014272361 0.01427233 0.014272318 0.014272319
0.0048469556 0.004846961 0.004846958 0.0048469556 0.004846969 0.0048469496 0.004846958 0.004846958
0.008446767 0.008446778 0.008446791 0.008446812 0.0084467735 0.008446765 0.008446789 0.008446789
0.010127087 0.010127094 0.010127082 0.010127076 0.010127083 0.010127095 0.010127094 0.010127099
0.009800663 0.009800648 0.009800654 0.009800651 0.009800651 0.009800651 0.0098006595 0.009800645
0.01221798 0.01221797 0.012217983 0.012218005 0.012217957 0.012217974 0.012217968 0.012217984
0.01640124 0.016401233 0.016401231 0.016401228 0.016401213 0.016401215 0.016401235 0.016401201
00000000: b3bb cf3b c1bb cf3b b8bb cf3b dcbb cf3b
00000010: afbb cf3b acbb cf3b a7bb cf3b 9ebb cf3b
00000020: 7bd6 693c 95d6 693c cad6 693c 85d6 693c
00000030: 9fd6 693c 7ed6 693c 71d6 693c 72d6 693c
00000040: 36d3 9e3b 41d3 9e3b 3bd3 9e3b 36d3 9e3b
00000050: 53d3 9e3b 29d3 9e3b 3bd3 9e3b 3bd3 9e3b
00000060: 4f64 0a3c 5b64 0a3c 6964 0a3c 7f64 0a3c
00000070: 5664 0a3c 4d64 0a3c 6764 0a3c 6764 0a3c
00000080: 15ec 253c 1cec 253c 0fec 253c 09ec 253c
00000090: 11ec 253c 1dec 253c 1cec 253c 22ec 253c
000000a0: f692 203c e692 203c ec92 203c e992 203c
000000b0: e992 203c e992 203c f292 203c e292 203c
000000c0: ec2d 483c e12d 483c ef2d 483c 072e 483c
000000d0: d32d 483c e62d 483c df2d 483c f02d 483c
000000e0: e55b 863c e15b 863c e05b 863c de5b 863c
000000f0: d65b 863c d75b 863c e25b 863c d05b 863c

exp_avg f4 [8]
-0.006898013 -0.007102063 0.00010591885 0.0008873325 0.007960811 0.0031292192 -0.007554504 -0.005017492
00000000: ba08 e2bb 6cb8 e8bb c020 de38 e09b 683a
00000010: 106e 023c 9613 4d3b c68b f7bb c669 a4bb

exp_avg_sq f4 [8]
0.0032883745 0.0072553875 0.0024378302 0.0040549194 0.005116314 0.004642488 0.0059449375 0.0079673845
00000000: c581 573b 9abe ed3b 01c4 1f3b 21df 843b
00000010: c1a6 a73b 0320 983b c0cd c23b a289 023c

exp_avg f4 [8, 8]
0.017925901 -0.0051981094 0.019511463 -0.01668031 -0.01460935 -0.015040993 -0.0043202 -0.007141736
-0.03614001 0.010633982 -0.03954341 0.034183577 0.029489078 0.030827925 0.00859022 0.01426653
0.0027827004 -0.000733085 0.0030822924 -0.0026690424 -0.0023304573 -0.002369058 -0.0007435464 -0.0011714547
0.012792254 -0.0037920594 0.013910521 -0.012031018 -0.010483026 -0.010879033 -0.002998192 -0.005266355
0.00092217734 -0.0005037318 0.0012066585 -0.0012176891 -0.00074722484 -0.0009504053 -0.0002621428 -0.00039687814
-0.016611626 0.0049606264 -0.017942982 0.015617791 0.013421725 0.014139889 0.004223592 0.0065949815
0.022492656 -0.006600589 0.02446601 -0.021178931 -0.01826835 -0.019231817 -0.005388765 -0.008884908
0.0012550383 -0.00022237725 0.0014594626 -0.0012697506 -0.0010773484 -0.001244985 -0.00013002273 -0.0002731537
00000000: 57d9 923c e754 aabb 81d6 9f3c 25a5 88bc
00000010: 0e5c 6fbc 7f6e 76bc 7790 8dbb 3905 eabb
00000020: 8c07 14bd 273a 2e3c 45f8 21bd 1404 0c3d
00000030: 1493 f13c d88a fc3c febd 0c3c 2abe 693c
00000040: f75d 363b 802c 40ba 4900 4a3b 1aeb 2ebb
00000050: 96ba 18bb 3342 1bbb 8eea 42ba 7f8b 99ba
00000060: 9a96 513c 3384 78bb f4e8 633c bf1d 45bc
00000070: ffc0 2bbc f93d 32bc 517d 44bb 6391 acbb
00000080: 46be 713a de0c 04ba be28 9e3a de9a 9fba
00000090: 69e1 43ba 9f24 79ba 3670 89b9 1514 d0b9
000000a0: 1b15 88bc c08c a23b 29fd 92bc c3e1 7f3c
000000b0: cbe6 5b3c feaa 673c 0f66 8a3b b71a d83b
000000c0: 8542 b83c c149 d8bb f16c c83c 707f adbc
000000d0: 82a7 95bc 0b8c 9dbc 3d94 b0bb 0192 11bc
000000e0: 1980 a43a f02d 69b9 704b bf3a c36d a6ba
000000f0: d035 8dba c42e a3ba b656 08b9 1236 8fb9

exp_avg_sq f4 [8, 8]
0.018528825 0.0015699806 0.021967106 0.016450243 0.0121855615 0.013440274 0.0010873646 0.0028706319
0.018089859 0.001532233 0.021439785 0.016050046 0.01189185 0.013115924 0.0010621098 0.00280039
0.018332642 0.0015522741 0.021726249 0.016264347 0.012051328 0.013291573 0.0010760908 0.0028379648
0.018304925 0.0015498044 0.021693246 0.016240263 0.012033115 0.0132720005 0.0010744372 0.0028336612
0.018530766 0.001569167 0.021961113 0.016441036 0.012181739 0.013435682 0.0010880129 0.0028681091
0.018505871 0.001567682 0.021934949 0.016423421 0.012167211 0.013419675 0.0010865314 0.002865451
0.018464874 0.0015638992 0.02188481 0.01638477 0.012139549 0.013389125 0.0010838687 0.002859032
0.018091206 0.0015331011 0.021445138 0.016057761 0.011895741 0.013120043 0.0010623948 0.0028017408
00000000: c3c9 973c cfc7 cd3a 5cf4 b33c a9c2 863c
00000010: f3a5 473c 9834 5c3c e785 8e3a 3621 3c3b
00000020: 2f31 943c 35d5 c83a 7da2 af3c 637b 833c
00000030: 09d6 423c 2ce4 563c 7e36 8b3a bf86 373b
00000040: 562e 963c ad75 cb3a 3ffb b13c cf3c 853c
00000050: ef72 453c e6c4 593c 9e0b 8d3a 26fd 393b
00000060: 36f4 953c ce22 cb3a 09b6 b13c 4d0a 853c
00000070: 8b26 453c ce72 593c 21d4 8c3a f2b4 393b
00000080: d5cd 973c 82ac cd3a cbe7 b33c 5aaf 863c
00000090: eb95 473c 5621 5c3c a89b 8e3a e3f6 3b3b
000000a0: a099 973c ae7a cd3a ecb0 b33c 698a 863c
000000b0: fb58 473c 32de 5b3c f269 8e3a 4aca 3b3b
000000c0: a643 973c c0fb cc3a c647 b33c 5a39 863c
000000d0: f5e4 463c 0f5e 5b3c 9910 8e3a 995e 3b3b
000000e0: 0234 943c 56f2 c83a b7ad af3c 918b 833c
000000f0: 5be6 423c 73f5 563c 0e40 8b3a 699d 373b

exp_avg f4 [8]
0.006296565 -0.012880293 0.008086048 -0.008532414 0.0053759217 -0.014297271 0.0012622634 -0.0009172894
00000000: 6a53 ce3b dd07 53bc 587b 043c 8acb 0bbc
00000010: 8028 b03b 1a3f 6abc 8872 a53a 4076 70ba

exp_avg_sq f4 [8]
0.0043273866 0.0044326014 0.004352306 0.004439085 0.0043010893 0.004250544 0.004307548 0.0044229175
00000000: c0cc 8d3b 5b3f 913b ca9d 8e3b be75 913b
00000010: 27f0 8c3b 2648 8b3b 5526 8d3b 1fee 903b
