runs/results_for_RL_paper/trial5_ae2_enc_leaky_relu_dec_leaky_relu_pred_leaky_relu_latentd_4_bs_10_lr_0_001/checkpoints/epoch=1993-total_val_loss=0.09.ckpt (torch, 13079 bytes, 15 tensors)

submodules.encoder.0.weight f4 [4, 5]
0	0x3e2e6cae	0.17033646
1	0xbea425ea	-0.32060176
2	0xbf86c683	-1.0529331
3	0xbf2c2103	-0.6723787
4	0xbf2e4794	-0.6807797
5	0x3f2d4a98	0.67691946
6	0xbf314275	-0.6924203
7	0xbdd349a7	-0.103167824
8	0x3e0e06c3	0.13869767
9	0x3f69b12d	0.91285974
10	0xbe06b6c1	-0.13155653
11	0xbe8c7f20	-0.2744074
12	0x39dd587a	0.00042218325
13	0x3d2800be	0.041016333
14	0xbfa9da24	-1.3269696
15	0xbd63551f	-0.0555011
16	0x3f1e8d2a	0.6193415
17	0xbf9f701d	-1.2456089
18	0xbdf33d4e	-0.11876927
19	0x3ea5905c	0.323367

submodules.encoder.0.bias f4 [4]
0	0xbd488a7d	-0.048960198
1	0x3e45a230	0.19300151
2	0x3e966f5e	0.2938184
3	0xbfc565d4	-1.54217

submodules.predictor.0.weight f4 [1, 4]
0	0xbff79811	-1.9343282
1	0x3e5c9e4f	0.21544765
2	0xbe789da6	-0.24278888
3	0xbf226e50	-0.63449574

submodules.decoder.0.weight f4 [5, 4]
0	0x3e297e15	0.16552003
1	0x3f398e7f	0.72483057
2	0xbf477106	-0.77906835
3	0xbe5e46e0	-0.21706724
4	0xbe5a4ad2	-0.21317604
5	0xbf176618	-0.5914016
6	0xbf8ede8b	-1.1161665
7	0x3e9e753d	0.3094882
8	0xbb3a31b7	-0.002841098
9	0xbf3f3cb1	-0.7470198
10	0xbece10eb	-0.40247282
11	0xbf8ee7d8	-1.1164503
12	0xc035d708	-2.8412495
13	0x3f8de3f0	1.1085186
14	0x3f95b2b1	1.1695157
15	0x3f4c4b96	0.79802835
16	0xbc656073	-0.014000046
17	0x3dc69aa8	0.09697467
18	0xbf873c3e	-1.056526
19	0xbc413d69	-0.0117944265

submodules.decoder.0.bias f4 [5]
0	0xbed59d65	-0.41721645
1	0x3f3cd822	0.7376729
2	0xbf14ce2e	-0.58127105
3	0xbf2dfbfb	-0.67962617
4	0x3e14865c	0.14504379

exp_avg f4 [4, 5]
0	0xbc44c283	-0.012009266
1	0xbd18d4cb	-0.03731231
2	0x3b553df2	0.0032538143
3	0x3bbc61eb	0.0057489774
4	0xbccc6b27	-0.024953438
5	0x3c840f16	0.016120475
6	0x3cab330b	0.020898363
7	0xbc597397	-0.013272188
8	0x3c941298	0.018075272
9	0x3c97109d	0.018440539
10	0xbc85df22	-0.01634175
11	0xbb9aa9a6	-0.0047199307
12	0x3cab37fa	0.020900715
13	0x3b891241	0.0041830842
14	0xbc43df94	-0.011955161
15	0x3b495a03	0.0030723817
16	0xbbd0f3df	-0.006376728
17	0xbaecc83c	-0.0018065046
18	0x3c1d23aa	0.0095910225
19	0x394712da	0.00018985142

exp_avg_sq f4 [4, 5]
0	0x3e0d7245	0.13813122
1	0x3df11827	0.11772185
2	0x3e0cce6f	0.13750623
3	0x3ddbc6f8	0.1073131
4	0x3e0776b6	0.13228878
5	0x3bf09f77	0.0073432284
6	0x3ba1ac21	0.0049338494
7	0x3bff83e6	0.007797706
8	0x3b9e53bf	0.0048317607
9	0x3bd86909	0.006604318
10	0x3bf91bb6	0.0076021804
11	0x3bc32cb5	0.005956257
12	0x3bf331ba	0.0074216994
13	0x3bfae8d3	0.0076571493
14	0x3bef5802	0.0073041925
15	0x3c7c76ed	0.0154092135
16	0x3c22d76f	0.009939059
17	0x3c852fde	0.016258176
18	0x3c48e7e6	0.01226232
19	0x3c5e601f	0.013572722

exp_avg f4 [4]
0	0x3d40fd39	0.047116492
1	0x3c2d005d	0.010559169
2	0x3c6d224c	0.014473509
3	0x3b9abf0e	0.0047224825

exp_avg_sq f4 [4]
0	0x3df97027	0.121795945
1	0x3bd3342f	0.0064454298
2	0x3c06154b	0.008183788
3	0x3c5c60fa	0.013450855

exp_avg f4 [1, 4]
0	0xbbc7b989	-0.0060951156
1	0xbc1ffbdc	-0.009764638
2	0xbcd3abc9	-0.02583875
3	0x3beecf1b	0.0072878725

exp_avg_sq f4 [1, 4]
0	0x3ccda9eb	0.025105437
1	0x3d4d84af	0.050175365
2	0x3e370165	0.17871626
3	0x3e368522	0.17824224

exp_avg f4 [5, 4]
0	0x3ab138f7	0.0013521005
1	0x3c993b6f	0.018705098
2	0xbc15ca50	-0.009142473
3	0x3c4e3146	0.01258499
4	0x3c11426d	0.008865935
5	0xbbce76ce	-0.0063007837
6	0x39d6fd23	0.00041005862
7	0x3bd00614	0.006348381
8	0x3af9dbdf	0.0019062719
9	0xbb2fdc61	-0.0026834237
10	0xbad2efda	-0.001609321
11	0x3a9f0195	0.0012131209
12	0xbb5b082b	-0.0033421617
13	0x3a32b99d	0.00068178197
14	0xbba945fa	-0.0051658126
15	0xbb82ba5c	-0.003989501
16	0x3be1e58c	0.006893819
17	0x3c7c9706	0.015416866
18	0xbc8174f5	-0.01580284
19	0x3cce1a53	0.025159037

exp_avg_sq f4 [5, 4]
0	0x3ae22783	0.0017254207
1	0x3baa8890	0.005204268
2	0x3b59abc8	0.0033213962
3	0x3badcc6c	0.00530391
4	0x3b0144cf	0.001972485
5	0x3bb37862	0.0054769972
6	0x3b5bc5f3	0.0033534735
7	0x3bba2e2d	0.005681774
8	0x3a7f9ce0	0.0009750854
9	0x3ae1889b	0.0017206849
10	0x3c5cc89b	0.013475562
11	0x3c3775e4	0.011197541
12	0x3a3334ce	0.00068361766
13	0x3b2066b4	0.0024475278
14	0x3bd62921	0.0065356647
15	0x3bb34d0a	0.0054718303
16	0x3b02c935	0.0019956355
17	0x3bdd1b08	0.006747607
18	0x3b89be98	0.0042036287
19	0x3bcefd40	0.006316811

exp_avg f4 [5]
0	0x3c61e359	0.013787114
1	0xbc605bc4	-0.013693754
2	0xba1e95e0	-0.0006049555
3	0x3a18eda0	0.0005833749
4	0xbb8200c8	-0.0039673783

exp_avg_sq f4 [5]
0	0x3b1f67b0	0.0024323277
1	0x3b4826a0	0.00305406
2	0x3b986fa4	0.0046519805
3	0x3b1b5ded	0.0023707107
4	0x3b654924	0.0034986222
