runs/results_for_RL_paper/trial3_enc_leaky_relu_dec_leaky_relu_pred_leaky_relu_latentd_4_bs_10_lr_0_001/checkpoints/epoch=999-total_val_loss=0.05.ckpt (torch, 12887 bytes, 15 tensors)

submodules.encoder.0.weight f4 [4, 4]
00000000: e9bb 84bf 69db 263f c6ed 913e 9c85 833c
00000010: b316 703f 0c8e e0bd d3d7 883f e111 8abf
00000020: 493b 38bf a3bb 48bf ef22 acbd 1187 3cbc
00000030: 7ec6 8ebf 3691 b7be 712e efbf 7b5b 29bf
-1.0369846 0.65178543 0.2850172 0.01605492 0.93784636 -0.10964593 1.0690864 -1.0786706
-0.7196546 -0.7841131 -0.084051006 -0.011506812 -1.1154325 -0.35852975 -1.8686048 -0.66155213

submodules.encoder.0.bias f4 [4]
00000000: 5b19 91be 04e9 81bd 75fe 12bd bc5b 023a
-0.28339657 -0.06343272 -0.0358872 0.0004972776

submodules.predictor.0.weight f4 [1, 4]
00000000: 5441 513a bd19 2b38 9f89 adb9 644b 06c0
0.0007982452 4.0793548e-05 -0.00033099667 -2.0983515

submodules.decoder.0.weight f4 [4, 4]
00000000: bb4c 9cbf c6bd 6a3d 19bb 77bf ded4 c6bd
00000010: 0d18 4b3f 324e 79bc 2f25 d9bf ba0e 783d
00000020: 6bf2 493f 859a 243f d144 343f 8ff8 93bf
00000030: 19b9 3dbe 731f bebf 30e0 9f3d a5f7 2dbf
-1.2210916 0.05730989 -0.96769863 -0.0970857 0.79333574 -0.015216397 -1.6964473 0.06056092
0.78885525 0.6429828 0.70417506 -1.1560229 -0.1852764 -1.4853348 0.07806432 -0.67956

submodules.decoder.0.bias f4 [4]
00000000: de4a 77be 2faf b03d c3b7 ecbe c626 abbd
-0.24149653 0.086271636 -0.4623395 -0.08357005

exp_avg f4 [4, 4]
00000000: 184b f23c f4db c93c e7fe abbc dcb2 92bb
00000010: 127e d9ba f3a1 bb3b 4619 983b b041 b2bb
00000020: 3501 4c3c a2e5 873c fc07 8dbc 01b1 b83b
00000030: 7faf 9ebd f2bf bbbb b7a9 c43d e784 39bc
0.029576823 0.024641015 -0.02099557 -0.004476888 -0.0016593358 0.005726093 0.0046416847 -0.0054399595
0.01245146 0.01658899 -0.017215721 0.005636335 -0.07748317 -0.005729669 0.09602683 -0.01132319

exp_avg_sq f4 [4, 4]
00000000: bdf8 993b ffbb 6f3b 5a95 963b 9749 9c3b
00000010: 8a4b 713b 2ab8 503b be60 663b 9d47 563b
00000020: 0d9e a93b 46ed a33b 6ee8 a93b df66 f33b
00000030: 40e3 af3e 6593 8e3e b7c2 a93e 11dd 863e
0.0046988414 0.003658056 0.004595441 0.004769515 0.0036818706 0.0031848052 0.0035152878 0.0032696493
0.005176312 0.0050026504 0.0051851785 0.0074280347 0.34353065 0.27846828 0.33156368 0.26340535

exp_avg f4 [4]
00000000: 384c 69bc 2c0b 04bc b097 0cbd c098 12bb
-0.014239363 -0.008059304 -0.034324348 -0.0022368878

exp_avg_sq f4 [4]
00000000: 0137 9b3b 4260 6b3b 4b45 053c 0b14 a03e
0.0047367816 0.0035915528 0.0081341965 0.31265292

exp_avg f4 [1, 4]
00000000: 3a75 d2bc 4050 e3b9 8c60 043c b8ee 273d
-0.025690664 -0.00043356605 0.008079659 0.040999144

exp_avg_sq f4 [1, 4]
00000000: 6a6b c83c 3557 ab3d b3a2 3d3e b638 623d
0.024465282 0.08366243 0.18519096 0.055229865

exp_avg f4 [4, 4]
00000000: 4bc0 ee3b d9fb 7abb ca8d 51bb 6876 d0bb
00000010: f99f 31bb fc55 813c 9f20 053b 1803 8d3c
00000020: ade5 e2bb 46ba 563b 414a debc f0d1 323b
00000030: 093b ceba 4c75 a2bb 4930 123c d783 d7bb
0.0072861067 -0.0038297086 -0.0031975382 -0.0063617714 -0.0027103408 0.01578807 0.0020313633 0.01721339
-0.006924352 0.0032764836 -0.027135016 0.0027285777 -0.0015734147 -0.0049578305 0.008922645 -0.006576996

exp_avg_sq f4 [4, 4]
00000000: 3380 8a3a 9e98 233b 8621 4c3b 02e5 6a3b
00000010: 04fa 953a 94a6 713b 4321 3d3b 5475 783b
00000020: 5c14 263a 1ecc 7c3b bab0 d73b 731c ce3a
00000030: ca09 423a d5f5 083b 562e b33b 583c d03a
0.0010566771 0.0024962793 0.0031147911 0.0035842066 0.0011442308 0.003687297 0.0028858937 0.003791173
0.0006335431 0.0038573812 0.0065823467 0.0015725031 0.00074019714 0.002089848 0.00546817 0.0015887124

exp_avg f4 [4]
00000000: 8ab6 ef3b e26e 953c 6432 67bc cca8 a8ba
0.0073154615 0.01824135 -0.014111135 -0.0012867688

exp_avg_sq f4 [4]
00000000: 5df7 593b 50bb 9a3b 0af2 963b 5b13 7c3b
0.0033259012 0.0047220364 0.00460649 0.0038463685
