runs/results_for_RL_paper/gridSamples_nonlinf5_ae2_trial20_enc_linear_dec_linear_pred_tanh_3lay_latentd_3_bs_10_lr_0_001_w_l1_0p01_to_enc_and_to_pred_split_0/submodule_params/decoder_params.pt (torch, 1219 bytes, 2 tensors)

0.weight f4 [5, 3]
00000000: 32b3 14bf 4364 24bc 4af5 53bf ca28 4d3c
00000010: 0d0a a5bf 1d04 bcbf 1851 4b3f 2415 12bf
00000020: 6b6e b93e 8ef2 0cba 545e e73f 541b 36bf
00000030: a595 9fbe 1243 2abf b74e 9ebf
-0.5808593 -0.01003367 -0.82796156 0.012521932 -1.2893692 -1.4688755 0.79420614 -0.5706351
0.36217055 -0.00053767196 1.8075662 -0.7113545 -0.31168857 -0.6650859 -1.2367772

0.bias f4 [5]
00000000: ffbc c8bd b044 5a3e ac33 6c3e 5bd3 e63d
00000010: 83e3 393d
-0.09801673 0.21315265 0.23066586 0.112707816 0.045382988
