runs/results_for_RL_paper/randomSamples_sumf5_trial2_enc_linear_dec_linear_no_predictor_latentd_7_bs_10_lr_0_001_w_l1_0p01_to_enc/submodule_params/decoder_params.pt (torch, 1347 bytes, 2 tensors)

0.weight f4 [8, 7]
-0.5358266 0.15431364 -0.516618 1.240939 0.017219556 -0.8964088 0.115822904 0.066381305
-0.1479387 0.42617795 0.010673133 -0.34706995 -0.047462128 -0.09092172 0.8124153 -0.5421852
0.4238954 0.8969093 -0.061837018 1.1536098 0.1301963 0.3333388 -1.293503 -1.0614454
-0.26194295 -0.14588982 -0.25637886 1.1226882 0.9318185 -0.38011715 1.105797 0.24664412
-0.11233274 -1.1412516 0.55029607 -0.847258 -0.7984123 1.0752556 0.20020348 -0.53706366
0.32945666 0.17240365 0.4476994 -0.18729602 -0.7885765 -0.101871364 -1.2112721 -0.30237675
-0.7861127 -0.029273497 1.201183 0.4787608 -0.001302694 -0.7268975 0.27116925 1.4055836
00000000: ef2b 09bf 6504 1e3e 1441 04bf 17d7 9e3f
00000010: 0710 8d3c 0c7b 65bf 8f34 ed3d ecf2 873d
00000020: 3e7d 17be ff33 da3e 5dde 2e3c 27b3 b1be
00000030: a667 42bd 2b35 babd 73fa 4f3f a6cc 0abf
00000040: d108 d93e d99b 653f d048 7dbd 7ca9 933f
00000050: 2e52 053e 62ab aa3e 8291 a5bf 71dd 87bf
00000060: 631d 86be 2464 15be 1744 83be 3fb4 8f3f
00000070: a88b 6e3f b79e c2be c28a 8d3f 4790 7c3e
00000080: b50e e6bd 8814 92bf 34e0 0c3f e6e5 58bf
00000090: c064 4cbf faa1 893f 2402 4d3e 017d 09bf
000000a0: 8bae a83e 958a 303e db38 e53e 87ca 3fbe
000000b0: 26e0 49bf efa1 d0bd f70a 9bbf 20d1 9abe
000000c0: af3e 49bf f9ce efbc 5dc0 993f 2320 f53e
000000d0: 28bf aaba f415 3abf b2d6 8a3e 2aea b33f

0.bias f4 [8]
-0.035190295 0.077228256 -0.0041101184 0.0020499774 -0.022013674 -0.014061912 0.025176391 0.009184804
00000000: b323 10bd d929 9e3d 2cae 86bb ea58 063b
00000010: 0556 b4bc ef63 66bc b83e ce3c dc7b 163c
