runs/results_for_RL_paper/trial3_enc_None_dec_None_pred_None_with_target_sumf5_latentd_1_bs_10_lr_0_001_feats_x1_to_x8/checkpoints/last.ckpt (torch, 12631 bytes, 9 tensors)

submodules.encoder.0.weight f4 [1, 8]
0	0x3ea1ed27	0.31626245
1	0x3e0410e4	0.12897068
2	0xbe155df6	-0.14586625
3	0x3e67ebc4	0.22648531
4	0xbe908784	-0.2822839
5	0x3e66bae4	0.2253223
6	0xbf22619b	-0.63430184
7	0x3facecfe	1.3509824

submodules.decoder.0.weight f4 [8, 1]
0	0x3f57f439	0.8435703
1	0x3f57c6fe	0.84288013
2	0x3f58060a	0.84384215
3	0x3f57d8fa	0.84315455
4	0x3f5808f2	0.8438865
5	0x3f57db62	0.84319127
6	0x3f57d8c4	0.84315133
7	0x3f57ffbe	0.84374607

submodules.decoder.0.bias f4 [8]
0	0xbc9a2362	-0.0188157
1	0xbc9823c3	-0.01857174
2	0xbc9b30f0	-0.018944234
3	0xbc972d3d	-0.018454188
4	0xbc9deb8f	-0.019277362
5	0xbc97baa5	-0.018521616
6	0xbc966309	-0.01835777
7	0xbc9a451c	-0.018831782

exp_avg f4 [1, 8]
0	0xbce0697a	-0.027394045
1	0xbce0b807	-0.027431501
2	0xbce12b54	-0.02748648
3	0xbce08f22	-0.027412001
4	0xbce16487	-0.027513755
5	0xbce08fa0	-0.027412236
6	0xbce1f82f	-0.027584163
7	0xbcdeb77c	-0.027187102

exp_avg_sq f4 [1, 8]
0	0x3e80e00b	0.2517093
1	0x3e80e00d	0.25170937
2	0x3e80e006	0.25170916
3	0x3e80e010	0.25170946
4	0x3e80e017	0.25170967
5	0x3e80e00f	0.25170943
6	0x3e80e010	0.25170946
7	0x3e80e005	0.25170913

exp_avg f4 [8, 1]
0	0xbc168d26	-0.009188926
1	0x3b121ebc	0.002229615
2	0xbc2d496a	-0.010576585
3	0x3b0e5460	0.0021717772
4	0xbcf16704	-0.029468067
5	0x3c11f073	0.008907425
6	0xbb7c4d1e	-0.0038498114
7	0xbc0a33ed	-0.008435232

exp_avg_sq f4 [8, 1]
0	0x3c31d400	0.010853767
1	0x3c3463bb	0.011010106
2	0x3c38a3da	0.011269534
3	0x3c33d26b	0.0109754605
4	0x3c2fd2ab	0.0107313795
5	0x3c35fc30	0.0111074895
6	0x3c35f4c4	0.01110572
7	0x3c36003b	0.011108453

exp_avg f4 [8]
0	0xbc5635d6	-0.013074359
1	0xbb87c53e	-0.004143386
2	0xbc2c2713	-0.010507363
3	0xbb71dafe	-0.003690421
4	0x3c69e077	0.014274708
5	0xbc823065	-0.015892217
6	0xbcdb008b	-0.026733657
7	0xbc7c1579	-0.015385979

exp_avg_sq f4 [8]
0	0x3bb3f4de	0.005491837
1	0x3bb49406	0.00551081
2	0x3bb05b6d	0.0053819926
3	0x3bb4a78a	0.0055131363
4	0x3bbc5c6b	0.005748322
5	0x3baf8489	0.0053563756
6	0x3bb10a09	0.0054028076
7	0x3bafe7fd	0.0053682313
