runs/results_for_RL_paper/gridSamples_nonlinf5_ae2_trial17_enc_None_no_dec_pred_tanh_3lay_latentd_4_bs_10_lr_0_001_w_l1_0p01_to_enc_and_to_pred_split_0/checkpoints/last.ckpt (torch, 15423 bytes, 21 tensors)

submodules.encoder.0.weight f4 [4, 5]
0	0xbeae28fd	-0.34015647
1	0x3edaa3e5	0.42703167
2	0x3fa6b813	1.3024925
3	0x3f371810	0.7152109
4	0xba816be8	-0.0009874078
5	0xb87c446c	-6.0145205e-05
6	0x37c79890	2.3793691e-05
7	0x398f7b9c	0.00027367182
8	0xb8bc30fc	-8.9736626e-05
9	0xb90cd228	-0.0001342973
10	0xb9f52718	-0.0004675917
11	0xb97e2650	-0.000242376
12	0x3a08643a	0.0005202923
13	0xbe86fa56	-0.26362866
14	0xba202e74	-0.00061104377
15	0xb79646a8	-1.7914295e-05
16	0xb8a6939f	-7.9429934e-05
17	0xb874f218	-5.83996e-05
18	0xb8d5e56c	-0.000101993646
19	0xb86eb0c4	-5.6908248e-05

submodules.encoder.0.bias f4 [4]
0	0xbf20cecc	-0.62815547
1	0xbd0f03a7	-0.034915593
2	0xbd3fcb32	-0.04682464
3	0x3e3e929f	0.18610619

submodules.predictor.0.weight f4 [4, 4]
0	0x365f9e00	3.3321558e-06
1	0x3928008b	0.00016021931
2	0xb7a63aac	-1.9816063e-05
3	0x3841a8f0	4.617212e-05
4	0xbec6cffa	-0.3883055
5	0xb9816584	-0.00024680432
6	0x3e869b13	0.26290187
7	0x3a42dad6	0.0007433122
8	0xc01ea6c7	-2.4789293
9	0x389ca21e	7.468856e-05
10	0xb99caa70	-0.00029881625
11	0x396938e8	0.00022241811
12	0xb9982b75	-0.00029024077
13	0x390ae9dd	0.00013247826
14	0x398a4080	0.00026369467
15	0xb8d54ad6	-0.00010170571

submodules.predictor.0.bias f4 [4]
0	0xbcda289b	-0.02663069
1	0xbec0502b	-0.37561163
2	0x3ec3cb33	0.38240966
3	0xbceb7c7f	-0.028745888

submodules.predictor.2.weight f4 [4, 4]
0	0xb89202c7	-6.96234e-05
1	0xb9bc7159	-0.00035942605
2	0xb8c34940	-9.3119685e-05
3	0x375f4418	1.330769e-05
4	0xb8d0b267	-9.951443e-05
5	0x3e6c60e2	0.23083833
6	0xbf057313	-0.52128714
7	0xb93d0fa5	-0.00018030273
8	0xb96045d0	-0.00021388312
9	0x3ef30f8a	0.47472793
10	0xbf88ace7	-1.0677766
11	0xba12de06	-0.0005602542
12	0xb7434b64	-1.1640459e-05
13	0xb93257f9	-0.00017008175
14	0xb83737fc	-4.368274e-05
15	0xb736fd9e	-1.0907095e-05

submodules.predictor.2.bias f4 [4]
0	0x3d13ca0f	0.03608137
1	0x3e8c6e94	0.27428114
2	0x3eab4979	0.33454493
3	0xbd7aab34	-0.06119843

submodules.predictor.4.weight f4 [1, 4]
0	0xb8bc9c68	-8.9936715e-05
1	0xbf31469c	-0.69248366
2	0xbffeed80	-1.9916229
3	0x39bd7788	0.00036137947

exp_avg f4 [4, 5]
0	0x3d1b31ac	0.037889168
1	0x3dc613cb	0.09671744
2	0xbc9d385b	-0.019191911
3	0xbc0a227a	-0.008431071
4	0x3d6ed71d	0.058310617
5	0x39a4e90f	0.0003145416
6	0xbacd72a2	-0.0015674422
7	0xba6eee6a	-0.0009114506
8	0x3a88614c	0.0010404973
9	0x392f618c	0.0001672564
10	0x3bde31d2	0.0067808414
11	0x3c52e273	0.0128713725
12	0xbb83502f	-0.0040073614
13	0x3b291290	0.0025798418
14	0x3bdb5261	0.00669317
15	0xba36123b	-0.00069454656
16	0xba77fef9	-0.0009460296
17	0x3a3b7689	0.0007151147
18	0x3a92fef0	0.0011214893
19	0x3ac468cf	0.0014984849

exp_avg_sq f4 [4, 5]
0	0x3dc79c7b	0.09746643
1	0x3e726676	0.23671898
2	0x3d7c5dec	0.06161301
3	0x3d927e9f	0.07153057
4	0x3e15fabf	0.14646433
5	0x38d1be1f	0.000100013094
6	0x38d1abe7	9.997916e-05
7	0x38d1c013	0.00010001673
8	0x38d1bbb7	0.00010000861
9	0x38d1b20f	9.9990626e-05
10	0x3a759aad	0.0009369057
11	0x3a93cf26	0.0011276945
12	0x3a6f792b	0.0009135182
13	0x3a0d9f98	0.00054025045
14	0x3a835e2a	0.001002257
15	0x38d23c08	0.00010024762
16	0x38d39051	0.00010088145
17	0x38d247e4	0.00010026971
18	0x38d28075	0.00010037507
19	0x38d25b4d	0.000100305864

exp_avg f4 [4]
0	0x3c08f76e	0.008359773
1	0xb4fcea88	-4.7109302e-07
2	0xbb2fff57	-0.0026855075
3	0x375fef2f	1.3347525e-05

exp_avg_sq f4 [4]
0	0x3e178a2f	0.14798807
1	0x320aa390	8.069847e-09
2	0x3a49bdb8	0.0007695812
3	0x35007bad	4.786369e-07

exp_avg f4 [4, 4]
0	0x3a9e64bb	0.0012084463
1	0xb9d7272b	-0.00041037178
2	0xba74d32d	-0.0009339329
3	0x3a24e1c5	0.0006289746
4	0x3cc20136	0.023682218
5	0xba323109	-0.0006797468
6	0xbb00f520	-0.0019677356
7	0xbb185192	-0.002324198
8	0xba8ce0d2	-0.0010748154
9	0xba6eff3c	-0.00091170124
10	0xbbd3cbd3	-0.0064635067
11	0x3bdd4e6f	0.006753735
12	0x3a67ec2e	0.0008847144
13	0xb93bfd0c	-0.00017927977
14	0xbb34a194	-0.0027562128
15	0x3acd8ecb	0.0015682814

exp_avg_sq f4 [4, 4]
0	0x38d27897	0.00010036042
1	0x38d1b979	0.000100004436
2	0x38d1ab28	9.997777e-05
3	0x38d1e460	0.00010008435
4	0x3cc9bc46	0.024625909
5	0x38dd9230	0.00010565331
6	0x3a0b4636	0.00053128914
7	0x3a4a92f7	0.0007727588
8	0x39d0c393	0.00039818566
9	0x39037531	0.00012536791
10	0x3a9d67cb	0.0012009082
11	0x3ad40eca	0.0016178724
12	0x38d1d643	0.00010005806
13	0x38d1b7fd	0.00010000167
14	0x38d1bd1a	0.000100011195
15	0x38d1b341	9.999285e-05

exp_avg f4 [4]
0	0xb702432f	-7.764246e-06
1	0xbc26dd22	-0.010184558
2	0xbae8d8e8	-0.0017764838
3	0x36a3e9f4	4.8850143e-06

exp_avg_sq f4 [4]
0	0x34719098	2.2497477e-07
1	0x3c37c751	0.011216954
2	0x3ce611eb	0.028084716
3	0x32fedb98	2.9669351e-08

exp_avg f4 [4, 4]
0	0xba4dd9fa	-0.00078526104
1	0xba373d24	-0.00069900067
2	0xba08e27a	-0.0005221736
3	0x39c6c269	0.0003791035
4	0x3ad96c5d	0.0016588081
5	0xbbeef39f	-0.0072922255
6	0xbccb458b	-0.024813434
7	0x3964b0e3	0.0002180967
8	0x3b3279e6	0.0027233302
9	0xbd02b1fb	-0.031908017
10	0xbd3b2615	-0.045690615
11	0x3ad75100	0.0016427338
12	0x39e49bae	0.0004360354
13	0x3b08073e	0.002075627
14	0xb98f946a	-0.00027385663
15	0xb96328e2	-0.00021663637

exp_avg_sq f4 [4, 4]
0	0x38d1e78c	0.000100090256
1	0x38d1d9b6	0.000100064484
2	0x38d20e8f	0.00010016292
3	0x38d1b9ba	0.00010000491
4	0x39954272	0.00028469
5	0x3ba0a99d	0.004903032
6	0x3c346215	0.011009713
7	0x38e38841	0.00010849583
8	0x3a2afff0	0.0006523123
9	0x3cba0625	0.022708008
10	0x3d379135	0.044816215
11	0x39185f79	0.00014531416
12	0x38d1b6b5	9.9999284e-05
13	0x38d1ad8d	9.998223e-05
14	0x38d1a7e5	9.9971694e-05
15	0x38d1b7fb	0.00010000166

exp_avg f4 [4]
0	0x378867a1	1.626072e-05
1	0xbc9cf5ae	-0.019160118
2	0xbd4a7be5	-0.04943456
3	0x371f775a	9.504927e-06

exp_avg_sq f4 [4]
0	0x34560050	1.9930417e-07
1	0x3c76a112	0.015053051
2	0x3d8635a6	0.065532014
3	0x319daecb	4.589173e-09

exp_avg f4 [1, 4]
0	0x3b745ba2	0.0037286063
1	0xbbfc7b7e	-0.007705151
2	0xbc3a6feb	-0.011379222
3	0x3b4d8e4a	0.0031365328

exp_avg_sq f4 [1, 4]
0	0x39017497	0.00012345832
1	0x39f7f75e	0.00047295814
2	0x3b850bb9	0.0040602353
3	0x38fd25ed	0.00012071044
