runs/results_for_RL_paper/trial2_enc_relu_dec_relu_pred_relu_latentd_4_bs_10_lr_0_001/submodule_params/decoder_params.pt (torch, 1219 bytes, 2 tensors)

0.weight f4 [4, 4]
0.9836525 -0.21305764 -0.5536161 0.6483882 0.23386763 -0.138172 -0.77971107 0.15492885
-0.02111436 0.81256676 0.48839006 -0.06701531 -2.563e-41 1.586079e-39 -4.42815e-40 2.68241e-40
00000000: a6d0 7b3f c82b 5abe c9b9 0dbf c5fc 253f
00000010: ff7a 6f3e f67c 0dbe 259b 47bf aba5 1e3e
00000020: 06f8 acbc 6004 503f 430e fa3e 533f 89bd
00000030: 7247 0080 5845 1100 63d2 0480 bfeb 0200

0.bias f4 [4]
-0.71088564 0.4965677 -0.7965692 -0.038692705
00000000: 9afc 35bf 1f3e fe3e f6eb 4bbf 3e7c 1ebd
