runs/results_for_RL_paper/randomSamples_sumf5_ae2_trial9_enc_linear_dec_linear_pred_linear_2lay_latentd_10_bs_10_lr_0_001_w_l1_0p01_to_enc_and_to_pred/submodule_params/encoder_params.pt (torch, 1603 bytes, 2 tensors)

0.weight f4 [10, 12]
0.014908614 0.0038915586 0.00096814684 0.000109346176 0.34333384 -0.0002505123 -0.0012390537 -0.0008809491
-0.10754902 -0.00055492285 -0.0004453191 -0.055917375 0.00021189597 0.0002466125 0.057501677 0.38429052
2.932778e-05 0.101169944 0.00012637393 0.021261571 0.0006243232 -0.0007447142 -0.018897755 -0.036294084
-0.009199141 -0.0025087632 -0.43218112 -0.013337164 -0.000658596 0.029506093 -0.1070558 0.016557157
0.070802055 0.0010935124 0.0012956957 -0.007921506 0.0018259756 0.00046619828 0.00030764588 0.107802056
0.04718491 -0.0006040274 -0.008587085 -5.7257712e-05 0.00037497946 -0.039012242 0.00023779924 0.28874978
0.00044817704 -0.00048512474 2.2346569e-05 -0.00027901575 0.024925536 0.00038692338 0.1441594 -0.056977462
0.2861249 -0.00053183956 -0.0003784913 -0.0008608209 -0.0010573317 -0.00094264 0.09159136 -0.0028834532
0.057945687 0.11835972 0.0014098613 0.2266513 0.0533129 0.13499133 0.057570506 0.01806755
-0.0038602387 0.0030604536 -0.00054908526 -0.16472611 0.0006190315 0.018281875 -0.13714567 -0.082722045
0.00017632794 0.1236634 -0.29993308 0.00038340554 0.00012182447 -0.0007432008 -0.00024040765 -0.104715176
-0.0001339355 0.14068224 0.0011714662 0.004419892 0.03057496 -0.26186737 -0.035974607 -0.006267625
0.0011678748 0.00041021776 0.00018787658 0.0005411762 -6.2535284e-05 -0.22920316 -0.0006491431 0.22655594
-0.0001561048 -0.0012853387 -0.16091007 -0.00045533862 -0.00086492515 0.00082976354 -0.20348735 -0.008700948
-0.0008896907 0.16185406 0.274735 -0.0006335737 -0.10725782 0.0012319076 -0.054025546 0.028017461
00000000: 4243 743c 8509 7f3b 3ccb 7d3a c850 e538
00000010: 74c9 af3e 3157 83b9 be67 a2ba 7eef 66ba
00000020: a942 dcbd 3e78 11ba b879 e9b9 9e09 65bd
00000030: 6430 5e39 c54b 8139 e186 6b3d bac1 c43e
00000040: ee04 f637 3032 cf3d 3e83 0439 bf2c ae3c
00000050: 9fa9 233a ed38 43ba 77cf 9abc 1ba9 14bd
00000060: feb7 16bc 106a 24bb d846 ddbe 1f84 5abc
00000070: a1a5 2cba c3b6 f13c 1240 dbbd e0a2 873c
00000080: ab00 913d 3054 8f3a 55d4 a93a 34c9 01bc
00000090: 9355 ef3a 136c f439 884b a139 53c7 dc3d
000000a0: f744 413d 9857 1eba d8b0 0cbc 0028 70b8
000000b0: e498 c439 4dcb 1fbd bf59 7939 03d7 933e
000000c0: 4ef9 ea39 5758 feb9 e474 bb37 dc48 92b9
000000d0: a330 cc3c fadb ca39 869e 133e 3361 69bd
000000e0: f77e 923e 266b 0bba 3e70 c6b9 b6a8 61ba
000000f0: 2a96 8aba 801b 77ba 4094 bb3d 51f8 3cbb
00000100: 7558 6d3d 9566 f23d 18cb b83a 4717 683e
00000110: a15e 5a3d 2b3b 0a3e 0dcf 6b3d 6602 943c
00000120: 0ffc 7cbb e491 483b 7df0 0fba f6ad 28be
00000130: 8046 223a dfc3 953c ea6f 0cbe 2d6a a9bd
00000140: ace4 3839 3d43 fd3d d490 99be d203 c939
00000150: 047c ff38 5dd3 42ba f015 7cb9 e974 d6bd
00000160: 0971 0cb9 010f 103e e28b 993a bed4 903b
00000170: 5778 fa3c 7b13 86be 1c5a 13bd a660 cdbb
00000180: 6013 993a 7f12 d739 bc00 4539 b8dd 0d3a
00000190: 6025 83b8 3cb4 6abe 422b 2aba 48fe 673e
000001a0: 10b0 23b9 cf78 a8ba 9cc5 24be 84ba eeb9
000001b0: 25bc 62ba 7d84 593a fd5e 50be 6c8e 0ebc
000001c0: 223a 69ba 12bd 253e 11aa 8c3e 6916 26ba
000001d0: fda9 dbbd f677 a13a e449 5dbd e084 e53c

0.bias f4 [10]
0.0060180826 -0.0036708466 -0.0034787243 0.0014782363 -0.0006848816 -0.003911184 0.008200233 0.0027475837
-0.0073030787 0.0022572582
00000000: 5633 c53b 9692 70bb 4ffb 63bb 61c1 c13a
00000010: a089 33ba 6429 80bb 455a 063c ce10 343b
00000020: aa4e efbb 82ee 133b
