runs/results_for_RL_paper/gridSamples_nonlinf5_ae2_trial9_enc_None_no_dec_pred_tanh_4lay_latentd_4_bs_10_lr_0_001_w_l1_0p01_to_enc_and_to_pred/submodule_params/predictor_params.pt (torch, 3049 bytes, 7 tensors)

0.weight f4 [4, 4]
00000000: a3f4 8b3d 54be e2b9 9a8b b238 411f 14bf
00000010: 6334 f5bf 44e0 56b9 d567 ac38 f19a e33e
00000020: 7a54 b3b8 5cc8 0ab8 2d78 0f39 d248 e3b8
00000030: 1432 6a39 b8d8 08b9 dc19 8c39 38ee 0c39
0.0683377 -0.00043247885 8.513704e-05 -0.5786019 -1.9156612 -0.00020492176 8.220939e-05 0.44454148
-8.55112e-05 -3.3088363e-05 0.00013682312 -0.00010837767 0.00022334635 -0.00013050705 0.00026722148 0.00013440184

0.bias f4 [4]
00000000: 6605 9dbd 1e25 e83e 31da 403b d947 46bb
-0.07667045 0.45340818 0.0029426927 -0.0030255227

2.weight f4 [4, 4]
00000000: 061e af3f a997 843f 8a05 0e38 692f 0b39
00000010: 4c3e 8338 b0ca 51b9 fa52 9538 0f79 e4b8
00000020: b60d 5a38 7c5a 53b8 e2af 0039 4f44 4038
00000030: 261a a338 3c80 1737 3dd8 3cb9 4057 c636
1.3681037 1.0358783 3.3860597e-05 0.00013273735 6.2581705e-05 -0.000200073 7.120329e-05 -0.00010894436
5.198802e-05 -5.039059e-05 0.00012272553 4.5839985e-05 7.777316e-05 9.030158e-06 -0.00018009632 5.911017e-06

2.bias f4 [4]
00000000: b538 e13e df4a b03c 418b 863c 108f a33b
0.43988577 0.021520076 0.016423823 0.0049914196

4.weight f4 [4, 4]
00000000: c6b2 1dc0 a63c 0539 910d 3339 a018 36b9
00000010: 75e7 85b9 4abc 6ab9 d23b 6138 cc7f 2138
00000020: 0696 b538 56fe df38 dacf 3e39 8ac2 bb38
00000030: 0447 60b9 ac53 a8b8 44da 1f39 40bf b6b6
-2.4640365 0.00012706462 0.00017075824 -0.00017366046 -0.00025540186 -0.00022386122 5.3699892e-05 3.850441e-05
8.6586966e-05 0.000106808424 0.00018197243 8.9530906e-05 -0.0002138876 -8.026449e-05 0.00015244732 -5.446287e-06

4.bias f4 [4]
00000000: a269 aabb 270b 0bbd f0ef 08bd 04bc 00bd
-0.0052005807 -0.033946183 -0.033431947 -0.031429306

6.weight f4 [1, 4]
00000000: 1410 16c0 f457 9f39 1018 4c39 aca3 0c3a
-2.3447313 0.00030392373 0.0001946392 0.0005364965
