runs/results_for_RL_paper/randomSamples_sumf5_ae2_trial2_enc_linear_dec_linear_pred_linear_latentd_10_bs_10_lr_0_001_w_l1_0p01_to_enc_and_to_pred/checkpoints/epoch=609-total_val_loss=0.80.ckpt (torch, 15447 bytes, 15 tensors)

submodules.encoder.0.weight f4 [10, 12]
0.013943463 0.0022813198 0.27351734 0.24281739 0.3506065 0.00013379916 0.06744635 0.0019772484
-0.21122882 -0.0025895082 0.00017111827 9.751943e-05 6.26781e-05 0.0019778875 0.0008296085 0.00072456227
-0.15680529 0.0007676356 0.029909318 -0.0006179901 -0.0008730829 -0.00045504683 -0.3365233 0.00091002433
-0.0014424097 0.0015402621 -0.008708881 0.02238095 -0.00010320355 -0.0004512797 -0.24160914 -0.0005707195
-0.17975508 0.072616264 -0.0008926857 0.00037803344 -0.00032195137 0.0009685824 -0.15595818 -0.27720988
-0.0014365383 0.14687529 0.047525335 -0.3080677 -0.13951463 0.00044308833 -0.00014110358 -0.008620446
-0.0015139083 0.0005780513 -0.0012802057 0.07067923 0.120548174 -0.0014092488 -0.09219512 -0.21443452
0.15462029 0.00059066154 -0.03411285 0.0014398084 0.0004006836 -6.251564e-05 0.21684597 -0.040370036
0.0006154339 0.007369671 -0.14835279 0.0005740994 -8.863419e-05 -0.22552885 -5.567373e-05 -0.060991604
-0.0006062506 0.00029943444 0.0008562345 -0.3697956 0.043415505 -0.102940686 -0.0008274263 -0.00012082819
0.0007287101 0.10670628 -0.09635751 0.0012166025 0.0021679008 -0.0012592189 0.45712468 0.27001777
-0.015516065 -0.14645675 0.00040442857 -0.064311296 -0.0010871085 0.09075449 0.17269333 0.024010139
0.0059875976 -0.0003224179 -0.031660322 0.001367482 -0.00040717248 -0.29981056 0.017201098 -0.000645778
-0.055676274 -0.19830461 3.6968413e-05 -4.58437e-06 0.0001979077 -0.00064234645 0.01538156 5.3158543e-05
0.0008353592 0.00095352595 0.0005080296 -0.0004410039 0.00031800344 -0.061545864 0.0012017749 0.403568
00000000: 1f73 643c 3282 153b 770a 8c3e 1fa5 783e
00000010: b282 b33e 704c 0c39 5021 8a3d b994 013b
00000020: 5e4c 58be bdb4 29bb 366e 3339 5883 cc38
00000030: 0c72 8338 729f 013b 167a 593a 8df0 3d3a
00000040: 9191 20be 273b 493a 6304 f53c 9d00 22ba
00000050: 9adf 64ba 5a93 eeb9 c84c acbe b38e 6e3a
00000060: 3d0f bdba 9fe2 c93a b2af 0ebc 4158 b73c
00000070: fc6e d8b8 bc99 ecb9 6368 77be 569c 15ba
00000080: b711 38be d6b7 943d 2003 6aba ca32 c639
00000090: 95cb a8b9 77e8 7d3a 80b3 1fbe 74ee 8dbe
000000a0: 3a4a bcba 7a66 163e eda9 423d 0dbb 9dbe
000000b0: ecdc 0ebe 4f4e e839 34f5 13b9 c53c 0dbc
000000c0: 556e c6ba 5e88 173a 93cc a7ba 46c0 903d
000000d0: f6e1 f63d 8bb6 b8ba ccd0 bcbd b994 5bbe
000000e0: c854 1e3e a0d6 1a3a eab9 0bbd f4b7 bc3a
000000f0: d812 d239 d41a 83b8 df0c 5e3e 0d5b 25bd
00000100: 1255 213a 487d f13b cbe9 17be 297f 163a
00000110: 1ee1 b9b8 09f1 66be 3683 69b8 55d2 79bd
00000120: caec 1eba 69fd 9c39 ed74 603a d955 bdbe
00000130: 75d4 313d 91d2 d2bd a4e7 58ba 2465 fdb8
00000140: e806 3f3a d288 da3d 1657 c5bd 6876 9f3a
00000150: 5713 0e3b 600c a5ba 3f0c ea3e c53f 8a3e
00000160: 1837 7ebc c2f8 15be 7c09 d439 a4b5 83bd
00000170: 4f7d 8eba 7ddd b93d 85d6 303e e9b0 c43c
00000180: 9c33 c43b 330a a9b9 41ae 01bd 153d b33a
00000190: c479 d5b9 c580 99be 51e9 8c3c 6e49 29ba
000001a0: ce0c 64bd 5d10 4bbe 880e 1b38 70d3 99b6
000001b0: 7285 4f39 2463 28ba f002 7c3c 8df6 5e38
000001c0: 02fc 5a3a 0bf6 793a 4a2d 053a 8b36 e7b9
000001d0: b3b9 a639 8417 7cbd e084 9d3a 77a0 ce3e

submodules.encoder.0.bias f4 [10]
0.001860568 0.008995948 -0.0002643773 0.011687359 -0.01703596 -0.020784795 0.009894919 -0.004362108
-0.0034852233 -0.009151406
00000000: 4dde f33a be63 133c 1f9c 8ab9 567c 3f3c
00000010: ff8e 8bbc e044 aabc 4c1e 223c 04f0 8ebb
00000020: 5868 64bb c7ef 15bc

submodules.predictor.0.weight f4 [1, 10]
-0.44383255 0.0004485966 0.00064545183 0.450512 0.0009350857 -0.0013607771 0.112993255 -0.69612056
-0.0019857737 -0.06626932
00000000: 053e e3be 9e31 eb39 8a33 293a 82a9 e63e
00000010: 8a20 753a 1a5c b2ba 0269 e73d f534 32bf
00000020: c123 02bb 36b8 87bd

submodules.decoder.0.weight f4 [12, 10]
1.5673181 -0.050763648 -0.89621645 0.82750654 -0.34528822 0.020185465 -0.09538946 -0.45479542
1.3017554 -0.06064564 0.9197227 1.3995814 0.89534855 0.539349 0.3317096 -0.5504771
0.34709272 -0.168234 0.009417123 0.03786939 0.32793888 0.46393156 -0.5784901 0.05158881
-0.4623873 1.4065037 0.8106748 1.2650009 -0.82857734 0.12882847 0.26612023 0.53876895
0.42036653 -0.45363247 0.585993 -0.90311563 -1.8439311 0.15346125 0.30713183 -0.15635973
1.6795297 -1.0594879 -0.24419443 -0.70289606 1.3730696 -0.07244704 0.99329424 -1.2258247
-0.1056865 0.047847614 0.2850297 -0.013995126 -0.47179273 0.5472183 -0.54416806 1.1131636
-0.9885686 -0.69486886 -2.357106 0.22109169 0.63268626 0.37371972 -2.5910766 0.8092458
-1.2675556 -1.0343124 -0.22109361 0.34842807 0.27649376 -0.15708695 0.23611197 -0.48169655
-0.0013279911 -1.8880129 -1.6330154 0.33408356 0.49589968 -0.9908811 -0.60249245 0.06688098
-0.8932863 -0.40002805 -1.5649396 -1.2997963 1.9178802 0.33193487 0.509554 -0.14423408
-0.7255153 0.030705765 -0.13571635 0.09074199 0.99504775 -0.3709833 0.24082784 -2.0864835
1.1976951 0.9073233 -1.0826951 -0.38148153 -0.7231745 -2.430515 -0.10143796 0.4117143
-0.75553495 -0.064840786 -0.48689154 0.6095417 0.07654906 -0.037048593 -0.03239952 -0.003194726
0.17399938 -0.05944757 0.05716369 -0.3689547 0.15295446 0.095349886 -0.13494413 2.4070218
00000000: e19d c83f 8bed 4fbd 716e 65bf 78d7 533f
00000010: 9ec9 b0be fd5b a53c 8d5b c3bd f2da e8be
00000020: ec9f a63f 9067 78bd f272 6b3f 7c25 b33f
00000030: 9035 653f c712 0a3f d7d5 a93e 11ec 0cbf
00000040: 23b6 b13e 8945 2cbe 474a 1a3c ef1c 1b3d
00000050: 9be7 a73e 7088 ed3e ed17 14bf ca4e 533d
00000060: 07be ecbe 5008 b43f 6288 4f3f 8deb a13f
00000070: a51d 54bf 9ceb 033e e940 883e c3ec 093f
00000080: 483a d73e 8442 e8be a303 163f 9632 67bf
00000090: ef05 ecbf f224 1d3e 6240 9d3e c41c 20be
000000a0: d4fa d63f 4d9d 87bf 1b0e 7abe fff0 33bf
000000b0: bfc0 af3f 1d5f 94bd 8848 7e3f d3e7 9cbf
000000c0: 2a72 d8bd dcfb 433d 6aef 913e d04b 65bc
000000d0: d18e f1be 8016 0c3f 994e 0bbf 257c 8e3f
000000e0: d512 7dbf ede2 31bf d3da 16c0 dc65 623e
000000f0: baf7 213f 3158 bf3e 33d4 25c0 bc2a 4f3f
00000100: 433f a2bf 5964 84bf 5d66 62be 2a65 b23e
00000110: 9790 8d3e 67db 20be 56c7 713e eea0 f6be
00000120: fd0f aeba 68aa f1bf a606 d1bf 000d ab3e
00000130: 90e6 fd3e 62aa 7dbf f23c 1abf e5f8 883d
00000140: 69ae 64bf 7ad0 ccbe f14f c8bf ba5f a6bf
00000150: 197d f53f 5ef3 a93e 2272 023f 19b2 13be
00000160: 5fbb 39bf a88a fb3c 3af9 0abe f0d6 b93d
00000170: 73bb 7e3f 86f1 bdbe 939b 763e f288 05c0
00000180: 134e 993f 5746 683f c195 8abf 8c51 c3be
00000190: f721 39bf 8f8d 1bc0 b5be cfbd 37cc d23e
000001a0: bd6a 41bf 3fcb 84bd d949 f9be ed0a 1c3f
000001b0: c1c5 9c3d 44c0 17bd 5cb5 04bd 9c5e 51bb
000001c0: e52c 323e 4c7f 73bd 7924 6a3d a1e7 bcbe
000001d0: 18a0 1c3e cd46 c33d cb2e 0abe a50c 1a40

submodules.decoder.0.bias f4 [12]
-0.020070488 0.10945058 0.0102044325 0.012070458 0.023673305 0.004007223 -0.055099964 -0.007854048
0.05026634 -0.047752783 0.009525003 0.014690865
00000000: dd6a a4bc a027 e03d 7e30 273c 2cc3 453c
00000010: 85ee c13c 064f 833b 80b0 61bd 44ae 00bc
00000020: 14e4 4d3d 6c98 43bd c20e 1c3c f4b1 703c

exp_avg f4 [10, 12]
0.052446585 0.029248979 -0.027957274 -0.0026317507 0.027280323 -0.012353794 0.0057158265 0.023371303
-0.037137486 -0.026025042 -0.040014707 -0.034818385 0.027202463 0.0023759818 -0.019575724 0.0039234953
0.012005344 -0.021678003 0.009072367 0.012638816 -0.007923865 -0.0053949254 -0.01682558 -0.006454247
0.027173346 0.04247504 -0.02260258 0.020035785 0.0019987794 0.0032728529 0.009203022 0.021996504
-0.039713703 -0.00807442 -0.042740554 -0.017610656 -0.06450668 -0.005170968 0.039905354 -0.018314809
-0.04454279 0.020035863 -0.017582554 -0.04569432 0.006676475 0.05158429 0.02643066 0.046265878
0.0331596 -0.001984262 -0.028068043 0.023911417 0.040821735 -0.017687583 0.01772199 -0.02075419
0.014307532 -0.014578723 0.012956269 0.041007213 -0.025246724 -0.015887698 0.025733422 0.006370187
-0.022035686 0.008517739 -0.0062040645 -0.0010929821 0.014378875 0.01232589 0.013373422 0.005777712
0.016506845 0.0076761483 0.0012012791 0.0069180992 0.022095568 -0.01202551 0.00783589 -0.032357417
0.019466974 -0.004689401 0.010282993 0.027859438 0.061479267 0.0044154134 -0.05076174 0.006034938
-0.0048363674 -0.01287126 0.017797058 0.007328358 -0.0482072 -0.07028018 -0.023214312 -0.035666812
0.010292878 0.018680869 0.0043880036 -0.026349517 0.039266326 -0.0075999997 0.014943696 -0.0058639375
0.016157653 0.011938258 -0.01303783 -0.0027387512 0.011556096 0.039162286 0.0036124357 -0.0040234295
-0.0087931175 0.008308838 -0.009251336 0.014776957 -0.04102523 -0.006315341 -0.040343136 -0.015736666
00000000: 3bd2 563d 8e9b ef3c a706 e5bc 7379 2cbb
00000010: fc7a df3c 9167 4abc d44b bb3b 2d75 bf3c
00000020: 7a1d 18bd 7832 d5bc 76e6 23bd b99d 0ebd
00000030: b3d7 de3c 5cb6 1b3b 455d a0bc aa90 803b
00000040: 10b2 443c 1196 b1bc 44a4 143c 0913 4f3c
00000050: 19d3 01bc eac7 b0bb ccd5 89bc 267e d3bb
00000060: a39a de3c 4ffa 2d3d 0c29 b9bc 1622 a43c
00000070: f4fd 023b 5c7d 563b 46c8 163c 0332 b43c
00000080: d6aa 22bd 924a 04bc b810 2fbd 3944 90bc
00000090: 141c 84bd 3971 a9bb cc73 233d f008 96bc
000000a0: 8072 36bd 4022 a43c 4a09 90bc f829 3bbd
000000b0: 55c6 da3b 0c4a 533d 1d85 d83c 4a81 3d3d
000000c0: 5cd2 073d 640a 02bb f4ee e5bc e0e1 c33c
000000d0: b134 273d 8de5 90bc b52d 913c b104 aabc
000000e0: 246a 6a3c 99db 6ebc 8846 543c 2ef7 273d
000000f0: 38d2 cebc eb26 82bc e6ce d23c 00bd d03b
00000100: 2f84 b4bc fd8d 0b3c 774b cbbb 6542 8fba
00000110: 5f95 6b3c 88f2 493c 331c 5b3c f652 bd3b
00000120: 5d39 873c 3388 fb3b 3d74 9d3a 39b1 e23b
00000130: c401 b53c a506 45bc 1b62 003c 3689 04bd
00000140: 3479 9f3c 8ca9 99bb 007a 283c 7a39 e43c
00000150: afd1 7b3d 2caf 903b 8beb 4fbd bbc0 c53b
00000160: 647a 9ebb fae1 52bc 23cb 913c b922 f03b
00000170: ea74 45bd 0eef 8fbd f12b bebc 5d17 12bd
00000180: 76a3 283c 9f08 993c 3ec9 8f3b f1da d7bc
00000190: bad5 203d 6b09 f9bb 67d6 743c 4626 c0bb
000001a0: 0e5d 843c af98 433c 9f9c 55bc 9f7c 33bb
000001b0: c855 3d3c a268 203d 9dbe 6c3b f9d6 83bb
000001c0: 0211 10bc cb21 083c ea92 17bc 0d1b 723c
000001d0: 120a 28bd ecf0 cebb d83e 25bd 2eea 80bc

exp_avg_sq f4 [10, 12]
0.023462297 0.02300848 0.020891497 0.025485946 0.022524439 0.023287674 0.02343409 0.025303842
0.022618437 0.025704553 0.025550717 0.023940127 0.01141169 0.0074113607 0.009015962 0.008773108
0.007745037 0.009268255 0.0086087445 0.008468795 0.008610919 0.009614862 0.008802762 0.008736223
0.015349043 0.014103417 0.011309608 0.012696427 0.012676003 0.012204634 0.012627733 0.012697674
0.012947252 0.012261183 0.014858216 0.012531143 0.029409658 0.0304849 0.025826981 0.031410206
0.028008427 0.027263822 0.02763529 0.028159441 0.02782469 0.02881688 0.032303154 0.030261092
0.0155812865 0.013881232 0.011922011 0.012979058 0.0128546255 0.011690225 0.012265358 0.012097941
0.013123686 0.013165387 0.01320571 0.013864502 0.014415597 0.012367916 0.010360162 0.010444631
0.011087728 0.009994835 0.011529382 0.01084267 0.012004791 0.01160269 0.012751609 0.010656702
0.011769713 0.0106356125 0.008760171 0.009402992 0.009250723 0.008722004 0.009877993 0.010174376
0.009817915 0.009708156 0.010178487 0.010161185 0.05173689 0.05222463 0.044413902 0.05402741
0.04942009 0.0495507 0.049369834 0.05196553 0.050348457 0.050945777 0.054189514 0.051794246
0.012492367 0.011461549 0.009459745 0.010137792 0.010441011 0.008841211 0.010456964 0.00944286
0.010511052 0.010575693 0.011563435 0.010095424 0.008851866 0.008486826 0.0065647443 0.007616403
0.0066758664 0.0063144867 0.007805695 0.0076839277 0.008070715 0.0074810092 0.008498969 0.0066660712
00000000: 0134 c03c 487c bc3c a524 ab3c e7c7 d03c
00000010: 2c85 b83c cbc5 be3c d9f8 bf3c 014a cf3c
00000020: 4d4a b93c 5b92 d23c bd4f d13c 161e c43c
00000030: 19f8 3a3c 00db f23b afb7 133c 15bd 0f3c
00000040: 14ca fd3b e1d9 173c b10b 0d3c b3c0 0a3c
00000050: d014 0d3c a787 1d3c 7639 103c 6022 0f3c
00000060: 8d7a 7b3c 0512 673c ef4b 393c ad04 503c
00000070: 03af 4f3c f2f5 473c 8de4 4e3c e809 503c
00000080: b620 543c 21e3 483c e06f 733c 6c4f 4d3c
00000090: 86ec f03c 78bb f93c 1b93 d33c fda7 003d
000000a0: ee71 e53c 6158 df3c 6763 e23c a1ae e63c
000000b0: 9bf0 e33c 6111 ec3c 5050 043d 1ce6 f73c
000000c0: a748 7f3c 1b6e 633c 8a54 433c 1da6 543c
000000d0: 359c 523c 5c88 3f3c a4f4 483c 7136 463c
000000e0: bb04 573c a3b3 573c c35c 583c f027 633c
000000f0: 652f 6c3c cda2 4a3c abbd 293c f51f 2b3c
00000100: 4da9 353c 60c1 233c bce5 3c3c 74a5 313c
00000110: beaf 443c 3619 3e3c 20ec 503c 7399 2e3c
00000120: c1d5 403c fe40 2e3c d286 0f3c 020f 1a3c
00000130: 5890 173c bce6 0e3c 4ed7 213c 6db2 263c
00000140: 52db 203c f50e 1f3c abc3 263c 197b 263c
00000150: 10ea 533d 7ee9 553d 5aeb 353d d84b 5d3d
00000160: b86c 4a3d adf5 4a3d 0638 4a3d cfd9 543d
00000170: 2f3a 4e3d 85ac 503d d3f5 5d3d 3426 543d
00000180: c9ac 4c3c 39c9 3b3c 0cfd 1a3c fb18 263c
00000190: c610 2b3c bada 103c b053 2b3c 3ab6 1a3c
000001a0: 8c36 2c3c ac45 2d3c 9074 3d3c 4767 253c
000001b0: 6b07 113c 540c 0b3c 111d d73b 0593 f93b
000001c0: 3ac1 da3b c1e9 ce3b eac6 ff3b 75c9 fb3b
000001d0: 083b 043c 4123 f53b 423f 0b3c 0f6f da3b

exp_avg f4 [10]
-0.0031327254 -0.014623444 0.03237519 -0.030310588 -0.0066570695 0.00015216833 -0.015256193 0.052799903
-0.016561732 -0.0014106231
00000000: 694e 4dbb 2b97 6fbc d99b 043d e94d f8bc
00000010: 8c23 dabb 608f 1f39 1cf5 79bc b644 583d
00000020: 78ac 87bc a8e4 b8ba

exp_avg_sq f4 [10]
0.022589024 0.008092127 0.012542248 0.027583681 0.01216132 0.010895497 0.009344921 0.046532005
0.010048142 0.0072189462
00000000: 9e0c b93c d794 043c 007e 4d3c 2cf7 e13c
00000010: 4640 473c 0783 323c 711b 193c 5898 3e3d
00000020: f6a0 243c e98c ec3b

exp_avg f4 [1, 10]
-0.010573362 -0.0055441107 0.0032730051 0.003702593 0.012360922 -0.0016320595 0.008123164 0.022704765
-0.013793876 0.0041504726
00000000: e53b 2dbc 5fab b5bb ea7f 563b 34a7 723b
00000010: 7785 4a3c d4ea d5ba 0517 053c 58ff b93c
00000020: b6ff 61bc b000 883b

exp_avg_sq f4 [1, 10]
0.017452497 0.016533932 0.008557431 0.023742069 0.012969896 0.011809428 0.018235115 0.030890036
0.016430227 0.018092565
00000000: 8af8 8e3c 2b72 873c 7834 0c3c ba7e c23c
00000010: b07f 543c 557c 413c cf61 953c 1a0d fd3c
00000020: af98 863c dc36 943c

exp_avg f4 [12, 10]
-0.00081428495 -0.0008472229 -0.0012828765 0.0023639442 0.0008081264 -0.0012877943 0.0013080018 -0.002291728
-0.0002983596 -0.0021002225 0.0012969761 -0.00023785068 -0.00027300845 -0.00041439783 0.0011693221 -0.00057349046
-0.0016329135 7.974846e-05 0.00075737794 0.0004232338 -0.0026896116 0.002311458 0.001407495 0.0018945413
-0.0038022683 0.0038228352 -0.0023644892 -0.011953221 0.010445541 -0.0059521045 -0.00084325625 0.0026854447
0.0016431324 -0.00038543442 -0.0059877266 0.003341408 0.00234256 -0.015273378 0.008825368 -0.00979649
0.001539067 0.00019137152 0.0014046467 0.0011090282 4.5188688e-05 0.0010427707 0.0004674671 -0.0012026432
0.002523801 0.00037418728 -0.0018178382 0.0013534927 0.0025578092 -0.0011334422 -0.00087659317 -0.000896424
-0.0029876886 0.0059345807 -0.0027070919 0.0013585265 -0.0026281099 -0.0014945968 0.0018861495 0.00063762505
0.001733488 0.002072019 0.0026548717 0.0010577119 -0.00084039924 -0.00016120775 0.00049581093 0.001614068
-0.00011386379 -0.0021629438 -0.0017650622 0.00029198508 0.0004509965 -0.0039236713 0.00066456833 -0.0075698146
0.0012929601 -0.0052409843 -0.0036745658 -0.0004375196 0.0027955603 -0.0017076228 -0.0038382425 0.002462783
0.0012626216 0.0025305871 0.00039594533 -0.00097053865 -0.0004860522 0.0019242268 -0.0010916904 0.0009183182
-0.0035716228 -0.0057728617 0.0044299383 -0.0015516988 -0.0010649222 0.0015977642 0.00089851354 0.0023610976
-0.00068850757 0.0028603978 -0.0018599977 0.0010719345 -0.0004094553 -0.0010248082 -0.00013696183 0.00555976
0.004127071 0.0021372978 -0.0032619366 0.0011295567 0.00304847 -0.006065299 0.0013720277 -0.0045794807
00000000: bd75 55ba 2b18 5eba 3126 a8ba 67ec 1a3b
00000010: 72d8 533a 35cb a8ba 4271 ab3a d130 16bb
00000020: 266d 9cb9 e3a3 09bb 4cff a93a 8e67 79b9
00000030: 9322 8fb9 8943 d9b9 f043 993a 4b56 16ba
00000040: 7c07 d6ba a13e a738 c68a 463a 7be5 dd39
00000050: 3244 30bb d57b 173b b27b b83a 4252 f83a
00000060: 7a2f 79bb 8888 7a3b 8cf5 1abb 71d7 43bc
00000070: c623 2b3c df09 c3bb f80d 5dba 49fe 2f3b
00000080: 605e d73a 2214 cab9 b134 c4bb 86fb 5a3b
00000090: a385 193b 313d 7abc 4798 103c 7581 20bc
000000a0: 85ba c93a e7aa 4839 1f1c b83a d05c 913a
000000b0: fc88 3d38 94ad 883a 5f16 f539 02a2 9dba
000000c0: 5b66 253b 912e c439 8744 eeba ae67 b13a
000000d0: eba0 273b 0290 94ba 2ccb 65ba fffd 6aba
000000e0: 19cd 43bb df76 c23b 7769 31bb 9610 b23a
000000f0: 5e3c 2cbb 59e6 c3ba ad38 f73a 4b26 273a
00000100: 3536 e33a b6ca 073b 5bfd 2d3b eca2 8a3a
00000110: 3d4e 5cba e009 29b9 4ff9 013a 238f d33a
00000120: 28ca eeb8 2dc0 0dbb a959 e7ba 9315 9939
00000130: ba73 ec39 2492 80bb 6d36 2e3a 350c f8bb
00000140: 8b78 a93a 90bc abbb fcd0 70bb e362 e5b9
00000150: b835 373b 50d2 dfba 068b 7bbb a466 213b
00000160: 8d7e a53a 35d8 253b e296 cf39 bf6b 7eba
00000170: d2d4 feb9 5636 fc3a 0d17 8fba 4bbb 703a
00000180: e311 6abb 462a bdbb 0429 913b 5f62 cbba
00000190: dc94 8bba 126c d13a 398a 6b3a a5bc 1a3b
000001a0: f67c 34ba 8375 3b3b 2bcb f3ba 2780 8c3a
000001b0: 29ac d6b9 db52 86ba 699d 0fb9 a62e b63b
000001c0: 613c 873b e811 0c3b 37c6 55bb a20d 943a
000001d0: d7c8 473b 6abf c6bb 9cd5 b33a 780f 96bb

exp_avg_sq f4 [12, 10]
0.00012184213 0.00010617007 6.0836996e-05 0.00017168187 8.263658e-05 7.6429445e-05 0.00012550793 0.0002148126
0.00011673247 0.00012477992 0.00012388063 0.000104887615 5.8112586e-05 0.00017196314 8.175104e-05 7.759925e-05
0.00013454125 0.00021348866 0.00011897197 0.00011669134 0.00018190415 0.00020076903 9.610131e-05 0.00027972422
0.0001370126 0.000116412986 0.00019512296 0.00043105075 0.00023563903 0.0001884772 0.0001888786 0.0002046722
9.629792e-05 0.00029022395 0.00012769298 0.000120206736 0.00019760073 0.00041091084 0.00021682754 0.00019070607
0.00016547846 0.00016580187 7.421806e-05 0.00023018307 0.000114608294 0.00010486534 0.00017765109 0.00032249422
0.0001763233 0.00017131443 0.00017978635 0.00019188458 9.300235e-05 0.00025097965 0.00013335915 0.00012551248
0.00018953603 0.000368474 0.00020854903 0.0001764052 0.00017273088 0.00017958871 9.139562e-05 0.00025872176
0.000119652934 0.00011089228 0.00019097174 0.00033154764 0.00018900013 0.00017871239 0.00018068096 0.0002051087
9.293029e-05 0.00027376952 0.00012843717 0.00011409828 0.00020669105 0.0003842429 0.00021366565 0.00019632901
0.00017217349 0.00017982651 8.267163e-05 0.00023914737 0.00012264343 0.00010872871 0.00018035238 0.00034001766
0.00019283015 0.00017369115 0.0001772134 0.00016850838 8.730813e-05 0.00024849505 0.000121674704 0.00011450499
0.00019025234 0.00034504576 0.000199504 0.00017448622 0.00016966122 0.00018313807 8.5765576e-05 0.00025011832
0.00011979553 0.000106670755 0.00017830462 0.0003440083 0.00020295949 0.00017342783 0.0001761272 0.00018780855
9.411379e-05 0.00027782674 0.00013234472 0.00012405204 0.00018616034 0.00038653833 0.00020133737 0.00019448207
00000000: 7f85 ff38 9fa7 de38 3a2b 7f38 8005 3439
00000010: 2d4d ad38 bf48 a038 c79a 0339 513f 6139
00000020: 45ce f438 5bd7 0239 f4e5 0139 1cf7 db38
00000030: eabd 7338 0151 3439 c171 ab38 c8bc a238
00000040: a413 0d39 eddb 5f39 9780 f938 30b8 f438
00000050: 86bd 3e39 8785 5239 ff89 c938 f3a7 9239
00000060: 0aab 0f39 bf22 f438 ec99 4c39 a7fe e139
00000070: df15 7739 f7a1 4539 b70d 4639 469d 5639
00000080: 8df3 c938 3329 9839 53e5 0539 8017 fc38
00000090: 0b33 4f39 856f d739 335c 6339 45f8 4739
000000a0: 4984 2d39 1adb 2d39 84a5 9b38 4c5d 7139
000000b0: dc59 f038 27eb db38 da47 3a39 7114 a939
000000c0: 6de3 3839 dea2 3339 0885 3c39 a034 4939
000000d0: 420a c338 eb95 8339 53d6 0b39 009c 0339
000000e0: 31be 4639 be2f c139 f4ad 5a39 69f9 3839
000000f0: 181f 3539 fa4f 3c39 a6ab bf38 0ca5 8739
00000100: 2eee fa38 d78e e838 963f 4839 92d3 ad39
00000110: 562e 4639 be64 3b39 2d75 3d39 7312 5739
00000120: 92e3 c238 b988 8f39 17ad 0639 0c48 ef38
00000130: 35bb 5839 3674 c939 700b 6039 abdd 4d39
00000140: 7889 3439 d08f 3c39 fe5f ad38 a2c3 7a39
00000150: d899 0039 4805 e438 f91c 3d39 6644 b239
00000160: 7332 4a39 dd20 3639 5cd2 3939 a0b1 3039
00000170: 3219 b738 7148 8239 9c2b ff38 6622 f038
00000180: 797e 4739 42e7 b439 f231 5139 4af6 3639
00000190: 16e7 3139 c008 4039 0bdd b338 5022 8339
000001a0: bc3a fb38 6db4 df38 48f7 3a39 035c b439
000001b0: 86d1 5439 2eda 3539 c9ae 3839 79ee 4439
000001c0: f55e c538 46a9 9139 04c6 0a39 f713 0239
000001d0: 0934 4339 4ca8 ca39 171e 5339 e2ed 4b39

exp_avg f4 [12]
-0.0014496744 -0.0018530958 -0.0053933486 -0.0026332766 -0.0095252935 0.0045575635 -0.009892229 0.0006181835
-7.1781324e-05 0.0058848904 0.0060747038 -0.0021705297
00000000: 0003 beba 94e3 f2ba b0ba b0bb 0d93 2cbb
00000010: fa0f 1cbc 9d57 953b 0413 22bc 980d 223a
00000020: 4e89 96b8 0ad6 c03b 4f0e c73b 723f 0ebb

exp_avg_sq f4 [12]
0.0006830521 0.00066438183 0.001075863 0.0010626932 0.0009572878 0.0010729359 0.0010274788 0.0011109539
0.0010313428 0.0010078043 0.00097089366 0.0011500411
00000000: da0e 333a e929 2e3a f903 8d3a 114a 8b3a
00000010: 7ff2 7a3a c1a1 8c3a 78ac 863a 6d9d 913a
00000020: 1f2e 873a 4d18 843a 9283 7e3a fabc 963a
