runs/results_for_RL_paper/randomSamples_sumf5_ae2_trial13_enc_linear_no_decoder_pred_linear_2lay_latentd_12_bs_10_lr_0_001_w_l1_0p01_to_pred_no_preprocess/submodule_params/encoder_params.pt (torch, 1731 bytes, 2 tensors)

0.weight f4 [12, 12]
0	0xbeef023e	-0.46681398
1	0xbe00ccdc	-0.12578148
2	0xbe17dcad	-0.14830275
3	0xbde2e137	-0.110781126
4	0x3e89a674	0.26884806
5	0xbe83f6e0	-0.25774288
6	0x3dcb9f52	0.09942497
7	0xbe0a7e3a	-0.13524714
8	0x3e579e4f	0.21056484
9	0x3d208f12	0.039198942
10	0x3e5dbb22	0.21653417
11	0xbe447aa1	-0.19187404
12	0x3d9f65ab	0.077830635
13	0x3d7f61c0	0.06234908
14	0x3dcf7554	0.101298004
15	0x3e5c57fb	0.21517937
16	0xbf2e3f43	-0.6806528
17	0xbe8e6d57	-0.27817795
18	0x3cd2c1ff	0.02572727
19	0xbe857944	-0.2606908
20	0xb938d228	-0.00017625897
21	0xbe1f8499	-0.15577926
22	0xbed74388	-0.4204371
23	0xbe03d65f	-0.12874745
24	0xbe82a331	-0.2551513
25	0x3e8d1465	0.27554622
26	0x3d0b4417	0.034000482
27	0xbe9ab0ec	-0.30213106
28	0xbe98b9a7	-0.29829141
29	0xbe18f221	-0.14936115
30	0x3ec38397	0.38186333
31	0x3dc1162c	0.09428057
32	0x3d8b4456	0.068001434
33	0xbe825137	-0.25452587
34	0x3e5fc8ed	0.21853991
35	0xbf067f92	-0.52538407
36	0xbe35ddfd	-0.17760463
37	0x3e290cfd	0.16508861
38	0x3e86f9f3	0.2636257
39	0x3e667517	0.22505604
40	0x3dc537c7	0.09629779
41	0xbebecd97	-0.37266228
42	0x3f0d2c14	0.5514538
43	0x3df6202a	0.120178536
44	0xbc3abdea	-0.011397818
45	0xbebce719	-0.36895064
46	0x3e0b78d6	0.13620314
47	0x3e0fb67c	0.14034456
48	0xbe46a264	-0.19397885
49	0xbed89b92	-0.4230619
50	0xbebe1d41	-0.37131694
51	0xbf2602a2	-0.6484777
52	0x3eafbe93	0.34325084
53	0x3d28ee54	0.041242912
54	0x3e9001a2	0.28126246
55	0x3dea4582	0.11439039
56	0xbdb52e8e	-0.0884677
57	0x3eda90e3	0.42688665
58	0xbd26c215	-0.040712435
59	0xbe65effa	-0.22454825
60	0x3e877c44	0.26461995
61	0x3eb73217	0.35780403
62	0xbea30307	-0.31838247
63	0x3da636d3	0.08115926
64	0xbe127900	-0.1430397
65	0xbf532de3	-0.8249189
66	0xbedaaec3	-0.42711458
67	0x3e2d6338	0.1693238
68	0xbdc2e12c	-0.095156044
69	0x3f02328c	0.5085838
70	0x3cf9a4f1	0.030474158
71	0x3e09e04e	0.13464472
72	0x3e88eeef	0.26744792
73	0x3edba843	0.4290181
74	0x3df5c02b	0.11999544
75	0xbd914ef7	-0.070951395
76	0xbd864d88	-0.06557757
77	0xbdbfd283	-0.09366324
78	0xbe38a750	-0.18032575
79	0x3ea49c8f	0.32150695
80	0x3d087543	0.033314954
81	0x3ddbacc6	0.10726313
82	0x3e37168b	0.17879693
83	0x3ea71611	0.32634023
84	0xbec8f7ac	-0.3925146
85	0xbeecfdc1	-0.4628735
86	0x3e04a02c	0.12951726
87	0xbe48f90e	-0.19626257
88	0xbeea464b	-0.45756754
89	0x3d807ecc	0.062741846
90	0xbe44740d	-0.19184895
91	0x3e890e05	0.2676851
92	0xbced602f	-0.028976528
93	0x3e6434d0	0.22285771
94	0x3e802cb8	0.25034118
95	0xbe192f05	-0.14959343
96	0x3e14e800	0.14541626
97	0x3d526297	0.051363554
98	0xbde6e429	-0.11273987
99	0x3da0de1e	0.078548655
100	0xbc1ce374	-0.009575713
101	0xbe8e63cb	-0.2781051
102	0xbdeca967	-0.115557484
103	0xbe3404f2	-0.17580011
104	0x3f18bf5c	0.5966699
105	0xbe4091a8	-0.18805563
106	0xbe4cb425	-0.19990595
107	0xbe09b54a	-0.13448063
108	0xbd145b3d	-0.036219824
109	0x3ed28906	0.41120166
110	0x3e9c67a4	0.30547822
111	0xbccbb1b8	-0.024865016
112	0x3f0f04d3	0.55866736
113	0x3e7beff8	0.2460326
114	0xbe71e4a1	-0.23622371
115	0xbd7cc9a3	-0.061715733
116	0xbd6f5940	-0.058434725
117	0x3e155917	0.14584766
118	0x3e41c2a0	0.189219
119	0x3d52b208	0.051439315
120	0xbe6afe75	-0.2294863
121	0x3eb318e4	0.34979928
122	0xbd766066	-0.060150526
123	0xbe942d96	-0.2894103
124	0x3c9ee94c	0.019398354
125	0x3e8cf7db	0.2753285
126	0x3e14069a	0.14455643
127	0xbe0a5f87	-0.13513003
128	0xbe5b32e5	-0.21406133
129	0xbf141f36	-0.57860124
130	0xbe5b95cf	-0.21443866
131	0x3e323af1	0.17405297
132	0x3e2f0c5e	0.17094561
133	0x3e55e7b6	0.20889172
134	0xbe53c08f	-0.20678924
135	0xbeade1c8	-0.3396132
136	0xbe9100c1	-0.28320888
137	0xbcfffd43	-0.031248694
138	0x3e464130	0.19360805
139	0x3e914da6	0.28379554
140	0xbe64fae5	-0.22361334
141	0x3e97d234	0.2965256
142	0xbe36c6e8	-0.17849314
143	0x3ec9c360	0.39406872

0.bias f4 [12]
0	0x3c1655a6	0.009175694
1	0xbb1bf2c5	-0.0023795825
2	0x3c299b51	0.010351972
3	0xbb827178	-0.0039808117
4	0x3c7ff5c1	0.015622557
5	0x3ca63add	0.02029174
6	0xbb77adff	-0.0037792919
7	0x3ae0840d	0.0017129198
8	0x3a9e2403	0.0012065176
9	0xbb9e57ca	-0.0048322426
10	0x3b8969d7	0.0041935253
11	0x3c187b9a	0.009306813
