runs/results_for_RL_paper/best_SupSimpleAE_2_ldim2_gridData_nonlinf5/best_SupSimpleAE_2_ldim2_gridData_nonlinf5.pth (torch, 42146 bytes, 17 tensors)

encoder.layers.0.weight f4 [50, 5]
0	0xbe1cf962	-0.15329507
1	0x3dfe8bb8	0.12428993
2	0xbe623e01	-0.22093965
3	0x3e96243b	0.29324517
4	0x3dc63ab9	0.09679169
5	0xbeebf002	-0.4608155
6	0x3d59dc93	0.05318887
7	0x3e5ecfa8	0.21758902
8	0xbf596c05	-0.8493045
9	0x3e509536	0.2036942
10	0xbec7a950	-0.38996363
11	0xbcedcc97	-0.02902822
12	0x3ef8bfae	0.4858374
13	0x3f2247f0	0.6339102
14	0x3e1f32b9	0.15546693
15	0xbe1f60bd	-0.15564246
16	0xbe9cd10d	-0.30628243
17	0xbf03ba89	-0.51456505
18	0x3dec3e3a	0.11535306
19	0x3e9e26c3	0.30888948
20	0x3e5cb6cf	0.21554111
21	0xbe65e583	-0.22450833
22	0x3ebecf0f	0.37267348
23	0x3ecc572a	0.3991025
24	0x3e84bf2a	0.25927097
25	0x3d3d6c6f	0.04624599
26	0xbeef4273	-0.46730384
27	0x3eb7ae11	0.3587499
28	0x3b5a0620	0.003326781
29	0xbe8d318c	-0.27576864
30	0x3e1ecd48	0.15507996
31	0x3e904a75	0.28181806
32	0x3e7f9974	0.24960881
33	0x3e843e36	0.25828713
34	0x3e22fd8a	0.1591703
35	0xbec77c24	-0.389619
36	0x3edd363d	0.43205443
37	0x3ee60c35	0.44931188
38	0x3e87d252	0.2652765
39	0xbe1ff6f7	-0.15621553
40	0x3d118631	0.035528366
41	0xbe9705b1	-0.2949653
42	0x3e0e071c	0.138699
43	0xbf08403a	-0.53223
44	0xbd7a127a	-0.061052777
45	0xbe66144b	-0.22468679
46	0xbeb05999	-0.34443358
47	0x3eaaf034	0.33386385
48	0x3d311b9d	0.043239225
49	0x3f119520	0.5686817
50	0x3e91b14f	0.28455588
51	0xbe8a0c32	-0.2696243
52	0x3eb3220b	0.3498691
53	0x3dbfb90e	0.09361468
54	0x3de5e7f1	0.1122588
55	0xbebb8d68	-0.36631322
56	0x3e7a560a	0.24446884
57	0x3ebe0737	0.3711488
58	0x3f04a9bb	0.5182149
59	0x3e6a0bf8	0.22856128
60	0xbe4fa302	-0.20277026
61	0x3e236456	0.15956244
62	0xbea4e236	-0.32203835
63	0xbf08c458	-0.53424597
64	0x3e54ebd5	0.20793088
65	0x3d78b64d	0.06072073
66	0xbe9c5526	-0.30533713
67	0xbe8eccab	-0.27890524
68	0xbe9dceee	-0.30821937
69	0x3e352675	0.17690451
70	0xbc33a6dd	-0.010965076
71	0x3dff3690	0.12461579
72	0x3e829238	0.2550218
73	0xbe1c4e12	-0.15264156
74	0x3ea196f6	0.31560487
75	0x3e8c080c	0.2734989
76	0x3e6fb104	0.2340737
77	0x3c994fe2	0.018714849
78	0xbc14032a	-0.0090339575
79	0xbec26705	-0.37969223
80	0x3e2601f2	0.1621168
81	0x3ea0885e	0.3135404
82	0x3e947b30	0.29000235
83	0xbf4a28b8	-0.7896838
84	0xbebd0b72	-0.36922795
85	0xbf21bcf7	-0.6317896
86	0xbe5f022f	-0.21778177
87	0x3f19ac9b	0.60029
88	0x3e6f159a	0.23348084
89	0x3f134216	0.57522714
90	0x3ee652e1	0.44985107
91	0xbe2b59ea	-0.16733518
92	0xbed21420	-0.4103098
93	0xbed59936	-0.41718453
94	0x3d9614e5	0.07328204
95	0xbe2d4769	-0.16921772
96	0xbe09cfbe	-0.13458154
97	0xbd1ecd2c	-0.038769886
98	0x3e8235e5	0.25431743
99	0x3e716652	0.23574188
100	0xbf0d76c1	-0.5525933
101	0xbef190ce	-0.4718079
102	0xbe8b1834	-0.27166903
103	0x3da6f8a7	0.081528954
104	0x3eccac42	0.39975172
105	0x3e8fdb64	0.2809707
106	0xbebf198e	-0.37324184
107	0xbdb59623	-0.08866527
108	0xbed613c9	-0.4181197
109	0x3e245f34	0.16051942
110	0xbddf52a2	-0.10904433
111	0xbde78cef	-0.11306178
112	0xbec9a1b5	-0.39381185
113	0x3e2358f4	0.15951902
114	0xbe4c0606	-0.19924173
115	0x3e9d0184	0.3066522
116	0xbee424ff	-0.44559476
117	0x3e36f6f5	0.17867644
118	0x3e13c837	0.14431845
119	0x3e702d55	0.23454793
120	0x3eae2169	0.34009865
121	0x3e0da61d	0.13832898
122	0xbd7bce31	-0.061475936
123	0x3e06046d	0.13087626
124	0xbe563ace	-0.2092087
125	0x3dd80c58	0.105492294
126	0x3e7ea1da	0.24866429
127	0xbe27e044	-0.16394144
128	0x3e454fbf	0.19268702
129	0x3e557b91	0.20847918
130	0xbeac2d08	-0.33628106
131	0x3d7edab4	0.06222029
132	0xbe903b6c	-0.28170335
133	0xbdd516ba	-0.104047254
134	0xbe1e9bc6	-0.1548911
135	0x3eabb5d3	0.33537158
136	0xbd8a6669	-0.067578144
137	0x3eabaa40	0.33528328
138	0x3e205d8c	0.15660685
139	0x3e62d110	0.22150064
140	0xbe01d257	-0.12677895
141	0x3d0fcdb9	0.0351083
142	0xbe3fe0de	-0.18738124
143	0x3d8f701e	0.070038065
144	0xbe88f139	-0.26746538
145	0xbe791039	-0.24322595
146	0xbe70ed47	-0.23528014
147	0x3e98eeb7	0.29869625
148	0xbef2138a	-0.47280532
149	0xbe9b1fb0	-0.30297613
150	0x3e8d01a8	0.27540326
151	0x3eb5f865	0.35541072
152	0x3d06e06f	0.03292888
153	0x3dc15c1f	0.09441399
154	0x3c7a5b45	0.015280549
155	0xbe5ca4f0	-0.21547294
156	0xbe2fe9a3	-0.17178969
157	0xbe997a1b	-0.29975972
158	0x3f22894e	0.6349076
159	0x3eb553e0	0.35415554
160	0x3eb44507	0.35208914
161	0x3d2c592e	0.042077236
162	0x3cdb0e94	0.02674035
163	0xbdbf5fb2	-0.09344424
164	0xbe91a98f	-0.28449675
165	0xbd3aa763	-0.04556979
166	0x3ec73dc4	0.3891431
167	0x3eb50cea	0.35361415
168	0x3e3812f2	0.17975977
169	0x3e8882c9	0.2666228
170	0xbe8ad485	-0.27115265
171	0xbe80b333	-0.25136718
172	0xbe21b514	-0.15791732
173	0xbf0882e5	-0.5332473
174	0xbe2cf75a	-0.16891232
175	0xbe146097	-0.14489971
176	0xbce9489f	-0.028477011
177	0xbef149a3	-0.47126493
178	0xbf130c58	-0.5744071
179	0xbd78bc04	-0.06072618
180	0xbd1616b5	-0.03664275
181	0xbe9b74cd	-0.3036255
182	0xbdc13858	-0.09434575
183	0x3dab4a46	0.08363776
184	0x3ed183e2	0.4092093
185	0x3e215b89	0.15757574
186	0xbd8cbadf	-0.0687158
187	0x3ebb4dae	0.36582702
188	0xbd4de0ab	-0.05026309
189	0x3db03bcf	0.086051576
190	0x3d5e4ee5	0.05427446
191	0x3e806c1c	0.2508248
192	0xbce72085	-0.028213749
193	0xbedc17fc	-0.4298705
194	0x3e69f95e	0.22849032
195	0x3ee89d8c	0.454327
196	0x3edd0be9	0.4317315
197	0xbd7a095e	-0.06104409
198	0xbdf08b0d	-0.11745272
199	0x3d9815cc	0.074260324
200	0xbec25296	-0.37953633
201	0xbee1f936	-0.44135445
202	0xbeeaa880	-0.4583168
203	0xbf1364e9	-0.5757585
204	0x3db80d3f	0.089869015
205	0x3e622bc5	0.22087009
206	0x3ee7cbf9	0.45272806
207	0x3ed0e26f	0.40797755
208	0xbf4794e0	-0.7796154
209	0xbed5212f	-0.4162688
210	0x3ebb4e9d	0.36583415
211	0xbec9f4f6	-0.39444703
212	0x3ed8afdd	0.42321673
213	0x3eae89b1	0.34089425
214	0x3d88b55f	0.06675219
215	0x3ec603d9	0.3867481
216	0xbeb12a81	-0.3460274
217	0x3efe7312	0.49697167
218	0xbe8460a5	-0.25854984
219	0x3d2d9ea2	0.042387612
220	0xbd4615e5	-0.048360724
221	0x3e65471a	0.22390404
222	0x3e98af10	0.29821062
223	0x3e9d31cc	0.30702055
224	0x3e85eff0	0.2615962
225	0x3d905af5	0.07048599
226	0xbe000928	-0.12503493
227	0x3eb2eafa	0.34944898
228	0x3de45c87	0.11150461
229	0xbe8f85b8	-0.28031707
230	0xbe922033	-0.2854019
231	0xbed35d8e	-0.41282314
232	0xbe306c2f	-0.17228769
233	0xbeb5a1cc	-0.35475004
234	0xbec27872	-0.37982517
235	0xbdb551cd	-0.08853493
236	0xbe4c824f	-0.19971584
237	0xbef1cf83	-0.4722863
238	0x3e30188a	0.17196861
239	0x3e92e285	0.28688446
240	0xbc2d5302	-0.010578873
241	0x3d0d0fca	0.034438886
242	0x3e96cab2	0.2945152
243	0xbe380997	-0.17972408
244	0x3e310481	0.17286874
245	0xbe3fa1c3	-0.18714051
246	0xbe6c3ed8	-0.23070848
247	0xbcc7eb4c	-0.02440419
248	0xbee5a132	-0.44849545
249	0xbeeaffc6	-0.45898265

encoder.layers.0.bias f4 [50]
0	0x3e49c133	0.19702606
1	0xbe871b34	-0.26387942
2	0xbed6f1cd	-0.41981354
3	0x3e51b925	0.20480783
4	0xbf0c77fe	-0.54870594
5	0xbe6d67c2	-0.23184112
6	0xbe3e6af3	-0.18595485
7	0xbd135ad6	-0.0359753
8	0xbeba3edd	-0.36376086
9	0xbe7fe93d	-0.24991317
10	0xbec5e1d0	-0.38648844
11	0xbe31ebe8	-0.17375147
12	0x3e89f93b	0.2694796
13	0xbe4ece77	-0.20195948
14	0x3e5620fc	0.2091102
15	0xbd28314d	-0.041062642
16	0xbe41db9c	-0.1893143
17	0x3dadfa85	0.084950484
18	0x3f0cfd70	0.55074215
19	0xbec13832	-0.37738186
20	0x3d241cac	0.040066406
21	0xbea30503	-0.3183976
22	0xbf08eea2	-0.53489125
23	0xbe860d8d	-0.26182213
24	0xbe99942d	-0.29995862
25	0x3e5415ad	0.20711394
26	0xbe904c37	-0.28183147
27	0xbda8e967	-0.08247643
28	0xbea9c88d	-0.3316082
29	0xbe45b8e7	-0.19308816
30	0xbeb9e811	-0.36309865
31	0xbf2607a8	-0.6485543
32	0x3ee10671	0.43950227
33	0xbeaae289	-0.33375958
34	0xbe51cb01	-0.20487596
35	0x3f068de2	0.52560246
36	0xbef2e8f3	-0.4744335
37	0x3eb58400	0.3545227
38	0x3e1550a6	0.14581546
39	0xbd8b7ffa	-0.06811519
40	0xbe948313	-0.29006252
41	0xbe46a1d6	-0.19397673
42	0xbed19fb4	-0.40942156
43	0x3edca122	0.43091685
44	0xbeaa183b	-0.3322161
45	0x3e6eefff	0.23333739
46	0xbd6b17e5	-0.057395834
47	0xbda3370e	-0.07969485
48	0x3edf2f8c	0.43590963
49	0x3ea21fdb	0.3166493

encoder.layers.3.weight f4 [50, 50]
0	0x3d33f40d	0.043933917
1	0xbd9cfcdf	-0.07665419
2	0xbe4df597	-0.20113216
3	0xbdd95782	-0.10612394
4	0xbcfef0c4	-0.031120665
5	0x3e165605	0.14681251
6	0xbcdfd87e	-0.027324911
7	0x3cf55923	0.02994973
8	0xbe2f9029	-0.17144836
9	0xbdaf1a9b	-0.085499965
10	0x3dda0d0a	0.10647018
11	0xbd624a95	-0.05524691
12	0x3d019750	0.031638443
13	0xbc83ad23	-0.016073769
14	0x3e3bcae8	0.18339121
15	0xbe190ac8	-0.14945519
16	0x3aee74c8	0.0018192763
17	0xbc267f7a	-0.010162229
18	0x3d5eb569	0.054372225
19	0x3d6bf50f	0.057606753
20	0x3e0e9a5c	0.13926071
21	0xbdecacd8	-0.11556405
22	0xbe925746	-0.2858221
23	0xbcb14e23	-0.021643704
24	0xbe068f2e	-0.13140556
25	0xbd58564b	-0.05281667
26	0xbe3d6af5	-0.18497832
27	0x3e15ae0b	0.14617173
28	0xbe1f1e9c	-0.1553902
29	0x3cad053d	0.021120662
30	0xbe25f1c0	-0.16205502
31	0xbdc8772e	-0.09788357
32	0x3d24f3cd	0.04027157
33	0xbe227548	-0.15865052
34	0xbc9f5ee2	-0.019454423
35	0xbd515837	-0.05110952
36	0xbdb385aa	-0.08765729
37	0x3e984d26	0.2974636
38	0x3d2d4270	0.042299688
39	0xbdb094a6	-0.086221024
40	0xbdaa1ac9	-0.0830589
41	0x3dcdaf3a	0.100431874
42	0x3cb44202	0.022004131
43	0x3ea08012	0.3134771
44	0xbdfbd8ff	-0.12297248
45	0x3d653347	0.055957105
46	0xbd3de314	-0.046359137
47	0xbe1d05ec	-0.1533429
48	0x3e8fd9ac	0.28095758
49	0x3d8f50fb	0.06997868
50	0x3ce7a72b	0.028277954
51	0xbdb2dd0f	-0.0873357
52	0x3d513afa	0.051081635
53	0xbe12e851	-0.14346434
54	0x3e182747	0.14858733
55	0x3deb6068	0.114929974
56	0x3de2dfa2	0.11077811
57	0x3e540d2a	0.20708147
58	0xbdc83d06	-0.09777264
59	0x3d9d9ac5	0.076955356
60	0xbaae1534	-0.0013281466
61	0x3dbc8581	0.09205151
62	0xbd3fa84e	-0.046791367
63	0x3ca474dc	0.020075254
64	0x3e02e73d	0.12783523
65	0xbd892995	-0.06697384
66	0x3d7bc25e	0.06146466
67	0x3e359e9b	0.17736284
68	0xbe94df8a	-0.29076797
69	0xbd9d15d6	-0.076701805
70	0xbdae1eb2	-0.085019484
71	0xbde56d0e	-0.11202441
72	0x3d045def	0.032316145
73	0x3d9f8ee3	0.07790925
74	0xbe142e5e	-0.14470813
75	0xbaea02e6	-0.0017853647
76	0xb963238a	-0.00021661646
77	0xbd5117ed	-0.051048208
78	0x3d81b828	0.06333953
79	0x3d900ab1	0.07033289
80	0x3d281154	0.04103215
81	0x3c0c43c0	0.008561075
82	0x3dbed085	0.09317116
83	0x3e145a07	0.14487468
84	0xbcafa4fe	-0.02144098
85	0xbc85872d	-0.016299808
86	0xbda6cca0	-0.08144498
87	0xbd5b9aa8	-0.05361429
88	0xbd86cb81	-0.06581784
89	0x3c22ad1e	0.00992897
90	0xbe36d073	-0.17852955
91	0x3e084428	0.1330725
92	0xbd1b307c	-0.037888035
93	0x3d0f85bf	0.03503966
94	0x3e5fdce7	0.21861611
95	0x3db23d92	0.0870315
96	0xbd246fee	-0.040145807
97	0xbc31a6c6	-0.010842985
98	0xbd645708	-0.055747062
99	0xbd77df86	-0.060515903
100	0x3d126e3c	0.03574966
101	0x3afbe294	0.0019217306
102	0x3e52c46a	0.20582739
103	0xbca4712c	-0.020073496
104	0x3dc24b31	0.09486998
105	0xbda55cc4	-0.08074334
106	0x3dc3f2a3	0.09567764
107	0x3e23d6c5	0.15999897
108	0xbe3c19fa	-0.18369284
109	0x3d56bc66	0.052425765
110	0x3d0e2302	0.034701355
111	0x3d9c1a95	0.076222576
112	0x3d02675a	0.031836845
113	0xbe0abbce	-0.13548204
114	0xbcd649d8	-0.026158258
115	0xbd081f1c	-0.033232793
116	0x3d3aa0c9	0.045563493
117	0x3daa9546	0.08329253
118	0xbd26fac8	-0.040766507
119	0x3b17bf09	0.0023154637
120	0x3dfba10a	0.12286575
121	0xbe13b79b	-0.14425509
122	0xbd68db37	-0.056849685
123	0xbdac9c9c	-0.08428308
124	0xbd1f5065	-0.03889503
125	0x3cc6cb3a	0.024266828
126	0xbd297034	-0.04136677
127	0xbcda7863	-0.026668733
128	0xbd2b363a	-0.04179976
129	0xbdcd1488	-0.10013682
130	0xbcb2c8f3	-0.021824336
131	0xbda0a769	-0.07844431
132	0x3d1b3348	0.037890702
133	0x3e20bcfc	0.15697092
134	0xbe0b3b62	-0.13596871
135	0xbca08428	-0.019594267
136	0xbc40df7f	-0.011772036
137	0x3e08afcf	0.13348316
138	0x3dbc19ed	0.091846325
139	0x3d053af3	0.03252692
140	0xbe3dda9e	-0.18540427
141	0xbd4ca623	-0.049963128
142	0xbdb6abf8	-0.08919519
143	0x3ddb1544	0.106974155
144	0xbbf5f308	-0.007505778
145	0x3cda0ae0	0.026616514
146	0xbd95dcd5	-0.07317511
147	0xbe040a75	-0.12894614
148	0xbd3bd819	-0.045860384
149	0xbd834d31	-0.064112075
150	0xbe84cff3	-0.25939903
151	0x3e1c5271	0.15265824
152	0xbe0ce423	-0.13758902
153	0xbdfcc216	-0.123417065
154	0x3e4ad0fb	0.19806282
155	0x3e8c3b35	0.2738892
156	0xbd95c4d3	-0.07312932
157	0xbe4b8e90	-0.19878602
158	0x3ea60cb2	0.3243156
159	0x3d77543d	0.06038307
160	0x3ea4ddd0	0.3220048
161	0xbde29bec	-0.11064896
162	0xbd9621ba	-0.073306516
163	0x3eac0871	0.3360019
164	0x3d37c67b	0.04486702
165	0xbd29d620	-0.04146397
166	0x3e033e02	0.12816623
167	0xbc4b459f	-0.012406736
168	0x3d9dde3d	0.07708404
169	0x3dfb7d6a	0.1227978
170	0xbd768ded	-0.060193945
171	0x3eca4ed5	0.3951327
172	0x3e25dc53	0.16197328
173	0x3e25fa3f	0.16208743
174	0x3e151fbc	0.14562887
175	0xbe9909e0	-0.29890347
176	0x3e1d080d	0.15335102
177	0xba283a86	-0.0006417412
178	0x3e016eed	0.12639971
179	0x3e1de8b1	0.15420796
180	0x3d2e404f	0.0425418
181	0x3dcc9b97	0.09990614
182	0xbd6751ec	-0.05647461
183	0xbc825783	-0.01591087
184	0x3ea8653a	0.3288973
185	0xbc62353b	-0.013806636
186	0x3e570bbf	0.21000575
187	0xbe07a66f	-0.13247083
188	0x3d2ed97a	0.04268787
189	0x3decc783	0.11561491
190	0x3e734f78	0.23760784
191	0x3e219df1	0.15782906
192	0x3e80382b	0.25042853
193	0x3d6d8a28	0.057993084
194	0xbd4b95a3	-0.04970325
195	0xbcd96389	-0.02653672
196	0x3e3cfcc8	0.18455803
197	0xbd47b746	-0.048758768
198	0xbe3b1885	-0.18271072
199	0x3b6c1d1c	0.0036028093
200	0xbd3040a1	-0.043030385
201	0xbe278fc8	-0.16363442
202	0x3c106cf5	0.00881504
203	0x3dadd774	0.0848836
204	0x3e9bff81	0.30468372
205	0x3e6706bf	0.22561167
206	0x3d02601e	0.031829946
207	0xbe573ad5	-0.21018536
208	0x3e415706	0.18880853
209	0x3e88b35f	0.2669935
210	0x3e178cba	0.14799777
211	0xbd9e9926	-0.077440545
212	0xbd9893f4	-0.07450095
213	0x3d2b62cc	0.041842267
214	0xbcab9643	-0.020945674
215	0xbdb33e03	-0.08752062
216	0x3e4789ba	0.19486132
217	0xbdebb68f	-0.1150943
218	0xbe1105e0	-0.14162397
219	0x3e8ee3e2	0.27908236
220	0x3e576aa1	0.2103677
221	0xbd149bd1	-0.03628141
222	0xbd2f498a	-0.04279474
223	0x3db5e288	0.08881098
224	0xbc4a958d	-0.012364757
225	0xbdb74c7a	-0.089501336
226	0x3e14ddfc	0.14537805
227	0x3d1407a3	0.036140095
228	0x3c951a1a	0.018200923
229	0xbd6c2bf6	-0.057659112
230	0x3dc74357	0.09729641
231	0x3e5bef99	0.21478118
232	0xbe13dca5	-0.14439638
233	0xbd947295	-0.07248417
234	0x3e041db4	0.12901956
235	0xbe7b67b9	-0.24551286
236	0x3ea9f163	0.33191976
237	0xbc634e77	-0.013873688
238	0xbca75460	-0.020425975
239	0x3d411ba1	0.04714549
240	0xbdcacbd7	-0.099021606
241	0x3db826f5	0.089918055
242	0x3e73006f	0.23730634
243	0xbd1f9bd9	-0.038966987
244	0x3e391477	0.18074213
245	0x3ce3bbc7	0.0277995
246	0x3e120ae9	0.14261974
247	0x3db54901	0.08851815
248	0xbce194c2	-0.027536754
249	0xbdf88386	-0.12134461
250	0xbd57bc2f	-0.0526697
251	0xbd6e9485	-0.058247108
252	0x3dbd788d	0.09251509
253	0xbdc2cd31	-0.095117934
254	0xbcf6e628	-0.030139044
255	0xbe064d25	-0.13115366

encoder.layers.3.bias f4 [50]
0	0x3e055e7e	0.13024327
1	0xbda06a92	-0.07832827
2	0x3cc7850e	0.024355438
3	0xbdbc5518	-0.09195918
4	0xbe6c31e8	-0.23065913
5	0x3ddf6059	0.10907049
6	0x3d8451eb	0.06460937
7	0x3d7449f2	0.059640832
8	0xbe30c73c	-0.17263502
9	0x3dfad54e	0.12247716
10	0xbddbde19	-0.10735721
11	0xbdc50344	-0.096197635
12	0x3afced04	0.001929671
13	0x3e7e69a5	0.24844988
14	0x3d11d9ea	0.03560821
15	0xbd98f3df	-0.0746839
16	0xbd377f40	-0.04479909
17	0xbe288a88	-0.16459095
18	0xbdb17bd4	-0.086661965
19	0x3e42ee18	0.19036138
20	0xbe883c57	-0.26608536
21	0x3d291245	0.04127719
22	0xbd455bc2	-0.04818321
23	0xbd9e0ebe	-0.077176556
24	0xbe6576ac	-0.22408551
25	0x3d3f9c2c	0.046779796
26	0xbe31b2c4	-0.1735335
27	0x3d8137a5	0.063094415
28	0xbe484ad5	-0.19559796
29	0xbd21aeb6	-0.039473258
30	0xbe5a1aa2	-0.21299222
31	0x3e25feb6	0.16210446
32	0x3e3deee9	0.18548168
33	0x3e3af228	0.18256438
34	0xbd8b71d6	-0.06808822
35	0x3bd33c75	0.006446416
36	0x3e02d5b5	0.12776835
37	0xbe22a026	-0.15881404
38	0x3e18a633	0.1490715
39	0x3d9ab5d0	0.07554209
40	0x3e7eb50a	0.24873748
41	0x3e960e5f	0.2930784
42	0xbdec1773	-0.1152791
43	0x3e08fd6e	0.13377926
44	0x3d5efd93	0.054441046
45	0xbcd63174	-0.026146628
46	0xbd93a9c8	-0.072101176
47	0xbd101371	-0.03517479
48	0x3d4c8780	0.04993391
49	0xba233456	-0.0006225755

encoder.layers.6.weight f4 [2, 50]
0	0xbe5ed08c	-0.21759242
1	0xbd8a1af4	-0.06743422
2	0x3cec7ab4	0.028867103
3	0xbe25b6a9	-0.1618296
4	0xbe9de830	-0.30841208
5	0x3dc42d8c	0.09579
6	0x3e1063c8	0.14100564
7	0x3de98620	0.114025354
8	0xbe9e6ee1	-0.3094397
9	0x3db45e4b	0.088070475
10	0xbcb2aac0	-0.021809936
11	0x3de85600	0.11344528
12	0xbd8c7b92	-0.06859507
13	0xbe31c261	-0.17359306
14	0x3e2e0cfd	0.16997142
15	0x3d1ac31e	0.037783735
16	0x3e486f53	0.19573717
17	0xbe47e505	-0.19520958
18	0x3d4293af	0.047504123
19	0x3ea3f5e6	0.32023543
20	0x3e72e5a4	0.23720413
21	0xbe441275	-0.19147666
22	0x3eb5b0cb	0.35486445
23	0x3e3cb73d	0.18429275
24	0x3da67996	0.081286594
25	0xbd1b47f9	-0.037910435
26	0x3e218a4a	0.1577541
27	0x3e65e6a4	0.22451264
28	0xbe6a1e2b	-0.2286307
29	0x3e308cb8	0.1724118
30	0xbe842eaa	-0.25816852
31	0x3e39dc88	0.18150532
32	0x3e911a69	0.28340462
33	0x3e066290	0.13123536
34	0xbe351a2f	-0.1768577
35	0x3e227dd5	0.15868314
36	0xbdac70bd	-0.084199406
37	0x3e5952aa	0.2122294
38	0x3e8dc2b0	0.27687597
39	0x3e71ca05	0.2361222
40	0x3e868927	0.26276514
41	0x3ebae5b4	0.36503375
42	0xbd2691f9	-0.040666554
43	0xbe190bea	-0.14945951
44	0x3e4d9bf8	0.20079029
45	0xbe41ff6d	-0.18945093
46	0x3db615a6	0.08890848
47	0x3e5d0232	0.21582869
48	0x3c5561ae	0.013023777
49	0xbe88401e	-0.26611418
50	0x3dce365e	0.100689635
51	0x3e5783f7	0.21046434
52	0x3deb8d00	0.11501503
53	0xbe3cb3ed	-0.18428011
54	0xbdecc52d	-0.11561046
55	0xbd134c9d	-0.035961736
56	0xbdd0d4e0	-0.10196853
57	0x3dcc4863	0.09974744
58	0xbd5755a7	-0.05257192
59	0xbe18d41e	-0.14924666
60	0x3e4750ce	0.19464418
61	0xbe5f021e	-0.21778151
62	0x3e67c3a1	0.2263322
63	0xbe78e02b	-0.24304263
64	0xbe32d1b5	-0.1746281
65	0x3d974002	0.073852554
66	0xbde86e9a	-0.113492206
67	0xbb9b1916	-0.004733215
68	0xbe2a802c	-0.16650456
69	0xbea94e87	-0.33067724
70	0x3eb0c19f	0.3452272
71	0x3e7e3fc1	0.24829008
72	0x3e586162	0.21130899
73	0x3e044508	0.12916958
74	0xbe7e0f4c	-0.24810523
75	0xbe7f0333	-0.24903564
76	0xbe300a88	-0.17191517
77	0x3c26a8c3	0.010172072
78	0x3c2e7fdc	0.010650601
79	0xbbabb300	-0.0052398443
80	0x3e182def	0.14861272
81	0x3dbfec90	0.093712926
82	0x3dad0e31	0.084499724
83	0x3e5a6712	0.2132838
84	0x3aba45ad	0.0014211439
85	0xbe1713ef	-0.14753698
86	0x3ea91051	0.3302026
87	0xbe414850	-0.18875241
88	0x3dabee64	0.08395079
89	0xbe1e1a5e	-0.15439746
90	0x3e043a54	0.12912875
91	0xbe7a6230	-0.24451518
92	0xbe25335b	-0.16132872
93	0x3e41304c	0.1886608
94	0x3e28b47e	0.16475102
95	0x3e938f63	0.28820333
96	0x3e60b176	0.21942696
97	0xbd876318	-0.066106975
98	0x3eae464e	0.34038013
99	0xbd4879fa	-0.04894445

encoder.layers.6.bias f4 [2]
0	0x3e319b82	0.17344478
1	0x3e146c9d	0.14494558

predictor.layers.0.weight f4 [50, 2]
0	0x3f01be27	0.50680774
1	0xbf695c59	-0.91156536
2	0x3edbcc11	0.42929128
3	0x3f73977d	0.9515303
4	0x3fae2a4a	1.3606656
5	0xbc259352	-0.010105925
6	0xbf315117	-0.6926436
7	0xbb9708f3	-0.004609221
8	0xbe0e6b8c	-0.13908213
9	0xbf7c1090	-0.9846277
10	0xbdf2df26	-0.118589684
11	0xbeff042a	-0.49807864
12	0xbf13ac0b	-0.5768439
13	0x3eff8c8c	0.49911916
14	0xbf0921fe	-0.5356749
15	0x3f86f2eb	1.0542883
16	0xbddfc6f4	-0.10926619
17	0x3ec60d8f	0.3868222
18	0x3e2e9172	0.1704767
19	0xbb290c2f	-0.0025794616
20	0xbf0d2ee7	-0.5514969
21	0x3ec8aff2	0.39196736
22	0x3d9bc4d2	0.076059
23	0x3e5a5049	0.21319689
24	0x3e649913	0.22324018
25	0xbf6d6778	-0.92736006
26	0xbf37be11	-0.71774393
27	0x3f4c21e2	0.797392
28	0xbf10b79b	-0.5653016
29	0x3f0df0af	0.5544538
30	0xbf530ea1	-0.82444197
31	0xbf064bab	-0.5245921
32	0x3f53d903	0.8275301
33	0x3e99704c	0.29968488
34	0x3ed31049	0.41223362
35	0xbe6af068	-0.2294327
36	0x3eed9c23	0.46408185
37	0x3e2e2618	0.17006719
38	0xbf04da3b	-0.51895493
39	0x3f50d1a4	0.81569886
40	0xbebd0051	-0.36914304
41	0x3f5e094e	0.8673295
42	0xbefdbfc2	-0.49560362
43	0xbed51038	-0.41613936
44	0x3cbf5171	0.023354264
45	0x3f0f4f66	0.5598053
46	0xbf3ca030	-0.73681927
47	0xbf51c7de	-0.819456
48	0x3f58bbf5	0.846618
49	0x3df8b853	0.12144532
50	0xbfb3f68a	-1.4059613
51	0x3e05a83b	0.13052456
52	0xbc6198c8	-0.013769336
53	0xbec49911	-0.3839803
54	0xbf865750	-1.0495396
55	0xbe86e45a	-0.26346093
56	0x3e0fd7f8	0.1404723
57	0x3f1b892e	0.60756195
58	0x3dc6c12e	0.09704815
59	0x3f04a9bf	0.5182151
60	0xbf40a16f	-0.7524633
61	0xbee7cc5b	-0.45273098
62	0x3f3256dd	0.6966379
63	0x3ed47dec	0.4150232
64	0x3eab49b2	0.33454663
65	0xbdcc2658	-0.09968251
66	0xbf310f04	-0.6916354
67	0x3f52b127	0.82301563
68	0x3e98217c	0.29713047
69	0x3f046c1f	0.5172748
70	0x3f42dda3	0.7611944
71	0xbe41896a	-0.18900076
72	0xbf7d53f0	-0.98956203
73	0x3d2eb1c4	0.04265
74	0xbf466f80	-0.77513885
75	0x3f128f15	0.57249576
76	0xbf26dfaf	-0.65185064
77	0x3f25d516	0.6477827
78	0xbf3918d1	-0.7230349
79	0x3bf48885	0.0074625635
80	0x3f3de437	0.74176353
81	0xbf4bc596	-0.7959837
82	0xbee9f87e	-0.45697397
83	0xbf53234a	-0.8247572
84	0x3d5bca4c	0.053659722
85	0xbe9fc272	-0.31203038
86	0xbef0dbc8	-0.4704268
87	0xbd923669	-0.07139284
88	0x3f135068	0.57544565
89	0xbf30013c	-0.68751884
90	0x3da1bfe9	0.07897932
91	0x3da94c46	0.08266501
92	0xbd23eb8e	-0.040019564
93	0xbec4a42a	-0.38406497
94	0x3efaccb8	0.48984313
95	0xbe529787	-0.20565616
96	0xbf918096	-1.1367366
97	0xbd7213c9	-0.0591009
98	0x3d44ec40	0.048076868
99	0xbe95a363	-0.29226217

predictor.layers.0.bias f4 [50]
0	0xbd311c87	-0.043240096
1	0xbe3ce041	-0.18444921
2	0xbd767a5c	-0.060175285
3	0x3e85c02b	0.26123175
4	0x3f395800	0.723999
5	0xbf1b3d6b	-0.6064059
6	0x3db56379	0.088568635
7	0x3d82af22	0.0638106
8	0xbf46c27d	-0.77640516
9	0x3f0a1f0c	0.53953624
10	0x3f31a3be	0.69390476
11	0xbe85313c	-0.26014125
12	0x3e3c0d97	0.18364559
13	0xbf06642a	-0.5249659
14	0xbd9e42cd	-0.07727585
15	0xbe94bb7d	-0.29049292
16	0x3eacd756	0.33758038
17	0xbf22bfe9	-0.6357408
18	0xbf2a82d9	-0.6660591
19	0x3f0297e7	0.51013035
20	0xbe7a460c	-0.24440783
21	0x3f66a305	0.900925
22	0x3f0b5a14	0.54434323
23	0x3dc76f31	0.09738005
24	0xbf3e2dc6	-0.74288595
25	0xbf458f6e	-0.7717198
26	0x3f4b665e	0.79453075
27	0xbf1093fc	-0.56475806
28	0x3f4ba8d3	0.7955448
29	0x3ee9fd6f	0.45701167
30	0xbf20538b	-0.62627476
31	0x3efdd838	0.49579024
32	0xbe1c85c7	-0.15285407
33	0xbf38aea1	-0.7214146
34	0x3e8456fa	0.25847608
35	0x3f5593ac	0.83428454
36	0x3e54086a	0.20706335
37	0x3ef223be	0.47292894
38	0xbdbd0013	-0.0922853
39	0xbf269990	-0.6507807
40	0xbe8c298b	-0.27375445
41	0x3e33aeae	0.17547104
42	0xbeccdf2c	-0.40014017
43	0xbf33d88b	-0.70252293
44	0x3f18b411	0.5964976
45	0xbde79257	-0.11307209
46	0xbf1ca19f	-0.61184114
47	0x3f2d0dbb	0.67599076
48	0x3f02853c	0.5098455
49	0xbe63ff2d	-0.2226531

predictor.layers.3.weight f4 [50, 50]
0	0xbba12f02	-0.004918934
1	0x3c2a5ff6	0.010398855
2	0xbb2de738	-0.0026535522
3	0x3c0d0589	0.008607277
4	0xbaccc4f3	-0.001562266
5	0x3b6f4339	0.0036508574
6	0x3ac2219a	0.001481104
7	0xbc775a19	-0.015097165
8	0x3b80c189	0.003929321
9	0x3b8f0c1d	0.0043654577
10	0x36918f6f	4.3380346e-06
11	0x3acc459b	0.0015584709
12	0xbc07bd85	-0.008284931
13	0x3c5ca48c	0.013466965
14	0xbaee7362	-0.0018192346
15	0x3b100b97	0.0021979564
16	0x3ca92212	0.020646129
17	0x3bc73895	0.006079743
18	0x3ad3c741	0.0016157405
19	0x3c30bfbb	0.0107879
20	0x3ada1a10	0.0016639847
21	0xbcac4f42	-0.021033887
22	0x3b698686	0.003563316
23	0x3bd6db4f	0.0065569053
24	0xbc4e4a42	-0.012590947
25	0xbbd89faa	-0.0066108303
26	0x3c886883	0.016651398
27	0x3b77c534	0.0037806751
28	0xba86919a	-0.0010266781
29	0x3b07cbfb	0.0020720947
30	0xbc0ea793	-0.008706945
31	0xbc881dd1	-0.01661578
32	0x3bc31e86	0.0059545664
33	0xbc003594	-0.007825274
34	0xbbed1322	-0.007234947
35	0xbc3dd291	-0.0115858475
36	0x3b0f08d9	0.0021825342
37	0xbcb580cc	-0.022156142
38	0x3a9109ba	0.0011065521
39	0xbbfc2a04	-0.0076954383
40	0x3c2e3c24	0.010634456
41	0xbc1d93ac	-0.009617727
42	0x3ba2de98	0.004970383
43	0xbc470140	-0.012146294
44	0x3bc7e9e3	0.0061008795
45	0x3bf34fd6	0.0074252887
46	0xbae1d7bd	-0.0017230433
47	0xbc059ea5	-0.0081555
48	0x3c53ffe9	0.012939432
49	0xbb878a96	-0.004136394
50	0x3ce10bf3	0.027471518
51	0x3d7ca057	0.06167635
52	0xbe19d2c1	-0.15021802
53	0xbdca3fb8	-0.09875435
54	0xbcc041f4	-0.023468949
55	0x3df5ad72	0.11995973
56	0xbe20df68	-0.15710223
57	0x3cc654d1	0.024210365
58	0xbc9ed81f	-0.019390164
59	0xbc131f5f	-0.008979647
60	0xbdf1c968	-0.11805993
61	0xbded5093	-0.11587634
62	0xbdd294e5	-0.10282306
63	0xbe82aab8	-0.25520873
64	0xbe2a5ada	-0.1663622
65	0xbd3e54fe	-0.046467774
66	0x3ccd01fd	0.025025362
67	0xbdc4db1b	-0.096121036
68	0xbdc3bd95	-0.09557644
69	0xbd5fe41a	-0.054660894
70	0x3dd2b628	0.1028865
71	0x3e190b9d	0.14945836
72	0xbdd98f49	-0.106230326
73	0xbd975948	-0.07390076
74	0xbe370818	-0.17874181
75	0x3e612b86	0.21989259
76	0xbd4caed6	-0.049971424
77	0xbe73dcf6	-0.23814759
78	0xbe2a2cdd	-0.16618676
79	0x3cec3a93	0.028836524
80	0xbcbd63e7	-0.023118926
81	0x3e379da5	0.1793123
82	0x3d96ca8b	0.07362851
83	0xbe91a876	-0.28448838
84	0x3da428a7	0.08015566
85	0x3df5aa6d	0.11995397
86	0x3ce04070	0.027374476
87	0xbd8ae2bb	-0.06781527
88	0xbdf46314	-0.1193296
89	0xbd86d178	-0.06582922
90	0xbd54b418	-0.051929563
91	0xbd4963b5	-0.049167354
92	0x3e1414b3	0.14461021
93	0x3d02bf66	0.031920813
94	0x3c85aa50	0.016316563
95	0x3dad2e98	0.08456153
96	0xbd89f40c	-0.06736001
97	0x3e33af48	0.17547333
98	0x3e4538f1	0.19260003
99	0xbd603e9c	-0.05474721
100	0x3d5ff0f4	0.05467315
101	0xbc81442b	-0.015779575
102	0xb9a0e426	-0.00030687562
103	0x3c891480	0.016733408
104	0xbc9f202b	-0.019424519
105	0xbc6eb2e4	-0.014569018
106	0xba84145a	-0.0010076866
107	0x3ca0cbbe	0.019628402
108	0x3b986ea8	0.004651863
109	0xb91f288e	-0.0001517853
110	0xbc8acd08	-0.01694347
111	0x3b431642	0.0029767905
112	0x3d53bf30	0.051696002
113	0x3c1b58a3	0.009481582
114	0x3c211455	0.009831508
115	0x3cf285fb	0.029604902
116	0x3bcb5e5e	0.006206318
117	0xbc0fc197	-0.008774183
118	0x3c2044d0	0.009782031
119	0x3d3423cd	0.043979455
120	0x3d07f240	0.033190012
121	0xbce706ec	-0.028201543
122	0xbb6f9207	-0.0036555545
123	0x3b4af2bd	0.0030967437
124	0xbca00a93	-0.019536292
125	0xbd31f521	-0.043446664
126	0x3b6ea201	0.003641248
127	0x3d015842	0.03157831
128	0xbbb58414	-0.0055394266
129	0xbb81d7aa	-0.0039624767
130	0xbd037cb9	-0.032101367
131	0x3b93e812	0.004513749
132	0xbc3f56c5	-0.011678402
133	0x3c0bd304	0.008534197
134	0xbc040be9	-0.00805948
135	0xbcf502c0	-0.029908538
136	0xbb7aa6a2	-0.0038246294
137	0x3c941fd3	0.018081581
138	0xbcbe4516	-0.023226302
139	0xbd18ba31	-0.03728694
140	0x3b6aff7e	0.0035857852
141	0xbbfbc875	-0.0076838084
142	0x3b86fc89	0.00411946
143	0x3cca2c25	0.024679253
144	0x3d02ae99	0.03190479
145	0xbc51d1b5	-0.012806346
146	0x3b5031b5	0.003176791
147	0xbcd86aa5	-0.02641804
148	0xbcf59e16	-0.029982608
149	0xbc57f094	-0.013179917
150	0x3d02dbdf	0.031947967
151	0xbc5a9626	-0.013341462
152	0xbe13a1d4	-0.14417201
153	0x3dc7fa67	0.09764557
154	0x3e171006	0.14752206
155	0x3c7c69d2	0.015406089
156	0x3c1a4abd	0.009417233
157	0xbdca1aeb	-0.098684154
158	0xbc728221	-0.014801533
159	0xbe604863	-0.21902613
160	0xbd0aa8f5	-0.033852536
161	0xbd57fdcf	-0.052732285
162	0x3e4557e6	0.19271812
163	0xbe20195a	-0.15634671
164	0xbdcbb3cf	-0.09946405
165	0x3e029ac1	0.12754346
166	0xbe6b701b	-0.22991984
167	0xbd427685	-0.04747631
168	0xbda79b90	-0.08183968
169	0xbcba4ce2	-0.022741739
170	0xbe371497	-0.17878948
171	0x3d323fab	0.04351775
172	0x3dba820f	0.09106838
173	0x3e07023f	0.1318445
174	0xbe35dbd9	-0.17759646
175	0xbd08a116	-0.03335675
176	0xbd3c0404	-0.045902267
177	0x3e650650	0.2236569
178	0x3dbc75a5	0.092021264
179	0x3dfb283a	0.12263532
180	0x3de3d98e	0.1112548
181	0xbdbf6e6f	-0.093472354
182	0xbd9fc9cf	-0.07802164
183	0x3d97c812	0.07411207
184	0xbe2dd5bb	-0.16976063
185	0xbe849756	-0.2589671
186	0x3e88dd9b	0.26731572
187	0xbe05dde0	-0.1307292
188	0xbd9bb9f9	-0.07603831
189	0x3ea36ad5	0.31917444
190	0xbd1f824c	-0.03894262
191	0x3e7a4ece	0.24444124
192	0xbde5ae75	-0.11214916
193	0x3e9307a4	0.28716767
194	0x3e208599	0.15675963
195	0xbd0cc5b4	-0.034368232
196	0xbdce093d	-0.10060356
197	0xbe76e7c4	-0.24111849
198	0x3e13db31	0.14439084
199	0xbda0ad6b	-0.07845577
200	0x3df072bd	0.117406346
201	0xbb969cb8	-0.004596319
202	0x3c62cc8b	0.013842712
203	0x3d3025f1	0.043004934
204	0xbd2d5db3	-0.042325687
205	0xbd23b680	-0.039968967
206	0x3d41b166	0.04728832
207	0xbda02d6a	-0.07821162
208	0x3e807fa6	0.25097388
209	0xbd66b78d	-0.05632739
210	0x3e055268	0.13019717
211	0x3ca51b7b	0.020154705
212	0xbdcd8237	-0.10034602
213	0x3e9cc5f2	0.3061977
214	0x3e78962a	0.24276033
215	0x3de1fb7f	0.11034297
216	0xbe6af69b	-0.22945635
217	0xbc8612f5	-0.016366461
218	0x3e321280	0.1738987
219	0xbdc45551	-0.09586585
220	0xbdb3e9a6	-0.08784799
221	0xbdd92f44	-0.10604718
222	0x3d8f8286	0.07007317
223	0x3e5c6dce	0.21526262
224	0x3d503bac	0.050838158
225	0xbe852837	-0.26007244
226	0xbe023e7c	-0.12719148
227	0x3de18718	0.11012095
228	0x3d851c6e	0.06499563
229	0x3e2206e8	0.15822947
230	0xbccd9de9	-0.025099711
231	0xbe334247	-0.17505752
232	0xbd0588e0	-0.032601237
233	0x3dfa6bb2	0.122275725
234	0x3ce6cae5	0.02817292
235	0xbbc1274e	-0.005894578
236	0xbd14158a	-0.036153354
237	0x3e6ac860	0.22928
238	0x3ddc68fc	0.10762212
239	0x3d8a2854	0.06745973
240	0xbe01b4bd	-0.12666602
241	0x3dbabf2f	0.091184966
242	0xbdb78453	-0.08960786
243	0x3dd22199	0.102603145
244	0xbe538bd6	-0.20658812
245	0x3d778ef4	0.060439065
246	0xbdb904e7	-0.09034138
247	0xbe04fdef	-0.12987493
248	0xbe219814	-0.1578067
249	0x3d5fcb7e	0.054637425
250	0x3e2a368f	0.16622375
251	0x3d86f3ef	0.065894954
252	0x3e353ad2	0.1769822
253	0xbe528624	-0.20558983
254	0x3d196f5e	0.037459724
255	0xbd8bd5b4	-0.0682787

predictor.layers.3.bias f4 [50]
0	0x3bcfc554	0.006340662
1	0x3e0ace34	0.13555223
2	0x3bb348fc	0.005471347
3	0xbe2c1888	-0.16806233
4	0xbe14dae9	-0.14536633
5	0xbd5eb35b	-0.054370265
6	0x3c50da96	0.012747427
7	0x3c652dc4	0.013987962
8	0x3db96620	0.09052682
9	0x3c1199e5	0.008886789
10	0x3ddd0956	0.10792796
11	0xbe64a800	-0.22329712
12	0x3e0c27ed	0.13687105
13	0xbd8f38dc	-0.06993267
14	0xbe8e8fea	-0.27844173
15	0x3e437e88	0.19091237
16	0xbe27937f	-0.16364859
17	0xbd79670b	-0.060889285
18	0x39efdb36	0.00045748957
19	0xbafe3969	-0.0019395772
20	0x3dbc38a8	0.09190494
21	0xbe2aa1b9	-0.16663255
22	0xbd8ff6d4	-0.070295006
23	0xbe21949c	-0.15779346
24	0x3d4d3df0	0.050107896
25	0xbdcb6439	-0.09931225
26	0x3d20077f	0.03906965
27	0x3dc6bcfb	0.09704014
28	0x3c93bbfc	0.018033974
29	0x3d5c67d1	0.053809945
30	0xbe1541ff	-0.14575957
31	0x3c4cc3f5	0.012497892
32	0x3c037716	0.008023998
33	0x3e9d9fcb	0.30785975
34	0xbd651f0c	-0.05593781
35	0x3be3779f	0.00694175
36	0xbcf870ec	-0.030327283
37	0xbb43e93e	-0.0029893662
38	0xbc970785	-0.018436203
39	0xbdd2fbc6	-0.10301928
40	0xbd54bc42	-0.05193735
41	0x3dd92759	0.10603208
42	0xbdec050d	-0.11524401
43	0xbe84d912	-0.25946862
44	0x3d09da27	0.033655312
45	0xbe55b07d	-0.20868106
46	0xbb39ca4d	-0.002834934
47	0x3cf0da4c	0.029400967
48	0xbd1a8fc2	-0.037734754
49	0x3e0164b2	0.12636068

predictor.layers.6.weight f4 [1, 50]
0	0xb95470b0	-0.00020259875
1	0xbde82680	-0.11335468
2	0xb9a03d24	-0.0003056313
3	0x3e550bf8	0.20805347
4	0x3e2f3cbc	0.17113012
5	0x3d0f5202	0.034990318
6	0x3c1941f8	0.009354107
7	0xbd81faea	-0.06346686
8	0x3e585dbf	0.21129511
9	0x39b1a76a	0.00033884804
10	0xbe971468	-0.29507756
11	0xbec02475	-0.37527815
12	0xbe1c0b88	-0.15238774
13	0x3b48f5d8	0.0030664112
14	0x3e82226e	0.25416893
15	0xbd932876	-0.07185452
16	0x3e7bb373	0.24580173
17	0xba364196	-0.0006952522
18	0x3a0bb144	0.0005328844
19	0xb9b62a66	-0.00034745334
20	0xbe597497	-0.21235882
21	0x3eb5f64e	0.35539478
22	0xbd39a591	-0.045323912
23	0x3dfef638	0.12449306
24	0x3ecb1555	0.39664713
25	0xbdb9833a	-0.090582326
26	0x3a98c3ff	0.0011655091
27	0xbce7c750	-0.028293282
28	0xbde241ac	-0.11047682
29	0xbe9a5c2c	-0.30148447
30	0xbe3e1e36	-0.18566212
31	0xba02ed9b	-0.00049945124
32	0xbaaba045	-0.0013094029
33	0x3e5525ed	0.20815249
34	0x3e0d8ab2	0.1382244
35	0x3e03ea96	0.12882456
36	0xbd69e623	-0.05710424
37	0x3a1e0d27	0.00060291815
38	0x3e4f1f4b	0.20226781
39	0xbd6c388b	-0.05767111
40	0x3dec8d25	0.11550359
41	0xbc9bc901	-0.019016745
42	0x3d77b50a	0.060475387
43	0x3e78f565	0.2431236
44	0x3d24bd7e	0.040219776
45	0xbe26a0d7	-0.16272293
46	0x394a7ea6	0.00019311401
47	0x3dbf2dfb	0.09334942
48	0xba62e273	-0.00086549594
49	0x3e7d0d4a	0.247121

decoder.layers.0.weight f4 [50, 2]
0	0x3f16b82e	0.58874786
1	0x3e967259	0.29384115
2	0x3da170d6	0.0788285
3	0xbe310c7a	-0.17289916
4	0x3eb97466	0.36221617
5	0x3e1be93c	0.1522569
6	0xbee1adec	-0.44078004
7	0x3e9dffea	0.3085931
8	0xbec6576a	-0.38738567
9	0x3d8fbe06	0.07018666
10	0xbf076ab5	-0.52897197
11	0xbe9ca356	-0.30593365
12	0x3e8a2a1b	0.2698525
13	0x3ed57f5d	0.41698733
14	0x3e42cc3f	0.19023226
15	0x3f036efa	0.5134121
16	0x3d7c10bd	0.0615394
17	0xbeff5abb	-0.4987391
18	0xbf2d6409	-0.67730767
19	0x3eab5bc2	0.33468443
20	0xbf2f123d	-0.68387204
21	0xbec5fa4d	-0.38667527
22	0x3be1f4ea	0.006895651
23	0xbd33ab7c	-0.043864712
24	0x3f00d85a	0.50330126
25	0x3e63ca5c	0.22245163
26	0x3f0e9463	0.5569517
27	0x3dd56bcf	0.104209535
28	0xbeb1be77	-0.34715626
29	0xbd95552b	-0.07291635
30	0x3e2288d6	0.15872511
31	0x3f127489	0.5720907
32	0xbdece38c	-0.115668386
33	0xbe88585c	-0.26629913
34	0x3dd783ae	0.10523163
35	0x3eff1757	0.49822494
36	0x3eb48f07	0.3526537
37	0xbe134aee	-0.14384052
38	0x3e4d144a	0.20027271
39	0x3e944ab0	0.28963232
40	0x3eca0e2a	0.3946393
41	0x3d899c71	0.06719292
42	0x3ee8858c	0.45414388
43	0x3dd2e653	0.10297837
44	0x3ed7cd4b	0.42148814
45	0x3f03479f	0.5128116
46	0x3d4fbcef	0.05071729
47	0xbed1b7b2	-0.4096046
48	0xbd827e38	-0.063717306
49	0xbc9fe2f9	-0.019517409
50	0x3e908a0f	0.2823033
51	0x3db57715	0.08860604
52	0xbebed22f	-0.37269732
53	0xbdda4721	-0.10658098
54	0xbe9c7c15	-0.30563417
55	0xbe568e18	-0.20952642
56	0x3df0a211	0.11749662
57	0x3dcf946b	0.1013573
58	0xbeb8fb3b	-0.36129174
59	0xbf2c7e2e	-0.67380035
60	0x3e13f7c5	0.14449985
61	0x3e62590e	0.22104284
62	0xbd87e1ac	-0.0663484
63	0xbd1a6f75	-0.03770395
64	0xbe632b6c	-0.22184533
65	0x3e064d26	0.13115367
66	0x3e658a41	0.22416021
67	0x3e92d7d4	0.2868029
68	0x3e5d795a	0.21628323
69	0x3e6b2e23	0.22966819
70	0xbe9e9950	-0.30976343
71	0xbe2d6bfb	-0.16935723
72	0x3e8226c0	0.2542019
73	0x3e93a13d	0.28833953
74	0xbec4d47c	-0.38443363
75	0x3e99d13d	0.3004245
76	0x3d07909a	0.033096887
77	0x3c6def01	0.014522315
78	0x3e9967c8	0.2996199
79	0x3eb7093d	0.35749236
80	0x3e5ddb33	0.21665649
81	0x3dc61df5	0.096736826
82	0x3d8fde94	0.07024875
83	0x3ef56a37	0.47932598
84	0x3ce80d29	0.028326588
85	0xbe851031	-0.25988916
86	0x3e8c89df	0.27448937
87	0xbe2e8607	-0.17043315
88	0x3f3c9ba3	0.7367498
89	0xbd4b1cb3	-0.049587917
90	0x3ee1c433	0.44095
91	0xbe745735	-0.23861392
92	0x3ec79ace	0.38985294
93	0x3e0d8309	0.13819517
94	0x3b850e97	0.004060577
95	0xbe64c691	-0.22341372
96	0x39abba40	0.0003275443
97	0xbe9060ea	-0.2819894
98	0xbf491cf0	-0.7855978
99	0x3eec61c7	0.46168348

decoder.layers.0.bias f4 [50]
0	0xbee517b2	-0.4474464
1	0x3f01e64f	0.5074205
2	0x3d6adbbe	0.05733847
3	0xbe8df7ca	-0.2772811
4	0xbf4b171e	-0.7933215
5	0x3d14928a	0.036272563
6	0x3eb95b46	0.3620245
7	0x3f07f82f	0.53113073
8	0x3e5a9cbf	0.21348856
9	0x3e779a9d	0.24180074
10	0xbe6dde80	-0.23229408
11	0x3e687c61	0.22703697
12	0x3de776e7	0.11301976
13	0x3f4bdb36	0.79631364
14	0x3f641142	0.89088833
15	0x3f576e2a	0.8415247
16	0x3f73711f	0.95094484
17	0x3f2848c7	0.6573605
18	0x3f319883	0.6937334
19	0x3f119714	0.5687115
20	0xbf645577	-0.8919291
21	0xbf345c75	-0.7045358
22	0xbf2266e9	-0.6343828
23	0xbf6ae805	-0.91760284
24	0x3dba8f59	0.09109373
25	0xbe99a61d	-0.30009547
26	0x3f6c3c8d	0.92279893
27	0x3f3b7e1d	0.7323931
28	0x3ec41b7b	0.38302216
29	0xbf49ff01	-0.7890473
30	0x3f30c289	0.6904684
31	0xbf3d2bd7	-0.7389502
32	0x3f4464cf	0.7671632
33	0xbdcc396d	-0.099718906
34	0x3f3dba4b	0.74112386
35	0x3ed0074c	0.40630567
36	0x3e17e768	0.14834368
37	0x3f22e814	0.63635373
38	0xbd685145	-0.05671813
39	0xbed10545	-0.40824333
40	0xbee62ca9	-0.44955948
41	0xbd9e4681	-0.07728291
42	0x3f83daf6	1.0301197
43	0x3f4a5680	0.7903824
44	0x3ef0744c	0.46963727
45	0x3f739f23	0.951647
46	0xbf0c2d82	-0.5475694
47	0xbed05bbe	-0.40694994
48	0x3ef419b9	0.47675875
49	0xbe9df1ab	-0.3084844

decoder.layers.3.weight f4 [50, 50]
0	0xbdef3b98	-0.116812885
1	0x3e82f416	0.25576848
2	0x3c816e92	0.015799794
3	0xbdfaac76	-0.122399256
4	0xbec129f3	-0.37727317
5	0x3e01b2d7	0.12665878
6	0x3c949582	0.018137697
7	0x3daa7d7c	0.083247155
8	0xbe08de5f	-0.13366078
9	0x3e4253a2	0.18977216
10	0xbd635869	-0.055504236
11	0x3d5185f0	0.051153123
12	0x3c3c63eb	0.011498432
13	0x3d70f691	0.058828894
14	0x3ebe777f	0.37200543
15	0x3e27af83	0.16375546
16	0x3ef76eed	0.48326817
17	0xbc6872a2	-0.014187487
18	0x3e89d84a	0.26922828
19	0x3de4a664	0.11164549
20	0xbeaea5d0	-0.3411088
21	0xbe09c0c4	-0.1345244
22	0x3d2f3634	0.0427763
23	0xbe5cbc58	-0.21556222
24	0xbb3ecacd	-0.0029112578
25	0xbd049de8	-0.032377154
26	0x3ee6e2d1	0.45094922
27	0x3ee56e14	0.44810545
28	0xbdeba1ee	-0.11505495
29	0xbde0cee4	-0.10976961
30	0x3d5eb6c9	0.054373536
31	0xbe21fc34	-0.15818864
32	0x3e8a4bb8	0.27010894
33	0xbdb4875b	-0.088148795
34	0xbda9d086	-0.08291726
35	0x3e67c1a4	0.22632462
36	0xbd2eb971	-0.04265732
37	0x3e9b9ff7	0.3039548
38	0xbd891f0e	-0.06695376
39	0xbd824465	-0.063607015
40	0xbe9c4002	-0.30517584
41	0x3d5f3bf4	0.054500535
42	0x3ee3cebf	0.44493672
43	0x3e687cd5	0.2270387
44	0x3e6392a2	0.22223905
45	0x3ec6aaa1	0.38802055
46	0xbe234d09	-0.15947355
47	0xbdcfbca4	-0.10143402
48	0x3df504e3	0.11963823
49	0xbdf724ab	-0.12067541
50	0xbcd51126	-0.026009154
51	0x3e7828d9	0.24234332
52	0x3d8eea7e	0.069783196
53	0xbe658224	-0.22412926
54	0xbe0cff72	-0.1376932
55	0xbda55418	-0.0807268
56	0xbdf082ff	-0.117437355
57	0xbd670cdb	-0.056408744
58	0x3e560bb2	0.20902899
59	0xbe0fc06e	-0.1403825
60	0xbbd7af39	-0.0065821675
61	0x3cf6a6fc	0.030108921
62	0x3d11ce4f	0.03559714
63	0x3e0968f0	0.13418937
64	0x3d29d2c0	0.041460752
65	0x3d2d281f	0.04227459
66	0x3d5ca589	0.053868804
67	0xbe08f29c	-0.13373798
68	0x3dfbc584	0.122935325
69	0xbd52e78c	-0.05149035
70	0x3d8210d5	0.06350867
71	0x3d906730	0.070509315
72	0xbd0c11f3	-0.034196805
73	0x3c148e2c	0.0090671
74	0xbce44b00	-0.027867794
75	0x3cfb7d01	0.030699255
76	0x3d9d1b3b	0.076712094
77	0xbbb63869	-0.005560924
78	0xbc105d71	-0.008811341
79	0x3dba6858	0.09101933
80	0xbd91d789	-0.07121188
81	0xbe018197	-0.12647091
82	0xbd4ea40d	-0.05044942
83	0xbdbd4b7f	-0.09242915
84	0x3d4d803c	0.050171122
85	0x3ba4854c	0.005020773
86	0x3d1efa7c	0.0388131
87	0xbb889505	-0.004168155
88	0x3b03559c	0.002004004
89	0x3cc7fa46	0.024411332
90	0xbd3ff870	-0.046867788
91	0xbe27b034	-0.1637581
92	0x3d859dc5	0.06524233
93	0x3e8326ab	0.2561544
94	0xbb363c95	-0.0027807106
95	0x3e84dad3	0.259482
96	0x3d202f4a	0.0391076
97	0x3d1e2496	0.03860911
98	0x3e51927e	0.20466039
99	0xbdce330e	-0.10068332
100	0xbc53483a	-0.012895638
101	0x3df406c2	0.119153515
102	0x3d99408f	0.07483017
103	0xbdb286ef	-0.08717143
104	0xbd1c5020	-0.03816235
105	0x3d649b75	0.055812318
106	0x3ce9930e	0.028512504
107	0xbd89666b	-0.06708988
108	0x3e1a0248	0.15039933
109	0x3da201ce	0.079105005
110	0xbd96d35c	-0.07364532
111	0xbdbfcaea	-0.09364875
112	0xbd61027f	-0.05493402
113	0xbdd971bc	-0.10617396
114	0x3d4bf416	0.049793325
115	0xbe29e722	-0.16592076
116	0xbce9901a	-0.028511096
117	0x3cda5ccd	0.026655579
118	0xbd3e2a4d	-0.04642706
119	0x3d5a06e8	0.053229243
120	0x3d869338	0.065710485
121	0x3df37946	0.118883654
122	0x3d8bb2dc	0.06821224
123	0x3e1ec6fb	0.15505593
124	0x3daecf36	0.08535616
125	0x3c76d228	0.015064754
126	0xbddc93d6	-0.10770385
127	0xbd9a01f9	-0.075199075
128	0xbdbd950e	-0.092569456
129	0xbdb419f0	-0.0879401
130	0x3db6337a	0.08896537
131	0xbde16c48	-0.11006981
132	0xbd7684a7	-0.0601851
133	0xbd4a0492	-0.049320765
134	0x3da783e8	0.08179456
135	0xbd231098	-0.039810747
136	0x3d66335c	0.056201324
137	0x3c52dc44	0.012869898
138	0xbd611de9	-0.054960165
139	0xbe06c422	-0.13160756
140	0xbb997b4a	-0.0046838867
141	0xbd5955b3	-0.053060245
142	0x3cec165e	0.02881926
143	0x3db387be	0.08766125
144	0xbd7ee124	-0.06222643
145	0x3d4d60d5	0.050141174
146	0x3e0547cc	0.1301567
147	0x3dfa598a	0.122241095
148	0x3d06aa6b	0.032877367
149	0xbe17a61b	-0.14809458
150	0xbd8caf1e	-0.068693385
151	0x3c96dc26	0.018415522
152	0x3b622d28	0.0034511779
153	0x3df1621e	0.117862925
154	0xbd5144fd	-0.051091183
155	0xbd90e9fc	-0.07075879
156	0x3e8ae3d4	0.27126944
157	0x3e31367f	0.17305945
158	0x3da8101f	0.082062
159	0x3d2b1dc1	0.041776422
160	0xbe0a5afe	-0.13511273
161	0x3e083645	0.13301952
162	0x3dc0ebc5	0.094199695
163	0x3d6a2312	0.057162352
164	0x3cc78332	0.024354551
165	0x3ede73e7	0.434478
166	0x3dcc3a31	0.09972037
167	0x3ecd737d	0.40127173
168	0xbc8e7cbf	-0.017393468
169	0x3e624309	0.22095884
170	0xbdb14edc	-0.08657619
171	0xbd0cc8e8	-0.034371287
172	0x3d56ba65	0.052423853
173	0xbe9a70c0	-0.30164146
174	0x3d72daaf	0.059290584
175	0xbd654db7	-0.055982318
176	0x3df73a15	0.12071625
177	0xbdbe786a	-0.09300311
178	0x3e2c0338	0.16798103
179	0xbe8f0ccf	-0.2793946
180	0x3e90a67c	0.28252017
181	0xbe52eba3	-0.20597701
182	0x3d8361b5	0.064151205
183	0x3cfba475	0.030718068
184	0x3e92f285	0.28700653
185	0xbc48a5c0	-0.012246549
186	0x3de85b3c	0.113455266
187	0x3df9d72b	0.12199243
188	0x3c89618c	0.016770147
189	0xbcf321cb	-0.0296792
190	0xbd871cb0	-0.065972686
191	0xbd4b1ad6	-0.04958614
192	0x3e38b5a6	0.18038043
193	0x3d8e2abb	0.06941744
194	0xbdc17c81	-0.09447575
195	0xbba1e286	-0.004940334
196	0xbc868ca5	-0.016424486
197	0xbe4f4ade	-0.20243403
198	0x3cd074d8	0.02544634
199	0x3d8c9852	0.0686499
200	0xbcb79d0e	-0.022413757
201	0xbd25214e	-0.040314965
202	0xbd10f134	-0.03538628
203	0xbcf799ba	-0.03022467
204	0xbccfaf39	-0.025352107
205	0xbcb6a956	-0.022297543
206	0xbdc09617	-0.09403627
207	0xbcaf606a	-0.021408278
208	0xbe0c3a88	-0.13694203
209	0xbdac2573	-0.0840558
210	0xbdcc97c7	-0.09989887
211	0xbd303a7e	-0.043024532
212	0x3deaa0f5	0.11456481
213	0x3d146147	0.036225583
214	0x3c9e0783	0.019290691
215	0xbd11dcd2	-0.03561098
216	0x3e5f3482	0.21797374
217	0xbda8762f	-0.08225667
218	0xbdcead6b	-0.100916706
219	0x3bb59b43	0.0055421903
220	0xbdb96882	-0.090531364
221	0xbdb9e467	-0.090767674
222	0xbea16fab	-0.31530508
223	0x3dd6c6f5	0.10487167
224	0x3dbda04f	0.09259092
225	0xbdd73195	-0.10507504
226	0x3e38480e	0.17996237
227	0x3e6219af	0.2208011
228	0xbd6a2ce0	-0.057171702
229	0xbd7db88d	-0.06194358
230	0xbbd49383	-0.0064873113
231	0x3d958aac	0.0730184
232	0x3dc02140	0.09381342
233	0xbe424b51	-0.18974043
234	0x3d0bf0a2	0.034165032
235	0x3da35639	0.0797543
236	0xbdefe7d6	-0.11714141
237	0xbd5a23a1	-0.053256635
238	0xbca0e547	-0.019640578
239	0xbe99481c	-0.29937828
240	0xbdf2b743	-0.11851361
241	0xbd071d29	-0.032986794
242	0x3dfba602	0.12287523
243	0x3d04006f	0.032226976
244	0x3dba82ac	0.09106955
245	0x3ccc154a	0.024912495
246	0xbb80a731	-0.003926181
247	0x3d980fb3	0.074248694
248	0x3e32b0f4	0.17450315
249	0xbdcaf326	-0.09909658
250	0x3bb8865b	0.005631251
251	0x3e165c30	0.14683604
252	0x3dc9764d	0.09837017
253	0x3da144f2	0.078744784
254	0xbe312ea3	-0.17302947
255	0xbcadee0e	-0.021231677

decoder.layers.3.bias f4 [50]
0	0x3cc435a2	0.023951355
1	0x3cab52f7	0.020913584
2	0xbda95101	-0.082674034
3	0x3dd90db7	0.10598319
4	0xbd1ec0a2	-0.038757928
5	0x3bc05277	0.0058692056
6	0x3e0759a4	0.13217789
7	0xbebd2523	-0.36942396
8	0x3e4223a6	0.18958911
9	0xbe225e01	-0.15856172
10	0x3c2ad0b2	0.010425733
11	0xbd922e36	-0.0713772
12	0xbde6386e	-0.11241232
13	0xbe78eea8	-0.2430979
14	0xbbf02d02	-0.007329584
15	0xbed8be2f	-0.423326
16	0x3d0aa236	0.033846103
17	0xbde85ed6	-0.113462135
18	0xbca882a0	-0.0205701
19	0x3ca2a53a	0.019854177
20	0x3cbad569	0.02280684
21	0x3e417f8d	0.18896313
22	0x3c48de65	0.012260054
23	0x3e176f68	0.14788592
24	0x3d7d8dbf	0.061902758
25	0x3ebda9b0	0.37043524
26	0xbe431a2d	-0.19052954
27	0xbdc57c6b	-0.096428715
28	0x3e10f2ee	0.1415517
29	0xbd934aac	-0.07191977
30	0x3eb7569c	0.35808265
31	0x3ca70a1e	0.020390566
32	0xbd5641fa	-0.052309014
33	0xbe917b60	-0.2841444
34	0xbd0a38c9	-0.03374556
35	0x3bd83ff3	0.00659942
36	0x3e925287	0.28578588
37	0xbcdaa0e0	-0.02668804
38	0x3de6f383	0.11276915
39	0xbd8007c5	-0.06251482
40	0x3c101e3b	0.00879627
41	0xbc7093ec	-0.014683705
42	0xbe23e167	-0.16003953
43	0x3d95ee63	0.07320859
44	0xbe5b0aa8	-0.21390784
45	0xbc679860	-0.01413545
46	0x3e013d07	0.12620936
47	0xbd1ea619	-0.03873262
48	0x3e1df25e	0.15424487
49	0x3d5e1fa1	0.054229382

decoder.layers.6.weight f4 [5, 50]
0	0xbdcd709b	-0.100312434
1	0xbbce2588	-0.006291095
2	0xbcb37928	-0.021908358
3	0xbd40531b	-0.046954256
4	0x3d499837	0.04921743
5	0xbde5c244	-0.11218694
6	0xbbf55e77	-0.0074880677
7	0xbe3cca83	-0.18436627
8	0xbe2193b4	-0.15779
9	0xbdb5da1d	-0.088794924
10	0xb9aa8e25	-0.00032530833
11	0x3d02e8c6	0.03196027
12	0xbde43fc4	-0.11144975
13	0xbdc15453	-0.09439912
14	0x3e3aace9	0.18230022
15	0xbe5df34b	-0.2167484
16	0xbc292aa2	-0.010325106
17	0xbdebbdd3	-0.115108155
18	0xbc10ee38	-0.008845858
19	0x3d736cf3	0.059430074
20	0x3d4c826a	0.04992906
21	0xbdb049e1	-0.08607841
22	0xbcbb749e	-0.022882756
23	0xbd88e8f3	-0.066850565
24	0xb91b38b9	-0.00014803083
25	0x3e0c0258	0.13672769
26	0xbc726834	-0.014795352
27	0x3c93c9f2	0.018040631
28	0xbe1df7f9	-0.15426625
29	0x3db20fa1	0.08694387
30	0x3e3e94e6	0.18611488
31	0x3e581865	0.21103056
32	0xbde267a1	-0.11054922
33	0xbc957330	-0.018243402
34	0x3e05bfc4	0.13061434
35	0x3b58a949	0.0033059886
36	0x3d489423	0.0489694
37	0xbd3d6b97	-0.046245184
38	0x3d9efaa8	0.07762653
39	0x3d3aab49	0.045573507
40	0xbc1a3b65	-0.009413575
41	0xbe2a6cd7	-0.16643082
42	0x3e12d475	0.14338858
43	0xbe520936	-0.20511326
44	0xbe242f51	-0.16033675
45	0xbd077bfa	-0.033077218
46	0x3deb703c	0.114960164
47	0x3d16852d	0.0367481
48	0x3bb67ccd	0.0055690766
49	0x3d5148eb	0.05109493
50	0x3a8cad13	0.0010732732
51	0x3e571e90	0.21007752
52	0x3d6cf2e0	0.05784881
53	0xbdd743f0	-0.10511005
54	0xbd4912cc	-0.04909019
55	0xbd700970	-0.05860275
56	0x3ca19ccb	0.019728085
57	0xbbfa442f	-0.0076375226
58	0xbcdee398	-0.027208135
59	0x3da46c54	0.080284745
60	0xba8bcc7b	-0.0010665798
61	0x3d0e1ff0	0.034698427
62	0xbe5c1125	-0.21490915
63	0x3e4cf7da	0.20016423
64	0xbafddeaa	-0.0019368727
65	0x3d6ced04	0.057843223
66	0xbd1ed175	-0.038773973
67	0xbdf5461b	-0.11976262
68	0x3d737d25	0.05944552
69	0x3d5ff611	0.054678027
70	0x3d8dd9c7	0.06926303
71	0x3e55488a	0.20828453
72	0xbc649777	-0.013952128
73	0xbd816e78	-0.06319898
74	0xba82de8e	-0.0009984539
75	0xbc86734f	-0.016412405
76	0x3e7c7567	0.2465416
77	0x3c600818	0.013673805
78	0x3c5c07a4	0.013429556
79	0x3cc78b2b	0.024358353
80	0xbd5ec56a	-0.054387487
81	0x3de2e6d5	0.11079184
82	0xbe4c616b	-0.19959037
83	0xbea55387	-0.3229029
84	0x3d669ce8	0.05630198
85	0x3e165e2c	0.14684361
86	0xbe4d258f	-0.20033859
87	0xbe06ea5f	-0.13175343
88	0x3d09d957	0.033654537
89	0xbd1a4a0b	-0.03766827
90	0xbb6ce5bf	-0.0036147682
91	0x3d63428d	0.05548339
92	0xbc82a237	-0.01594649
93	0xbd9bf11c	-0.07614347
94	0x3ca21168	0.01978369
95	0x3e09c0f1	0.13452508
96	0x3b88bd3a	0.004172948
97	0x3e29b86a	0.16574255
98	0x3dbfed63	0.0937145
99	0xbe09dde0	-0.13463545
100	0xbcf0b0e4	-0.029381223
101	0xbba6beaf	-0.005088649
102	0xbd885a68	-0.066578686
103	0x3c875995	0.016522208
104	0xbd069074	-0.032852605
105	0x3cfdb8ce	0.03097191
106	0xbdd3c651	-0.1034056
107	0x3e15a062	0.14611962
108	0x3ec1ad54	0.3782755
109	0x3dc5e642	0.09663059
110	0x38d13b8b	9.976987e-05
111	0xbd665bdb	-0.056239944
112	0xbd812087	-0.06305032
113	0x3e380232	0.17969587
114	0xbeaeb4ff	-0.34122464
115	0x3e5f20f5	0.21789916
116	0x3e2e9b64	0.17051464
117	0xbd7146f1	-0.058905546
118	0x3d20900a	0.039199866
119	0xbdc8df80	-0.09808254
120	0xbd86deeb	-0.06585487
121	0xbda53069	-0.08065874
122	0xbc855e01	-0.016280176
123	0xbd04419d	-0.032289136
124	0x3a857db9	0.0010184563
125	0xbe0f7c6d	-0.14012308
126	0xbccd6574	-0.02507279
127	0x3cbc73f2	0.023004506
128	0x3d1844b8	0.03717491
129	0xbe209ff3	-0.15686016
130	0xbe3ef6f0	-0.18648887
131	0x3ce12a76	0.027486067
132	0xbd13e510	-0.036107123
133	0xbd36adea	-0.04459945
134	0x3cdee239	0.02720748
135	0xbd15b0be	-0.036545508
136	0xbea2aaa5	-0.31770816
137	0x3dc6aa4d	0.09700451
138	0xbdcff2b4	-0.10153714
139	0xbd61adea	-0.055097498
140	0xbb2b64bc	-0.0026152572
141	0x3e872ea7	0.2640278
142	0xbe8f002c	-0.2792982
143	0x3e860628	0.26176572
144	0x3dd38cd0	0.10329592
145	0x3c9f2059	0.019424604
146	0xbd8e9ebe	-0.069638714
147	0xbd1a7af7	-0.037714925
148	0xbd4747d8	-0.0486525
149	0x3d0de54c	0.034642503
150	0xbe5267af	-0.20547365
151	0x3d02f23e	0.0319693
152	0xbc116e38	-0.008876376
153	0x3eaf956f	0.34293696
154	0xbe24465b	-0.16042463
155	0xbe4ce456	-0.20008978
156	0x3e213b9b	0.15745394
157	0xbe7872ae	-0.24262497
158	0xbe6c0a5c	-0.23050827
159	0x3e08d221	0.13361408
160	0x3ae75dcf	0.0017651859
161	0xbddbc901	-0.10731698
162	0xbbf3ae01	-0.0074365144
163	0x3c38e495	0.011284967
164	0x3d0a340d	0.033741046
165	0xbd3100fa	-0.043213822
166	0xbee4190f	-0.44550368
167	0x3df551ac	0.11978468
168	0xbd11d7c1	-0.03560615
169	0xbd68fa59	-0.056879375
170	0xbda5d532	-0.080973044
171	0xbc6aa856	-0.014322361
172	0xbcc498d3	-0.023998654
173	0x3e1c20be	0.15246865
174	0x3a4214df	0.0007403623
175	0x3d680b66	0.056651495
176	0x3e4b3237	0.19843374
177	0xbdbf2d77	-0.093348436
178	0xbe20589c	-0.15658802
179	0x3de9a8bd	0.114091374
180	0x3e56ac68	0.20964205
181	0x3e937259	0.28798178
182	0x3d5316bb	0.05153535
183	0x3df4f3fa	0.11960597
184	0xbdca36d1	-0.09873737
185	0xbe615c97	-0.22007976
186	0x3d955140	0.07290888
187	0xbceb8870	-0.028751582
188	0x3d826f74	0.06368914
189	0xbd53e247	-0.051729467
190	0x3bd9f93f	0.006652027
191	0xbc46572d	-0.012105745
192	0xbe37842d	-0.17921515
193	0x3d88dc61	0.06682659
194	0xbdfd3bc5	-0.12364916
195	0xbb9a2a01	-0.0047047143
196	0x3d5f61c5	0.0545366
197	0xbd0e3474	-0.034717992
198	0x3cff91e5	0.031197498
199	0x3e3bafe2	0.18328813
200	0x3e48f1b9	0.1962346
201	0x3d0bc88a	0.034126796
202	0xbd26c1bb	-0.0407121
203	0xbc57e9c8	-0.013178296
204	0xbd60512d	-0.054764915
205	0xbc62f897	-0.013853214
206	0x3c80f88b	0.015743515
207	0x3c4b6800	0.012414932
208	0xbd4ba859	-0.049721096
209	0x3d5e3f6b	0.0542597
210	0xba92a498	-0.0011187969
211	0x3c32aaaa	0.010904947
212	0xbdb51544	-0.08841947
213	0xbd7fd3e8	-0.06245795
214	0xbe058dc3	-0.13042359
215	0xbc933e4d	-0.017974043
216	0x3d9b83b5	0.075934805
217	0x3e133afd	0.14377971
218	0x3d384a9c	0.044993028
219	0xbdd245cc	-0.10267219
220	0xbd379d52	-0.044827767
221	0xbe1576bd	-0.14596076
222	0xbd6d7db2	-0.0579812
223	0xbac72446	-0.0015193305
224	0x3a02bb4d	0.00049870164
225	0xbe0c898f	-0.1372435
226	0xbe15eda3	-0.14641432
227	0x3cf5f9ee	0.030026402
228	0x3dc55639	0.09635586
229	0xbdf10061	-0.117676504
230	0x3c6a9594	0.014317889
231	0xbcd5acaa	-0.02608331
232	0x3e2f623a	0.17127314
233	0x3cdb3015	0.026756326
234	0xbe03e72f	-0.12881158
235	0xbe160829	-0.1465155
236	0xbd83c852	-0.064346924
237	0xbb9ed04e	-0.004846609
238	0xbdb997e8	-0.09062177
239	0xbe07b6a2	-0.13253263
240	0xbc068c58	-0.0082121715
241	0x3dc3d1ce	0.095615014
242	0xbdcfe891	-0.101517804
243	0x3de6a8a8	0.112626374
244	0xbca8c071	-0.020599576
245	0xbd6b0e88	-0.057386905
246	0xbd209b12	-0.039210387
247	0xbe0e03f3	-0.13868694
248	0xbcfb3bf3	-0.030668234
249	0x3c8bc05f	0.017059503
