runs/results_for_RL_paper/trial4_ae2_enc_linear_dec_linear_pred_linear_latentd_4_bs_10_lr_0_001/checkpoints/epoch=1987-total_val_loss=0.01.ckpt (torch, 12887 bytes, 15 tensors)

submodules.encoder.0.weight f4 [4, 5]
000000 83 14 c8 be 7a 21 88 3e 4c 6c d8 be 39 49 8d be
       -0.3907815 0.2658804 -0.42270124 -0.27594927
000010 e5 ac 8f be 13 ff 7e 3e d7 67 11 3f 5e be 89 3f
       -0.28061596 0.2490199 0.5679907 1.076122
000020 0c c1 dc 3e 6d c7 e2 3e cb 36 e4 bd f4 66 33 be
       0.43116033 0.44292775 -0.111432634 -0.17519742
000030 50 55 f1 3d 50 d8 3f 3e b8 6d 5f bf 26 0b 9b 3d
       0.1178385 0.1873486 -0.8727679 0.07570486
000040 2f 40 a7 3e 9a 9d 2a bf 35 7c 28 3f 3e 4e 93 3f
       0.32666156 -0.6664673 0.65814525 1.1508253

submodules.encoder.0.bias f4 [4]
000000 fc 46 05 bd a1 fc 70 bd d5 e0 ea 3b b2 e1 c2 3b
       -0.0325384 -0.058834676 0.0071679153 0.005947315

submodules.predictor.0.weight f4 [1, 4]
000000 2c 50 8b bf 72 5d 8c 3f d5 51 32 3e ae b1 2d be
       -1.0883842 1.0966017 0.17414029 -0.1696231

submodules.decoder.0.weight f4 [5, 4]
000000 96 38 1b bf d2 eb af be 8b 97 17 bf 28 e4 0e 3e
       -0.6063322 -0.34359604 -0.5921561 0.13954222
000010 5c 1a c3 3f b2 c2 27 3f ff e5 4f be 02 22 88 3e
       1.5242419 0.65531456 -0.2030258 0.26588446
000020 15 e5 b8 be 59 db 0e 3f 14 43 d2 bc 6b d0 01 bf
       -0.36112276 0.5580345 -0.025666751 -0.50708646
000030 52 39 d1 be c3 3d 62 3e 36 3f b5 3f 9d c5 4c 3f
       -0.40864044 0.22093873 1.4159915 0.79989034
000040 5a 58 ba be d8 87 12 3d 55 84 3a bf 0f 83 03 3d
       -0.36395532 0.035774082 -0.7285817 0.03210741

submodules.decoder.0.bias f4 [5]
000000 6e 38 0d bd 1d 88 b4 3d 64 cf d3 3c 8f 01 83 bc
       -0.034477644 0.08815024 0.025855727 -0.015991954
000010 ea 99 92 bb
       -0.0044739144

exp_avg f4 [4, 5]
000000 ca 1d 57 bc fc 5c 0a bc b7 55 9d 3c 8e a0 9b 3c
       -0.013129661 -0.008445021 0.019205911 0.018997457
000010 af 53 9a bc 99 eb 7b bc f9 58 b0 bc 9e ca 10 3a
       -0.018838732 -0.015375995 -0.0215268 0.00055233564
000020 e7 45 91 3b c3 72 25 bc 2f ec f6 3b 7f 9e a3 39
       0.004433382 -0.010098162 0.0075354795 0.00031207872
000030 0c 31 28 bc ea f5 39 3d 7b cd 6a 3b 2b 0e c0 bb
       -0.0102656 0.045400538 0.0035828042 -0.005861064
000040 67 97 c2 bb 43 36 c1 3b bc 97 17 3d 06 cb f5 bb
       -0.0059384587 0.005896361 0.03700994 -0.007501009

exp_avg_sq f4 [4, 5]
000000 26 49 4b 3e 99 a8 17 3e 76 23 44 3e 6b f2 18 3e
       0.19852123 0.14810409 0.19154152 0.14936225
000010 67 36 40 3e 28 86 3e 3e 68 21 1d 3e 8f 6c 3a 3e
       0.18770753 0.18605864 0.15344775 0.18205474
000020 ff c6 18 3e 6a f2 36 3e d5 69 c5 3c 8c 80 94 3c
       0.14919661 0.17865911 0.024098316 0.018127702
000030 33 04 bb 3c 4c 47 97 3c 0b 85 bd 3c 6d 9f 88 3c
       0.02282915 0.018466614 0.023134729 0.016677583
000040 7c c0 46 3c e1 eb 80 3c a8 fe 2a 3c 73 c3 81 3c
       0.012130853 0.015737476 0.010436691 0.015840268

exp_avg f4 [4]
000000 a2 7e 40 3e 56 02 2d be 21 04 f5 bc 59 d6 24 3d
       0.18798307 -0.16895422 -0.029909195 0.04024348

exp_avg_sq f4 [4]
000000 eb 06 16 3e 06 39 16 3e f6 38 9c 3c 31 a3 37 3c
       0.14651076 0.1467019 0.01907013 0.011208341

exp_avg f4 [1, 4]
000000 c0 db ad 3b a8 15 a2 bb dd a6 b9 3c c6 e3 05 bd
       0.0053057373 -0.0049464293 0.022662574 -0.032687925

exp_avg_sq f4 [1, 4]
000000 37 a8 2e 3c 5a 56 5b 3d 7c fd 7f 3e 42 d9 35 3f
       0.010660223 0.05354915 0.2499904 0.71034634

exp_avg f4 [5, 4]
000000 1d de 62 bb 62 ee 58 3a 92 08 2c 3c 96 18 0b bb
       -0.0034617253 0.0008275268 0.01050009 -0.002122437
000010 c9 7d 57 bb 2b 02 bc ba 52 b8 b7 3c bd 4a 9f bc
       -0.003288137 -0.0014343908 0.022426758 -0.019444818
000020 7a 7e c6 3b ef cd c1 bb 7c 81 11 bd 5b 9a 1a 3d
       0.0060575576 -0.005914442 -0.035523877 0.03774486
000030 2f bf ed bb a5 cd 24 3c 9d bf a8 bb d1 c1 0f 3d
       -0.007255457 0.010058795 -0.005149795 0.035096947
000040 89 34 c7 3b a5 90 89 ba ae e7 ba bc cf 50 0b 3c
       0.0060792607 -0.0010495378 -0.022815552 0.008503153

exp_avg_sq f4 [5, 4]
000000 0a 04 a8 39 07 92 fa 3a 18 e3 ef 3b bc 56 ac 3c
       0.00032046466 0.0019117006 0.007320773 0.021037452
000010 93 7b d1 39 b7 84 16 3b 88 a8 4c 3c 65 ae 0d 3d
       0.00039955656 0.0022967288 0.012491353 0.034590144
000020 31 46 00 3a f9 e1 37 3b 04 b1 8b 3c f2 33 47 3d
       0.0004893272 0.0028058274 0.017052181 0.048633523
000030 ed 40 1c 3a 44 6b 48 3b af 6d 83 3c 0a ee 3a 3d
       0.00059606024 0.0030581513 0.016043512 0.045637168
000040 e6 ad d0 39 70 f8 13 3b 05 20 2f 3c 77 6f 00 3d
       0.00039802416 0.00225785 0.010688786 0.0313563

exp_avg f4 [5]
000000 d0 ee df 3a 38 0d 47 3c 84 c0 c5 bc 14 1b 66 ba
       0.0017084721 0.012149148 -0.02413965 -0.00087778387
000010 80 d2 de b8
       -0.000106249936

exp_avg_sq f4 [5]
000000 34 41 82 3b 06 e8 b2 3b 4e 7e df 3b e9 64 01 3c
       0.003975058 0.0054597883 0.0068204766 0.007897594
000010 b7 00 aa 3b
       0.0051880735
