runs/results_for_RL_paper/trial8_ae2_enc_None_dec_None_pred_None_latentd_3_bs_10_lr_0_001/submodule_params/decoder_params.pt (torch, 1219 bytes, 2 tensors)

0.weight f4 [5, 3]
0.508245 0.42539567 0.3502819 0.8230146 -0.28200936 -0.3209099 -0.22601724 -0.7597171
-0.72411305 0.024293449 0.9367791 -0.8591686 0.7274124 0.0772858 -0.0022938508
00000000: 581c 023f 76cd d93e 2658 b33e 16b1 523f
00000010: 8863 90be 4d4e a4be 1071 67be d27c 42bf
00000020: 795f 39bf 0e03 c73c c1d0 6f3f 79f2 5bbf
00000030: b337 3a3f 0448 9e3d 6e54 16bb

0.bias f4 [5]
0.035908077 0.10364549 -0.011343791 -0.003037436 0.058384504
00000000: 5914 133d 1644 d43d 4fdb 39bc b80f 47bb
00000010: 9724 6f3d
