runs/results_for_RL_paper/gridSamples_sumf5_ae1_trial7_enc_linear_dec_linear_no_predictor_latentd_2_bs_10_lr_0_001_w_l1_0p01_to_enc/checkpoints/epoch=274-total_val_loss=0.00.ckpt (torch, 10223 bytes, 12 tensors)

submodules.encoder.0.weight f4 [2, 8]
000000 80 df 27 b8 de f3 e6 b7 20 87 c3 b7 a1 51 4d bf
       -4.0024053e-05 -2.7531696e-05 -2.3308734e-05 -0.8020268
000010 94 b9 84 be 8e 72 46 3e 34 5c ea b7 2c 59 35 be
       -0.25922835 0.19379637 -2.793791e-05 -0.17709798
000020 e8 42 c5 b6 7e 11 5c 37 4e 72 d2 3e 09 8c ff 3e
       -5.8788464e-06 1.3117095e-05 0.41102833 0.49911526
000030 cd fd 59 3e 06 86 19 38 2a 5d 53 3e 0c 99 b4 3e
       0.21288224 3.660286e-05 0.20641008 0.35273015

submodules.encoder.0.bias f4 [2]
000000 5f 20 0a bc 34 ee 01 3c
       -0.008430569 0.007930327

submodules.decoder.0.weight f4 [8, 2]
000000 06 7d 12 bf e3 e4 74 3e b2 f7 da 3d 66 31 29 3f
       -0.5722202 0.23915438 0.106917754 0.66091
000010 1e 18 a3 be e4 e3 ca 3e 8a c2 e4 bd 91 69 06 3f
       -0.31854337 0.39626992 -0.11169918 0.5250483
000020 21 f5 dc be 08 3a a7 3e 32 b6 25 bf 0d 03 45 3e
       -0.4315577 0.32661462 -0.64731133 0.19239445
000030 3c e7 bc 3d 5d dd 26 3f 31 6a 4f bf 05 f2 ba 3d
       0.09223792 0.65181524 -0.8102141 0.09128193

submodules.decoder.0.bias f4 [8]
000000 28 a6 e0 bb 8f 9a 98 bb d1 50 ca bb 6a f3 a9 bb
       -0.006855745 -0.0046570967 -0.006174185 -0.005186488
000010 35 24 cf bb d1 52 e4 bb ca e3 97 bb 67 4a 02 bc
       -0.006321455 -0.0069678803 -0.004635309 -0.007952309

exp_avg f4 [2, 8]
000000 48 a3 ab 3b ac 82 cd 3a 55 b7 4b 3b 91 03 74 bb
       0.0052379705 0.0015679202 0.0031084616 -0.003723357
000010 91 03 74 bb 95 56 85 3c 0c 9b a7 3b 91 03 74 bb
       -0.003723357 0.016276637 0.0051149186 -0.003723357
000020 4b c9 88 bb d0 1d 61 ba 0c bd f6 3a 0c bd f6 3a
       -0.0041743866 -0.0008587511 0.0018824651 0.0018824651
000030 0c bd f6 3a 10 d1 a3 39 0c bd f6 3a 0c bd f6 3a
       0.0018824651 0.00031245546 0.0018824651 0.0018824651

exp_avg_sq f4 [2, 8]
000000 97 4a 04 3d 2f 62 04 3d 6b 53 04 3d 47 8c f7 3c
       0.032297697 0.032320198 0.032306116 0.030218257
000010 47 8c f7 3c 72 e4 f8 3c 5f e1 03 3d 47 8c f7 3c
       0.030218257 0.030382369 0.032197352 0.030218257
000020 36 fe f9 3c ee cd f9 3c bf 8b ec 3c bf 8b ec 3c
       0.030516725 0.030493703 0.02887523 0.02887523
000030 bf 8b ec 3c 01 2c f0 3c bf 8b ec 3c bf 8b ec 3c
       0.02887523 0.029317858 0.02887523 0.02887523

exp_avg f4 [2]
000000 1e d1 01 bd d5 5b 09 3d
       -0.03169357 0.033534843

exp_avg_sq f4 [2]
000000 73 91 8f 3c a9 b2 84 3c
       0.01752541 0.016198473

exp_avg f4 [8, 2]
000000 76 da f0 3b 22 2a 44 bc 13 d9 c2 bb 6c 27 1c 3c
       0.0073502613 -0.011972936 -0.0059462874 0.009530883
000010 20 54 98 bb 26 1c f3 3b 14 10 d7 3b 7c ae 2e bc
       -0.0046487004 0.007419127 0.006563196 -0.0106617175
000020 cc a2 dc 3a d9 73 39 bb a4 1b b8 3b dc 30 16 bc
       0.0016833185 -0.002829781 0.0056185294 -0.009166922
000030 a9 be 36 3c d6 15 93 bc 69 54 be ba f8 a7 15 3b
       0.011153855 -0.017954748 -0.0014521006 0.0022835713

exp_avg_sq f4 [8, 2]
000000 7f d6 16 3c fc 04 cc 3c c2 9c 16 3c a6 67 cb 3c
       0.009206413 0.02490472 0.009192647 0.024829697
000010 15 ce 17 3c 98 54 cd 3c 44 b0 16 3c 00 a2 cb 3c
       0.009265442 0.025064752 0.009197298 0.024857521
000020 3e f7 17 3c 5f 6e cd 3c 5f 83 16 3c 7b a2 cb 3c
       0.009275256 0.025077043 0.009186595 0.02485775
000030 a5 e7 17 3c db 4e cd 3c 1d c4 17 3c 97 4f cd 3c
       0.009271537 0.025062015 0.009263066 0.025062365

exp_avg f4 [8]
000000 df 92 8e 3c ba 82 19 3c a8 78 47 3c 5b 41 82 3c
       0.017404018 0.009369547 0.012174763 0.015900305
000010 1f e3 75 3c 02 89 79 3c 63 4f 4f 3b 18 9c a8 3a
       0.015007763 0.015230419 0.0031633012 0.0012863902

exp_avg_sq f4 [8]
000000 ac dc b3 3b 6e c7 b5 3b 68 88 af 3b 6e 32 b4 3b
       0.0054889526 0.0055474555 0.005356837 0.0054991757
000010 8d 91 b4 3b 32 be b3 3b 04 d2 b4 3b f7 71 b3 3b
       0.005510515 0.0054853195 0.0055182 0.005476232
