runs/results_for_RL_paper/randomSamples_sumf5_trial3_enc_relu_dec_linear_no_predictor_latentd_8_bs_10_lr_0_001_w_l1_0p01_to_enc/submodule_params/encoder_params.pt (torch, 1411 bytes, 2 tensors)

0.weight f4 [8, 8]
0.08950831 0.45780537 0.0013364415 0.046612166 0.00015896112 0.00065005355 0.0009610423 0.0015493606
0.005184964 -0.06656618 -0.00023795669 -0.00041134312 -0.23627226 -0.0001727992 0.19441138 0.008956109
0.00961628 -0.00057140854 -8.799354e-06 1.4576537e-05 0.37521467 0.00015103568 0.1390842 -0.00029538106
-0.0727486 -0.00044630043 -0.0003544517 0.29997396 0.00029660366 -0.25960875 -0.09172852 0.00034700558
-0.17609285 0.1152101 4.7278532e-05 -0.109491214 0.0011123231 -0.27580875 0.19953905 -0.14430669
0.0005821865 -0.00049927324 -0.0014397369 0.0008023432 -0.000484883 -0.0001015865 -0.09067699 -0.40144426
-0.3755317 0.022953318 0.0009270098 -0.0007869166 0.0007030688 0.1611775 -0.000103607614 0.00010700087
-0.00092312833 0.00056302437 0.0010851881 -0.23903334 -0.0003200448 -0.055167034 -0.21035297 0.08633989
00000000: 2250 b73d 7765 ea3e 892b af3a 66ec 3e3d
00000010: cdae 2639 5b68 2a3a 75ee 7b3a ea13 cb3a
00000020: a1e6 a93b d953 88bd 0384 79b9 8aa9 d7b9
00000030: 5bf1 71be 6f31 35b9 c713 473e a5bc 123c
00000040: 9a8d 1d3c 94ca 15ba f0a0 13b7 c08d 7437
00000050: 231c c03e 555f 1e39 176c 0e3e 60dd 9ab9
00000060: 38fd 94bd 6efd e9b9 b4d5 b9b9 3096 993e
00000070: 7881 9b39 70eb 84be 2adc bbbd 4dee b539
00000080: af51 34be 46f3 eb3d f04c 4638 ee3c e0bd
00000090: 5fcb 913a ce36 8dbe f753 4c3e 22c5 13be
000000a0: e09d 183a a9e1 02ba 8eb5 bcba 5754 523a
000000b0: e537 feb9 d60a d5b8 dcb4 b9bd 1a8a cdbe
000000c0: b145 c0be 9908 bc3c 9302 733a 1449 4eba
000000d0: 264e 383a b70b 253e ea47 d9b8 a865 e038
000000e0: 18fe 71ba ed97 133a df3c 8e3a 28c5 74be
000000f0: b0cb a7b9 d4f6 61bd c566 57be f8d2 b03d

0.bias f4 [8]
1.2139001 0.95181936 1.2556024 1.3288797 1.1167357 1.241816 0.95981455 0.97903883
00000000: 1461 9b3f 6faa 733f 94b7 a03f bb18 aa3f
00000010: 32f1 8e3f d4f3 9e3f 68b6 753f 4aa2 7a3f
