runs/results_for_RL_paper/gridSamples_nonlinf5_ae2_trial24_enc_linear_dec_linear_pred_tanh_3n_3lay_latentd_5_bs_10_lr_0_001_w_l1_0p01_to_enc_and_to_pred/submodule_params/encoder_params.pt (torch, 1219 bytes, 2 tensors)

0.weight f4 [5, 5]
000000 30 6c 0e be 26 c7 47 38 96 2f 87 38 fb ad 47 be
       -0.13908458 4.763077e-05 6.446165e-05 -0.19499962
000010 ae ca d1 b9 27 59 b7 b9 a8 3d ec 3e 04 71 00 3a
       -0.00040014595 -0.00034970904 0.4614079 0.0004899653
000020 b0 ef 99 b9 28 bf c9 b8 f8 06 43 39 6c 41 4a b9
       -0.00029361015 -9.6200325e-05 0.00018599245 -0.00019288593
000030 fa 4f fb 39 b4 eb 8b 39 18 46 c2 3e e5 29 e9 3e
       0.00047934038 0.00026687759 0.37944102 0.45539775
000040 4b b8 c9 be 41 f3 6f bf 0f 0e 18 bf 26 f0 fe 39
       -0.39398417 -0.9373055 -0.5939645 0.0004862558
000050 fa 96 5b 39 34 84 12 38 6e 2a d6 be 97 70 64 3d
       0.0002094171 3.4932236e-05 -0.41829246 0.055771437
000060 00 db 0a 37
       8.276431e-06

0.bias f4 [5]
000000 81 53 92 bb 59 c2 2e 3d 3e ef 4c 3d d7 7d a8 3e
       -0.004465521 0.042665813 0.050032847 0.32908508
000010 02 0f 77 3d
       0.060317047
