runs/results_for_RL_paper/randomSamples_sumf5_trial2_enc_linear_dec_linear_no_predictor_latentd_7_bs_10_lr_0_001_w_l1_0p01_to_enc/checkpoints/epoch=103-total_val_loss=0.11.ckpt (torch, 11311 bytes, 12 tensors)

submodules.encoder.0.weight f4 [7, 8]
0	0xbeaf4e50	-0.34239435
1	0x3a429220	0.0007422287
2	0x3ed18438	0.40921187
3	0x3d6dd803	0.058067333
4	0x3ed333a5	0.4125034
5	0xbf1bceb1	-0.6086226
6	0x3e94f364	0.29091942
7	0x3b8d480d	0.0043115676
8	0x3e1fc029	0.15600647
9	0xba04df1d	-0.0005068647
10	0xbdf5e5ab	-0.12006696
11	0xbead8efb	-0.33898148
12	0xbe0b712b	-0.13617389
13	0xbed6189a	-0.41815645
14	0xb9c272e2	-0.00037088158
15	0x3ebe6923	0.37189588
16	0xbe88cf88	-0.26720834
17	0x3aa2ca25	0.0012419863
18	0x3b03dbce	0.0020120027
19	0xbe8ef53a	-0.27921468
20	0x3eab0a4c	0.33406293
21	0x3eaa7473	0.3329197
22	0xbe0da696	-0.13833079
23	0x3ca0202f	0.019546596
24	0x3f307082	0.68921673
25	0xba2295be	-0.0006202123
26	0x3f03e623	0.51523036
27	0xbe818a8c	-0.25301015
28	0x3dfd93b1	0.123816855
29	0x3cb12eaa	0.021628696
30	0xbd808c8f	-0.062768094
31	0xbe3618d1	-0.17782904
32	0xbc2974f7	-0.010342828
33	0xb8f1afb6	-0.00011524504
34	0xbe0518ad	-0.12997694
35	0xba81d9eb	-0.0009906864
36	0xbaaccd8a	-0.0013183814
37	0xbef26820	-0.47345066
38	0xbf3b768c	-0.73227763
39	0xbec6469e	-0.38725752
40	0xbe892eeb	-0.26793608
41	0x39dbcc9e	0.00041923387
42	0x3ee31267	0.44349977
43	0xbd81670d	-0.063184835
44	0xbee3f626	-0.44523734
45	0x3e1b5431	0.15168835
46	0xbdff7e8b	-0.12475308
47	0x3e3a936f	0.18220304
48	0x3e1ce17e	0.15320393
49	0xba9499e0	-0.0011337362
50	0x3d3a1842	0.04543329
51	0x3ecfaab9	0.4055994
52	0x3d46dfc9	0.048553262
53	0x39454932	0.00018814651
54	0xbeae394a	-0.34028083
55	0x3ecaa636	0.39579934

submodules.encoder.0.bias f4 [7]
0	0xbc5fad57	-0.013652167
1	0xbb756e00	-0.0037449598
2	0x3baa9fd0	0.0052070394
3	0x3cddaa5e	0.027058776
4	0x3c92ae19	0.017905282
5	0xbc3ee121	-0.011650355
6	0x3c32398f	0.010877981

submodules.decoder.0.weight f4 [8, 7]
0	0xbec4e4aa	-0.38455707
1	0x3e4ab750	0.1979649
2	0xbef79e92	-0.48363167
3	0x3f4115cb	0.7542388
4	0xbe24e93e	-0.161046
5	0xbf0a367d	-0.5398939
6	0x3e8c5672	0.27409703
7	0x3d0e1621	0.034689073
8	0xbeb90926	-0.36139792
9	0x3d285267	0.04109421
10	0x3dd92d09	0.10604293
11	0xbd9c4d76	-0.07631962
12	0xbe0798c0	-0.13241863
13	0xbe8939da	-0.2680195
14	0x3f0d465b	0.5518548
15	0xbebab540	-0.36466408
16	0x3cdf9487	0.027292503
17	0x3f27e9c7	0.6559109
18	0xbd898d79	-0.06716437
19	0x3f58804b	0.8457076
20	0x3e34a27e	0.17640111
21	0x3e3b8162	0.18311074
22	0xbf7483e5	-0.95513755
23	0xbf61bffe	-0.8818358
24	0xbe966f0f	-0.29381606
25	0xbda8162b	-0.08207353
26	0xbe441688	-0.1914922
27	0x3f52705a	0.82202685
28	0x3f02d929	0.5111261
29	0xbe19853f	-0.14992236
30	0x3f7fa9f1	0.99868685
31	0x3e6b01ab	0.22949855
32	0xbdb66223	-0.08905437
33	0xbf5b9cbc	-0.8578603
34	0x3efdca59	0.49568442
35	0xbf122caf	-0.5709943
36	0xbf11be74	-0.56931233
37	0x3f17c1ba	0.5927998
38	0x3dc8ac84	0.0979853
39	0xbed324c3	-0.41238984
40	0x3e034d41	0.12822439
41	0x3dc1f54e	0.09470616
42	0x3e800907	0.25006887
43	0xbd6365b6	-0.05551692
44	0xbf1ce62c	-0.61288714
45	0xbdc1b2c1	-0.09457923
46	0xbf4de0b8	-0.8042102
47	0xbe9c571d	-0.30535212
48	0xbf1c0e39	-0.609592
49	0x3d4f1074	0.0505528
50	0x3f6a79c0	0.91592026
51	0x3ee12650	0.43974543
52	0xbe3650d2	-0.17804268
53	0xbf06ab3f	-0.5260505
54	0x3e1ed6d5	0.1551164
55	0x3f7841b7	0.9697527

submodules.decoder.0.bias f4 [8]
0	0xbce7c3e6	-0.028291654
1	0x3c66bdce	0.014083339
2	0xbb0be4a0	-0.0021345988
3	0x39fbace5	0.00048003267
4	0xbc9c1697	-0.01905374
5	0xbbd6fef4	-0.0065611545
6	0x3ce0a0b2	0.027420375
7	0x3bee6cc3	0.007276149

exp_avg f4 [7, 8]
0	0x3c082e9f	0.008311897
1	0x3b167a11	0.002296094
2	0x3c043385	0.008068924
3	0x3c533e7f	0.012893318
4	0x3a256da2	0.0006310587
5	0xbc8289e7	-0.015934898
6	0x3c7a8558	0.015290581
7	0x3b1946f6	0.0023388243
8	0x3c783dbb	0.015151436
9	0x3baa04cc	0.00518856
10	0xbb9e3e11	-0.0048291762
11	0x3baf0dad	0.0053422065
12	0x3c8396cf	0.016063122
13	0xbccf4fdc	-0.025306635
14	0xbc3b2c0c	-0.011424076
15	0x3ccd0d05	0.025030622
16	0x3d23d8e7	0.040001776
17	0xbcb6bc4c	-0.022306584
18	0x3d0e1139	0.034684394
19	0xbc819019	-0.015815781
20	0x3cea458e	0.02859762
21	0xbd33ed4f	-0.043927487
22	0x3bf7722b	0.0075514517
23	0x3ccb63fa	0.024827946
24	0xb8949bb4	-7.086192e-05
25	0xbca18de9	-0.019720988
26	0x3bc5c5c6	0.0060355393
27	0x3c0ffdd5	0.008788546
28	0x3b1761de	0.0023099105
29	0x3bfc4ea0	0.0076998025
30	0xbbe42b7d	-0.006963192
31	0xbc182aac	-0.0092875175
32	0xbbf52acb	-0.007481908
33	0xbb5a17e1	-0.0033278393
34	0x3c358e0e	0.011081232
35	0xbc0cd5ea	-0.008595923
36	0x3bbcdcf0	0.0057636425
37	0xbc359399	-0.011082553
38	0xbb61109f	-0.0034342182
39	0x3c7bdf9d	0.015373138
40	0x3becaecc	0.007222986
41	0xbb54fab7	-0.003249807
42	0x3bebf201	0.00720048
43	0x3b334ce8	0.0027359072
44	0xba508c8b	-0.0007955513
45	0x3c0d0fad	0.008609694
46	0x3bf3b01b	0.007436765
47	0x3c485df2	0.01222943
48	0x3ca2034f	0.019776968
49	0x3c8dad83	0.01729465
50	0x3c088bb4	0.008334089
51	0xbc1b3e94	-0.009475369
52	0x3c2f42fe	0.0106971245
53	0xbcdd9fbd	-0.027053708
54	0x3bd01b1e	0.006350889
55	0x3c274faa	0.0102118645

exp_avg_sq f4 [7, 8]
0	0x3abc2742	0.0014354961
1	0x3aa5d96a	0.0012653295
2	0x3ab43c70	0.0013750922
3	0x3ab422fd	0.0013743337
4	0x3aac2cdd	0.0013135929
5	0x3ad64b7f	0.0016349404
6	0x3b022cd1	0.0019863138
7	0x3aca4fa8	0.0015435116
8	0x3b43c6db	0.0029873166
9	0x3b4edef8	0.0031566005
10	0x3b32f692	0.0027307612
11	0x3b41f443	0.0029595054
12	0x3b378401	0.0028002264
13	0x3b5bac9a	0.0033519627
14	0x3b4bf34d	0.003112036
15	0x3b410ee1	0.0029458331
16	0x3ba8c6c9	0.00515065
17	0x3b91f862	0.0044546584
18	0x3bb8df30	0.0056418404
19	0x3b887ebb	0.004165498
20	0x3b8ca5b0	0.0042922124
21	0x3baba79e	0.0052384874
22	0x3b887ed0	0.004165508
23	0x3b93b8f3	0.0045081316
24	0x3ad5bdf2	0.0016307218
25	0x3ab656c7	0.001391136
26	0x3a9efad6	0.0012129198
27	0x3aafa7f6	0.0013401497
28	0x3ab027ab	0.0013439556
29	0x3ad5a50d	0.0016299799
30	0x3aae640e	0.0013304965
31	0x3aaeff37	0.0013351206
32	0x3aa9d9c3	0.0012958575
33	0x3ab4a574	0.0013782219
34	0x3aa80f3f	0.0012821927
35	0x3abab504	0.0014244621
36	0x3ad2ed43	0.0016092438
37	0x3ac0232f	0.0014658923
38	0x3ac0cce2	0.0014709497
39	0x3aaa2728	0.001298164
40	0x3b312d71	0.0027035142
41	0x3b1d54ce	0.0024006846
42	0x3b1d1981	0.00239715
43	0x3b18e4a9	0.0023329651
44	0x3b2596a6	0.0025266795
45	0x3b5c90f0	0.0033655725
46	0x3b1a9ad9	0.0023590832
47	0x3b1fc8b6	0.0024381108
48	0x3b57f19c	0.0032950407
49	0x3b541bff	0.003236532
50	0x3b61e2b0	0.0034467392
51	0x3b3cd705	0.0028814685
52	0x3b42232c	0.0029623015
53	0x3b72c757	0.0037045085
54	0x3b56088a	0.0032658898
55	0x3b7d8418	0.003868347

exp_avg f4 [7]
0	0xbb7917c1	-0.0038008543
1	0xbc4c4fb9	-0.012470179
2	0xbba40453	-0.0050053983
3	0xbbcfe282	-0.0063441405
4	0xbb9f41f2	-0.004860156
5	0x3c164d64	0.009173725
6	0xbc575010	-0.013141647

exp_avg_sq f4 [7]
0	0x3ad1bed6	0.0016002308
1	0x3b32732d	0.0027229295
2	0x3b9b0315	0.004730592
3	0x3ab306b9	0.001365862
4	0x3aa8803b	0.0012855598
5	0x3b277139	0.0025549664
6	0x3b3f302c	0.0029173

exp_avg f4 [8, 7]
0	0xbb211f0f	-0.0024585163
1	0xbc1eebe3	-0.009699794
2	0x3be7a588	0.0070692934
3	0xbcd91d93	-0.02650336
4	0x3ad8ab2d	0.0016530507
5	0x3c0b33f2	0.008496271
6	0x3aa95a58	0.0012920601
7	0xbc228828	-0.0099201575
8	0xbc025c9a	-0.007956648
9	0xbbd24dce	-0.0064179664
10	0x3c2739cf	0.010206654
11	0x3c8e6644	0.017382748
12	0xbc6bb0b6	-0.014385393
13	0xbafad4c6	-0.0019136898
14	0xbb3dc86a	-0.0028958567
15	0xbb092814	-0.002092843
16	0xbc412785	-0.011789207
17	0xbafc3a4c	-0.0019243448
18	0xbb8afddc	-0.004241688
19	0xbbb9f8d5	-0.005675415
20	0x36e89393	6.9313187e-06
21	0xbc5487f6	-0.012971869
22	0xbaa949a8	-0.0012915628
23	0x3bc1d22e	0.005914948
24	0xbbbdfe4a	-0.005798136
25	0xb973b5cf	-0.00023242015
26	0x3ba6e03b	0.0050926483
27	0xbc5c241e	-0.013436345
28	0x3c0c2df0	0.008555874
29	0x3c5d51f3	0.013508308
30	0xbc217b57	-0.009856067
31	0x3c5b8a1d	0.013399628
32	0x3b9acd3a	0.004724172
33	0x3a982d44	0.001161017
34	0xbaaa3b65	-0.0012987672
35	0x3b2fe8df	0.0026841683
36	0x3b9e8fce	0.00483892
37	0xbb209b28	-0.0024506543
38	0x3b23bc58	0.0024984088
39	0x3b259277	0.0025264302
40	0xbb08414b	-0.002079087
41	0xbbbe717f	-0.0058118696
42	0xbcb10515	-0.021608869
43	0xbc64b22b	-0.013958494
44	0x3b37b32a	0.0028030374
45	0xbc76381d	-0.015028027
46	0x3c3d31f5	0.011547555
47	0x3acd6e05	0.0015673047
48	0xbb6df468	-0.0036309008
49	0x3bdc5193	0.0067235916
50	0x3ba4f0f3	0.005033606
51	0xbbe99d4c	-0.007129347
52	0x3c0714f0	0.008244738
53	0x3c18533a	0.0092971865
54	0xbc8e3b14	-0.017362155
55	0xbb3e5f37	-0.0029048452

exp_avg_sq f4 [8, 7]
0	0x3afcfa0b	0.0019300593
1	0x3a4e921e	0.00078800495
2	0x3a2295ac	0.00062021124
3	0x3affe008	0.0019521723
4	0x3ae9b873	0.0017831459
5	0x3a83576f	0.0010020564
6	0x3a3cf11d	0.00072075595
7	0x3ab5e426	0.0013877198
8	0x3a404a7c	0.0007335318
9	0x3a1876eb	0.000581606
10	0x3a991bc9	0.0011681254
11	0x3ad0ca0a	0.0015929353
12	0x3a4b291a	0.000774996
13	0x3a1dd5bf	0.00060209254
14	0x3b14c1f2	0.0022698608
15	0x3a9f5b45	0.0012157938
16	0x3a7a6d95	0.0009553072
17	0x3af9335f	0.0019012502
18	0x3b2733cc	0.002551305
19	0x3aa5c569	0.0012647334
20	0x3a559fe3	0.000814913
21	0x3b09aff8	0.0021009427
22	0x3a8feb11	0.001098009
23	0x3a5c6f98	0.0008408963
24	0x3af09904	0.0018356149
25	0x3b1fbc70	0.0024373792
26	0x3a919fe5	0.0011110274
27	0x3a548e26	0.000810834
28	0x3b033a5f	0.0020023806
29	0x3a802425	0.0009776397
30	0x3a59cfbd	0.00083088485
31	0x3adb0747	0.0016710543
32	0x3b2ed019	0.002667433
33	0x3aa15b64	0.0012310562
34	0x3a421b20	0.00074045546
35	0x3af31b77	0.0018547614
36	0x3a8305cc	0.0009996234
37	0x3a53aea3	0.0008075034
38	0x3acfaa4f	0.0015843603
39	0x3b68b4c4	0.0035508135
40	0x3a87e3f7	0.0010367621
41	0x3a4c2955	0.00077881414
42	0x3b21e0eb	0.0024700712
43	0x3a851ca3	0.0010155629
44	0x3a47565f	0.0007604118
45	0x3af1d88f	0.001845138
46	0x3b1b1d85	0.0023668718
47	0x3a9e1b09	0.00120625
48	0x3a595922	0.0008291175
49	0x3ac573ae	0.0015064382
50	0x3a69f9d8	0.0008925474
51	0x3a3e8324	0.0007267466
52	0x3ab6b00c	0.0013937964
53	0x3b040430	0.0020144098
54	0x3a7f85c8	0.0009747413
55	0x3a3d133b	0.00072126434

exp_avg f4 [8]
0	0xbc04cae2	-0.008105012
1	0x3b92dc9a	0.004481864
2	0x3a0ce79d	0.0005375089
3	0x3a97499c	0.0011542323
4	0xbbfb1724	-0.0076626707
5	0x3c0e31d9	0.008678877
6	0x3bca482a	0.0061731534
7	0xbb879782	-0.004137934

exp_avg_sq f4 [8]
0	0x3aab2618	0.0013057617
1	0x3aa86a81	0.0012849123
2	0x3b0627d0	0.0020470507
3	0x3afda347	0.0019351029
4	0x3af99c88	0.0019043842
5	0x3af765b5	0.0018874916
6	0x3aebc84c	0.001798877
7	0x3abcf04b	0.0014414875
