runs/results_for_RL_paper/gridSamples_sumf5_ae1_trial1_enc_linear_dec_linear_no_predictor_latentd_8_bs_10_lr_0_001_w_l1_0p01_to_enc/checkpoints/epoch=225-total_val_loss=0.00.ckpt (torch, 11375 bytes, 12 tensors)

submodules.encoder.0.weight f4 [8, 8]
0.15721959 0.35974687 0.2270782 0.46525133 7.423254e-05 8.5120104e-05 0.000113959395 0.00011133615
-4.009535e-05 -1.18670205e-05 -0.2564782 -2.9847863e-05 -2.8587363e-05 -3.8330894e-05 -6.83324e-06 -9.334923e-06
0.0001228857 0.00021259449 0.16830975 0.00021377893 0.4415254 0.03495274 0.00021937813 0.00017012449
-0.47312772 -0.07622761 3.8494894e-05 3.9504926e-07 -0.05958974 -0.39080456 2.3927167e-05 -2.3497707e-05
-0.000109863104 -4.5931105e-05 -0.0001438784 -0.00014772508 -0.07928028 -0.25347352 -0.060785368 -0.25940606
-0.00010279222 -0.012514626 -0.046237424 -0.000100253455 -7.052891e-05 -0.00010659442 -0.025489975 -0.32252175
0.00011021096 0.11867752 -1.1246724e-05 -0.047135614 9.7633005e-05 6.13134e-05 7.2622424e-05 8.6282846e-05
0.035444085 -4.1592368e-05 -4.148119e-05 -0.27304158 -1.557001e-05 -2.8880273e-05 -0.18059288 -9.391064e-06
00000000: 2cfe 203e be30 b83e 3087 683e 6c35 ee3e
00000010: 4bad 9b38 8282 b238 7cfd ee38 247d e938
00000020: 0e2c 28b8 7718 47b7 1c51 83be cc61 fab7
00000030: e5ce efb7 7cc5 20b8 1649 e5b6 309d 1cb7
00000040: e1da 0039 e6eb 5e39 6459 2c3e d829 6039
00000050: 9e0f e23e 9b2a 0f3d de08 6639 7263 3239
00000060: cc3d f2be 391d 9cbd 9475 2138 2817 d434
00000070: 5f14 74bd 8917 c8be 33b7 c837 f11c c5b7
00000080: 4e66 e6b8 26a6 40b8 10de 16b9 a6e6 1ab9
00000090: b35d a2bd 48c7 81be 14fa 78bd dfd0 84be
000000a0: 2792 d7b8 250a 4dbc 7463 3dbd 2a3f d2b8
000000b0: ece8 93b8 728b dfb8 5ad0 d0bc 9221 a5be
000000c0: 0f21 e738 330d f33d 50b0 3cb7 4611 41bd
000000d0: 52c0 cc38 6295 8038 de4c 9838 c0f2 b438
000000e0: d12d 113d 7773 2eb8 17fc 2db8 1bcc 8bbe
000000f0: 589c 82b7 ea43 f2b7 57ed 38be 508e 1db7

submodules.encoder.0.bias f4 [8]
0.004399189 -0.0040944945 0.003199373 -0.0044350233 -0.0049022143 -0.0012190385 -0.0039905775 0.0038370693
00000000: 1227 903b 1c2b 86bb 92ac 513b ac53 91bb
00000010: c1a2 a0bb 25c8 9fba 64c3 82bb 5777 7b3b

submodules.decoder.0.weight f4 [8, 8]
0.47374308 -0.026727764 0.38897467 0.2379443 -0.4962271 0.30226198 -0.1414529 -0.51797014
0.5843507 0.24562033 0.013703957 -0.10643386 -0.15845081 -0.2792019 -0.47433656 -0.137295
0.15080246 0.32134157 0.33975634 -0.20116009 -0.33614293 -0.0694307 -0.22394228 -0.59231997
0.18050241 -0.36907548 0.050331663 0.010015817 -0.5577484 0.03854936 0.28994927 -0.7059466
-0.22989479 -0.86644757 0.3183009 -0.7413963 0.20017958 -0.3522966 0.07858386 -0.21559891
0.118046425 0.25255817 0.45340553 -0.3198316 -0.44620633 -0.08342201 0.6179431 0.1443073
0.192353 -0.43757653 0.02328905 -0.35836288 -0.0008541078 -0.60813284 -0.1034204 -0.09776254
0.16156214 0.31195936 0.39096338 -0.3853524 -0.32025224 -0.6524583 0.54413027 0.63753337
00000000: 748e f23e 2ff4 dabc b027 c73e aca7 733e
00000010: 7a11 febe 15c2 9a3e 07d9 10be b199 04bf
00000020: 0298 153f e583 7b3e 9086 603c fff9 d9bd
00000030: ee40 22be 8df3 8ebe 3edc f2be 0f97 0cbe
00000040: f66b 1a3e e286 a43e 8bf4 ad3e e9fc 4dbe
00000050: ed1a acbe af31 8ebd 2051 65be 48a2 17bf
00000060: a0d5 383e 76f7 bcbe 9328 4e3d 6219 243c
00000070: 99c8 0ebf efe5 1d3d 3b74 943e ebb8 34bf
00000080: 8a69 6bbe 82cf 5dbf 56f8 a23e 26cc 3dbf
00000090: e0fb 4c3e 3860 b4be 93f0 a03d f6c5 5cbe
000000a0: 53c2 f13d 4e4f 813e c524 e83e f8c0 a3be
000000b0: 2875 e4be 29d9 aabd 8531 1e3f 4bc5 133e
000000c0: 2ff8 443e 080a e0be aec8 be3c 577b b7be
000000d0: 34e6 5fba 98ae 1bbf 13ce d3bd ba37 c8bd
000000e0: 8c70 253e 23b9 9f3e 5a2c c83e e94c c5be
000000f0: 1af8 a3be 8207 27bf 1f4c 0b3f 6335 233f

submodules.decoder.0.bias f4 [8]
-0.0035862322 -0.004598387 -0.0014267513 -0.0015422768 -0.005043447 -0.0025373967 -0.0052523143 -0.004929402
00000000: fe06 6bbb 11ae 96bb d401 bbba 3926 caba
00000010: 8043 a5bb 744a 26bb 9b1b acbb d286 a1bb

exp_avg f4 [8, 8]
-0.0010378616 -0.0010378616 -0.0010378616 -0.0010378616 -0.009707916 -0.00872831 -0.005641582 -0.005921955
0.0009949552 -0.001583042 -0.008662942 -0.0001614402 0.0009949363 -0.0015670961 0.00081444526 -0.001583042
-0.0037282004 -0.0052757952 -0.0024393217 -0.005815708 -0.0024393217 -0.0024393217 -0.005815708 -0.005695379
-0.0003653072 -0.0003653072 0.003186151 -0.0002609553 -0.0003653072 -0.0003653072 0.0017333269 -0.00025902095
0.018029414 0.015947301 0.018236361 0.017700106 0.011392656 0.011392656 0.011392656 0.011392656
0.0034280976 0.0005660405 0.0005660405 0.0040564146 0.003432044 0.0021247317 0.0005660405 0.0005660405
-0.015058542 -0.0049103433 -0.015740968 -0.02491034 -0.014236801 -0.01508194 -0.016253311 -0.016438587
0.019286575 0.008952507 0.008945716 -0.0007134176 0.00862867 0.00813572 -0.0007134176 0.007934811
00000000: db08 88ba db08 88ba db08 88ba db08 88ba
00000010: f30d 1fbc 2f01 0fbc 05dd b8bb f60c c2bb
00000020: 2869 823a 137e cfba 03ef 0dbc 4648 29b9
00000030: 8668 823a 0567 cdba 7f80 553a 137e cfba
00000040: d354 74bb 94e0 acbb 07dd 1fbb b291 bebb
00000050: 07dd 1fbb 07dd 1fbb b291 bebb 4da0 babb
00000060: b486 bfb9 b486 bfb9 bece 503b d4d0 88b9
00000070: b486 bfb9 b486 bfb9 cd30 e33a 34cd 87b9
00000080: 6cb2 933c eaa3 823c 6c64 953c d0ff 903c
00000090: 43a8 3a3c 43a8 3a3c 43a8 3a3c 43a8 3a3c
000000a0: efa9 603b 5662 143a 5662 143a aceb 843b
000000b0: 25ec 603b 153f 0b3b 5662 143a 5662 143a
000000c0: 1ab8 76bc f2e6 a0bb 34f3 80bc c510 ccbc
000000d0: 7941 69bc 3e1a 77bc aa25 85bc 37aa 86bc
000000e0: e1fe 9d3c 89ad 123c 0d91 123c a504 3bba
000000f0: 445f 0d3c af4b 053c a504 3bba 0201 023c

exp_avg_sq f4 [8, 8]
0.009023768 0.009023768 0.009023768 0.009023768 0.0095795 0.009936044 0.009609899 0.0099826185
0.01631304 0.015586453 0.014885035 0.016411604 0.015679674 0.016384013 0.015923988 0.015866505
0.008294607 0.008281009 0.007628261 0.008253685 0.007628261 0.007628261 0.008330309 0.008310358
0.011074014 0.011074014 0.011875258 0.011569299 0.011074014 0.011074014 0.011865289 0.011883043
0.014279063 0.013953567 0.0142865805 0.01423587 0.013309055 0.013309055 0.013309055 0.013309055
0.012414323 0.011556025 0.011556025 0.012435836 0.012334433 0.012150598 0.011556025 0.011556025
0.012385249 0.011438058 0.0124631245 0.011511884 0.012610872 0.012365411 0.011913921 0.012359384
0.021176675 0.022806698 0.022856355 0.02105944 0.022706123 0.02256912 0.02105944 0.022775412
00000000: 6dd8 133c 6dd8 133c 6dd8 133c 6dd8 133c
00000010: 56f3 1c3c caca 223c d672 1d3c 238e 233c
00000020: eda2 853c 525e 7f3c 5de0 733c a171 863c
00000030: a972 803c c437 863c 0673 823c 79fa 813c
00000040: 1ae6 073c 12ad 073c 7ef6 f93b 773a 073c
00000050: 7ef6 f93b 7ef6 f93b d97b 083c 2b28 083c
00000060: c86f 353c c86f 353c 7190 423c 288d 3d3c
00000070: c86f 353c c86f 353c a166 423c 18b1 423c
00000080: bbf2 693c 809d 643c 4312 6a3c 913d 693c
00000090: 390e 5a3c 390e 5a3c 390e 5a3c 390e 5a3c
000000a0: 7265 4b3c 7b55 3d3c 7b55 3d3c adbf 4b3c
000000b0: 5d16 4a3c 4d13 473c 7b55 3d3c 7b55 3d3c
000000c0: 80eb 4a3c b166 3b3c 2232 4c3c 579c 3c3c
000000d0: d59d 4e3c 4b98 4a3c 9b32 433c 047f 4a3c
000000e0: b57a ad3c 1dd5 ba3c 403d bb3c d984 ac3c
000000f0: 3102 ba3c e0e2 b83c d984 ac3c 8093 ba3c

exp_avg f4 [8]
0.017672334 0.0159695 0.002566711 0.020370102 -0.019949885 0.022385577 -0.012603348 -0.026961057
00000000: 92c5 903c 78d2 823c 4436 283b 33df a63c
00000010: f16d a3bc f561 b73c 467e 4ebc 6fdd dcbc

exp_avg_sq f4 [8]
0.0045547737 0.008637773 0.003941122 0.005610916 0.0068527493 0.0060599376 0.0062130154 0.010957133
00000000: 3640 953b 7285 0d3c 8724 813b c6db b73b
00000010: 078d e03b 7192 c63b 8d96 cb3b 8c85 333c

exp_avg f4 [8, 8]
-0.003937406 0.0007957457 -0.0020584904 0.0032913177 0.002060051 0.0013792809 -0.00033075432 0.0014264819
0.00030631165 -0.0001006929 0.00014354024 -0.00022271865 -0.0001842449 -0.00010631461 -8.857752e-05 -2.4172567e-05
-0.0046508117 0.0009856124 -0.0024459914 0.0038587628 0.002458444 0.001588935 -0.0003223246 0.0016200328
-0.018168934 0.003817976 -0.009690073 0.015038503 0.00973947 0.00613249 -0.0011180727 0.006325736
0.0040893904 -0.0008717056 0.0022263867 -0.003433185 -0.0021772806 -0.001406595 0.00029923208 -0.0014626741
-0.020820346 0.0044423714 -0.011092363 0.017198775 0.011223812 0.0069965273 -0.0011558861 0.007169435
-0.016515242 0.0035648628 -0.0088722985 0.013667085 0.008983094 0.005502314 -0.00088375824 0.00560229
-0.006527069 0.0014001388 -0.0034494752 0.005361453 0.0035324336 0.0021611953 -0.00033339296 0.0022416317
00000000: 5b05 81bb 9799 503a bde7 06bb 26b3 573b
00000010: ec01 073b fdc8 b43a 1869 adb9 caf8 ba3a
00000020: 7498 a039 172b d3b8 4a83 1639 9589 69b9
00000030: dd31 41b9 39f5 deb8 b2c2 b9b8 31c6 cab7
00000040: d665 98bb aa2f 813a ed4c 20bb 4ce3 7c3b
00000050: d91d 213b d043 d03a adfd a8b9 4857 d43a
00000060: 04d7 94bc 0237 7a3b 1dc3 1ebc 0e64 763c
00000070: 4c92 1f3c 0ef3 c83b 4b8c 92ba 1f48 cf3b
00000080: 4b00 863b 2c83 64ba 92e8 113b 49ff 60bb
00000090: b5b0 0ebb 7f5d b8ba 40e2 9c39 33b7 bfba
000000a0: 6e8f aabc 5091 913b bebc 35bc 72e4 8c3c
000000b0: 14e4 373c 2043 e53b 1a81 97ba 94ed ea3b
000000c0: f94a 87bc 79a0 693b 1e5d 11bc e9eb 5f3c
000000d0: d42d 133c c14c b43b 03ac 67ba 6a93 b73b
000000e0: 06e1 d5bb dd84 b73a 9710 62bb 21af af3b
000000f0: 6780 673b d7a2 0d3b 3fcb aeb9 57e8 123b

exp_avg_sq f4 [8, 8]
0.015536706 0.00093683775 0.005735661 0.010107538 0.0051484737 0.00284127 6.2008156e-05 0.0016313143
0.015289015 0.00092132186 0.0056512645 0.009934572 0.0050675254 0.002801549 6.2305466e-05 0.0016025857
0.014975533 0.0009063601 0.00556581 0.009721804 0.0049769613 0.0027689186 6.1672115e-05 0.0015669634
0.015197307 0.0009205721 0.0056620613 0.009870048 0.0050556683 0.0028188818 6.2756284e-05 0.001592272
0.01534168 0.0009278 0.0056854743 0.009959316 0.005092614 0.0028250748 6.29047e-05 0.0016071446
0.0152017055 0.0009221426 0.0056326543 0.009869272 0.005047986 0.0027974583 6.157602e-05 0.0015913532
0.015335945 0.0009259798 0.005670142 0.009959904 0.0050856 0.0028130005 6.230007e-05 0.0016057993
0.015463606 0.00093369035 0.005703725 0.010048816 0.0051229782 0.0028254068 6.1956256e-05 0.0016200353
00000000: ab8d 7e3c 1e96 753a 36f2 bb3b 169a 253c
00000010: 87b4 a83b 9a34 3a3b 600a 8238 d3d1 d53a
00000020: c77e 7a3c dd84 713a 3e2e b93b 9dc4 223c
00000030: 7c0d a63b 319a 373b fea9 8238 da0d d23a
00000040: f05b 753c cc98 6d3a 6661 b63b 3448 1f3c
00000050: c715 a33b bf76 353b f755 8138 9162 cd3a
00000060: 20fe 783c 8c52 713a d088 b93b fbb5 213c
00000070: 05aa a53b fdbc 383b 069c 8338 c8b3 d03a
00000080: ab5b 7b3c 9b37 733a 374d ba3b 662c 233c
00000090: f1df a63b e424 393b b4eb 8338 d3a6 d23a
000000a0: 9310 793c f1bb 713a 2192 b83b bab2 213c
000000b0: 9369 a53b 9055 373b 6022 8138 f494 d03a
000000c0: 9e43 7b3c 74bd 723a 99cc b93b dd2e 233c
000000d0: 1ba5 a63b 515a 383b 18a7 8238 af79 d23a
000000e0: 115b 7d3c e6c2 743a 50e6 ba3b caa3 243c
000000f0: a8de a73b 762a 393b 83ee 8138 5d57 d43a

exp_avg f4 [8]
0.018135078 0.014706165 0.009093513 0.014022965 -0.010182991 -0.0053018383 -0.021661839 -0.0059763333
00000000: 0490 943c 20f2 703c f5fc 143c 94c0 653c
00000010: 8fd6 26bc 0bbb adbb 2b74 b1bc 1ed5 c3bb

exp_avg_sq f4 [8]
0.0046557416 0.004845326 0.004846967 0.004941962 0.00481498 0.0048952936 0.0047367928 0.004629839
00000000: 318f 983b 8ac5 9e3b 4ed3 9e3b 2ff0 a13b
00000010: fbc6 9d3b b368 a03b 1937 9b3b e8b5 973b
