runs/results_for_RL_paper/best_SupSimpleAE_2_ldim2_gridData_sumf5/best_SupSimpleAE_2_ldim2_gridData_sumf5.pth (torch, 11442 bytes, 11 tensors)

encoder.layers.0.weight f4 [75, 5]
000000 d1 d7 4b 3d 7c c6 14 3e f1 a2 c3 3d 53 d1 b5 3e
       0.049766365 0.14528841 0.09552563 0.35511264
000010 95 22 9a be 60 48 3b 3e 74 a3 75 be 18 f1 23 3d
       -0.3010451 0.18289328 -0.23988134 0.040024847
000020 78 b4 e9 be 67 32 bb 3e bd 5c 31 be 48 ca 02 3e
       -0.456455 0.3656189 -0.17320533 0.12772477
000030 43 26 05 bd 8a f4 04 bf 0d e8 72 3e 6a 53 23 3e
       -0.032507192 -0.51935637 0.23721333 0.15949789
000040 1a d8 99 ba 8f c6 1d bd f7 51 e5 3e 21 22 8b 3e
       -0.0011737377 -0.03851944 0.44789097 0.27174476
000050 8e 7b 55 3d 8a fb 9f bd ae 2b d2 be aa 42 b3 be
       0.052119784 -0.07811649 -0.4104895 -0.35011798
000060 ea 5a f5 bd 02 0c 47 bd c7 e7 ba be c8 a9 82 3e
       -0.11980231 -0.048595436 -0.36504957 0.25520158
000070 ae 36 99 be 99 9b b8 be 43 4a a1 be 05 95 89 3c
       -0.2992453 -0.36056212 -0.3150197 0.01679469
000080 bd 00 aa 3e c4 47 c3 3d 5c ca cf 3e 20 52 d7 bd
       0.33203688 0.095351726 0.40584075 -0.10513711
000090 8d e4 95 be a4 bf c6 be 0f 7b d6 be a1 9a d4 be
       -0.29275933 -0.38818085 -0.4189076 -0.41524222
0000a0 47 8e e2 3e 29 ff 7a 3e 1d 35 8a 3c 50 d3 97 3e
       0.44249174 0.24511398 0.01687103 0.29653406
0000b0 82 05 68 bc 82 81 6c 3e 4a e4 2f 3e 97 bf 74 3e
       -0.014161469 0.23096278 0.17176929 0.2390121
0000c0 d0 5c 1d 3e 79 dc 4a bd 4c 3f 60 bd 14 6c 39 3e
       0.15367436 -0.049526665 -0.054747865 0.18107635
0000d0 2d 86 03 3e 73 62 28 3a 60 47 3a be 7a 11 6b be
       0.12844153 0.00064233615 -0.1819129 -0.22955886
0000e0 70 12 36 3e 96 ef a9 be 50 8f 9d be fd 9e 8e be
       0.17780471 -0.33190602 -0.307734 -0.27855673
0000f0 82 3a 35 be ed 1d 56 be 78 45 8e 3e bb a3 a1 be
       -0.176981 -0.20909853 0.27787375 -0.3157023
000100 4a bc 2f bd be 77 05 b6 8c 4f 2e 36 6a 44 7a 35
       -0.042904176 -1.9888244e-06 2.5974323e-06 9.3231813e-07
000110 8c 24 4e b2 cc a6 02 36 28 dd 54 3b 50 12 c4 b9
       -1.1999088e-08 1.9468598e-06 0.0032480452 -0.00037397677
000120 68 12 91 3b 97 db 89 b8 39 88 07 bb 81 39 50 be
       0.004427243 -6.573571e-05 -0.002068056 -0.20334436
000130 1c 3a bc be a9 38 9c 3e 47 ac b6 3d 67 45 6a 3d
       -0.36763084 0.30511978 0.08919578 0.057195093
000140 a9 7c fa bb b8 07 9c 3b 35 e2 5a 3c b8 9b de bb
       -0.007644255 0.0047616623 0.013359596 -0.0067934655
000150 ea b7 d8 3a 82 22 4d be 66 6f a3 be f1 53 ba 3d
       0.0016534303 -0.20032695 -0.31920928 0.09098042
000160 03 d4 81 3d 66 d7 8a bc a9 1c e2 3e 0b 02 97 3e
       0.06339266 -0.016948413 0.4416249 0.29493746
000170 1b 65 a3 3c eb b7 73 3e 6a 1c 68 3d d9 33 7c 3e
       0.019945672 0.23800628 0.056667723 0.24629153
000180 76 dd 89 be 46 74 27 3e f5 f5 49 3e 7c 34 24 3e
       -0.26926774 0.16352949 0.19722731 0.16035646
000190 b8 8e a7 be 19 ca c4 be 14 72 64 3e 54 4b 46 be
       -0.32726073 -0.38435438 0.22309142 -0.19364673
0001a0 5a 58 07 3e 0a fd ae 3e a9 c8 5e 3e 66 ce 3e 3c
       0.13217297 0.34177428 0.21756233 0.011645889
0001b0 f4 ae a6 3e e6 bd b7 3a 48 75 67 be 45 56 c5 3d
       0.32555354 0.0014018386 -0.22603333 0.09635595
0001c0 5f fe 85 bd 2d 11 5b be 9d 8c ee 3d e3 c9 2e be
       -0.06542658 -0.21393271 0.116479136 -0.17069201
0001d0 e0 89 89 be 25 2d c5 be 9e bf 8d be c0 c6 c2 3e
       -0.26863003 -0.38511005 -0.27685255 0.3804226
0001e0 bc b9 0e be 38 d9 1e be 8c 53 90 bd ac 8b 9c 3d
       -0.1393804 -0.1551255 -0.07047185 0.07643828
0001f0 53 24 56 bb 9c dc 8b 3d 12 99 b4 3d bc 29 db be
       -0.003267546 0.06829187 0.08818258 -0.42805278
000200 f7 14 f2 3d 9e 26 d1 3e b7 5b b5 b9 71 8d 11 3b
       0.11820405 0.40849775 -0.00034591343 0.002220955
000210 07 17 4e 3b c9 f0 ad 3a d2 8f e0 ba a7 9b 1f be
       0.003144683 0.0013270612 -0.0017132706 -0.1558672
000220 e7 55 55 be eb b0 cc 3d e5 ae bf 3e 10 25 57 be
       -0.2083355 0.09994682 0.3743812 -0.21010232
000230 71 0e b1 3e d0 f0 02 3e f7 77 5d be b5 49 35 bd
       0.3458133 0.12787175 -0.21627794 -0.044259746
000240 2d b7 cd bd ba 5b bd 3d 75 8b 71 bd 5e a5 e0 be
       -0.10044704 0.09246011 -0.058970887 -0.43876165
000250 66 66 6d 3c a7 7e f3 3d fa bc 71 3e 46 1a 41 3d
       0.014489746 0.118893914 0.23607245 0.047144197
000260 d6 69 21 3e 87 db f5 3e aa db b8 3e 77 d6 af be
       0.1576303 0.4801905 0.3610509 -0.3434331
000270 d3 36 ba be ff c8 b8 3d 9a 55 97 bd 23 b4 f3 3e
       -0.36369953 0.09022712 -0.07389374 0.4759837
000280 89 74 8b be 9c 8f b5 3d 82 f3 ae 3e a5 42 7b 3e
       -0.27237347 0.08865282 0.34170157 0.24537142
000290 d3 de de bd 31 02 0b 3c e0 9d 6b be bb 0c 73 3e
       -0.10882344 0.008484409 -0.23009443 0.23735325
0002a0 99 94 00 bd 52 28 20 3e 88 9c 8f 3e 18 bd 00 3e
       -0.031391714 0.15640381 0.2804911 0.12572134
0002b0 0e d4 80 3e 6c 34 99 be f8 dd b3 3c be 59 1d 3e
       0.25161785 -0.29922807 0.021956429 0.15366265
0002c0 f7 5d 12 be 26 1f 34 3e d7 a0 88 3e 1d 85 0f be
       -0.14293657 0.17590007 0.2668521 -0.14015622
0002d0 7f 91 c8 3e 8d 5f 97 3e 8d 72 d7 be 2a ce 93 3d
       0.39173505 0.29565087 -0.42079583 0.07217057
0002e0 7c 07 11 3e c0 1e 9c 3e 9e fd 5c bd 19 82 79 3e
       0.14163011 0.3049221 -0.053952806 0.24366035
0002f0 57 a9 fb 3e db 06 92 bc 06 b4 ba be 5c f1 4a 3e
       0.49152634 -0.017825535 -0.36465472 0.19818634
000300 a5 a4 3d bd 0b 26 5b bd 46 ba 88 be 41 6b 1c be
       -0.046299595 -0.053503077 -0.26704615 -0.15275289
000310 bf 74 b7 3d 23 6d ac be 8e e9 ad be a1 ff 2e 3e
       0.089578144 -0.33677015 -0.3396725 0.17089702
000320 29 9a 44 be 22 90 0f 3e d0 0a 76 be c0 59 9b 3e
       -0.19199432 0.14019826 -0.24027562 0.3034191
000330 a1 2b 00 3d 06 b5 5a 3e 11 12 db bc 12 39 0e be
       0.031291608 0.21358117 -0.026742013 -0.13888958
000340 fc e9 4c 3d ab 60 5c 3e 9e 32 b0 3c c0 c0 a1 be
       0.050027832 0.21521251 0.021508511 -0.3159237
000350 4b 8d 9c 3e ae 4c c5 3e 18 9b af be a3 30 ce 3e
       0.30576548 0.38535064 -0.34298015 0.40271482
000360 40 b0 5f bd f1 9c db 3e 1b 0a 61 3d 51 29 9b 3d
       -0.054611444 0.42893174 0.054941278 0.0757624
000370 70 c1 b9 be 5f d7 85 3e ce 62 14 bd cc 04 ea 3e
       -0.36280394 0.26140878 -0.03622704 0.45706785
000380 74 31 4a 3e 12 37 6b bd c5 06 cc bd f4 d1 33 be
       0.19745427 -0.057425566 -0.09962229 -0.1756056
000390 e0 cf 8f 3e b5 87 6e 3e b0 80 08 be ec c6 bf be
       0.28088284 0.23293956 -0.1333034 -0.37456453
0003a0 1a 32 ef bd 07 1c dd 3c 0c 69 97 be 20 d2 db bd
       -0.11679478 0.026990904 -0.29572332 -0.107334375
0003b0 e3 c8 2b be 92 c3 81 3d ca 84 86 3e cb b5 65 be
       -0.16775851 0.0633613 0.26273185 -0.2243263
0003c0 28 c7 70 be 3f 63 4a 3d a2 e0 d3 be 3f f2 38 3d
       -0.23513472 0.049411055 -0.4138232 0.0451529
0003d0 5b c1 12 be b4 15 bd 3d 2b 49 10 be 31 fe da 3d
       -0.14331572 0.09232655 -0.14090411 0.106930144
0003e0 8e 48 53 bd 5f 64 64 be ae 51 37 3d c0 43 86 3d
       -0.051582865 -0.22303914 0.04475563 0.06555891
0003f0 e5 11 8a bd c3 b7 71 be 29 86 e2 3e 64 9c 1e 3e
       -0.06741694 -0.23605256 0.4424298 0.15489346

encoder.layers.0.bias f4 [75]
000000 fc 9f 3e bd 2f 25 1a be 97 ff 20 be b3 0c 92 3e
       -0.04653929 -0.15053247 -0.157225 0.28525314
000010 ae ba b3 be bb 7b c4 3e 67 e8 b3 3d c1 b5 b0 3d
       -0.35103363 0.3837565 0.087845616 0.08628417
000020 97 8a dc be 8e ce 96 3e 69 5e 49 be 32 e3 d1 3d
       -0.43074486 0.29454464 -0.19664921 0.10248412
000030 b3 67 9d 3e 13 a8 d1 b6 c1 29 34 bb 3e f8 48 be
       0.3074318 -6.248252e-06 -0.0027490708 -0.19625947
000040 fc 1d 0c bd 29 91 9d be 3d 8b 8f bd 0e eb 50 bd
       -0.034208283 -0.3077481 -0.070089795 -0.051005416
000050 e7 b1 0e be 42 e5 96 be 6e 67 c8 bd a0 43 9c bd
       -0.13935052 -0.29471785 -0.09785353 -0.07630086
000060 df 42 b8 3d 3c 62 1f 3e 7a 35 8a bc da 31 b6 be
       0.0899713 0.15564817 -0.016871203 -0.3558491
000070 45 5a 09 be 2f 00 aa 3e b7 e0 82 be ee ea a6 3e
       -0.13413341 0.33203265 -0.2556207 0.32601112
000080 6d 82 04 3e 4c e5 80 be 72 29 ca be 10 be dd 3e
       0.12940378 -0.2517494 -0.39484745 0.4330907
000090 0f c9 05 3e 60 a7 09 be 9b 07 8a 3c d5 e5 15 3e
       0.13064979 -0.13442755 0.01684933 0.14638455
0000a0 6e b4 82 be 2a f1 35 3e aa 77 11 bc 8e 28 ea 3e
       -0.25528282 0.17767778 -0.008878628 0.45734066
0000b0 91 ea 12 bd cf fd b6 be 17 0c 5c 3d 92 50 8d be
       -0.03586823 -0.35740516 0.053722467 -0.27600533
0000c0 bf 8a cb be 35 e2 be 3c 6e 9c 85 3e eb 42 83 3e
       -0.39754292 0.023301223 0.2609591 0.25636992
0000d0 c0 33 eb 3d b8 4a 74 3e e7 4e 9d be 8f c9 d6 3d
       0.1148448 0.23856628 -0.3072426 0.10487663
0000e0 b5 6b bb be c2 66 5e 3d a9 61 42 bc 8a 59 44 be
       -0.3660561 0.054297216 -0.011864104 -0.19174781
0000f0 15 47 b0 3e ba fa a1 3e 5c cf d0 bd 8b fd dc bd
       0.3442923 0.31636602 -0.10195801 -0.10790547
000100 b8 77 89 3e 27 50 f0 3d 77 f8 d4 3d 1a 66 08 bd
       0.2684915 0.11734038 0.103989534 -0.033300497
000110 b2 de de bd dd df 7c 3e 88 b4 eb 3e 35 c0 25 3e
       -0.108823195 0.24694772 0.46036172 0.16186602
000120 0d 40 e3 3e b9 6b 85 3e db 53 eb 3d
       0.44384804 0.26058748 0.114906035

encoder.layers.3.weight f4 [2, 75]
000000 fe 3d 05 3e 11 71 34 be 51 86 04 be d9 b8 fa 3d
       0.1301193 -0.17621256 -0.12941863 0.12242288
000010 92 8f 23 3d 76 8f 02 be f2 6f a3 bd ff cb 4f be
       0.03993184 -0.12750039 -0.07980336 -0.20292662
000020 8d 09 21 3e e6 37 b8 3d a1 1b b4 bb 2f 0f d8 3c
       0.157263 0.08995037 -0.0054964577 0.026374428
000030 5b 9d fd bd 5f 7d 3f 39 5f 08 06 bb 02 f8 c3 bd
       -0.12383529 0.00018261884 -0.0020451767 -0.09568788
000040 4b 97 bb 38 4e f9 45 bd c0 76 e7 3d 36 a5 4f bc
       8.9450354e-05 -0.04833346 0.11301947 -0.012673667
000050 92 31 a8 bd 1f 06 6d 3e 72 93 2d bd 0a 0a 2c be
       -0.0821258 0.23146866 -0.042376943 -0.16800705
000060 fd a7 3a bc 84 0b e0 3b 87 e9 19 bb 1c 75 12 3d
       -0.011392591 0.0068373103 -0.002348514 0.035756215
000070 66 eb c7 3d e6 04 8e 3d 86 89 e4 3d 84 61 0c be
       0.097616956 0.06934528 0.11159043 -0.13709074
000080 d4 1a 92 3d 89 36 0d be af 3d 64 bd 28 c4 b8 3d
       0.07134023 -0.13790335 -0.05572289 0.09021789
000090 26 d7 be 3d 8c 33 fc 3d ba a4 b0 bb f9 1f ec bb
       0.0931838 0.12314519 -0.0053907307 -0.00720596
0000a0 c7 bc 3c 3e e2 9a 91 3c b3 59 ea 3c 1e 59 20 3d
       0.18431388 0.01777405 0.028607225 0.03914749
0000b0 bf 79 d2 3d c2 3c 59 bd 9f 14 1c bd 8c fe 5c 3c
       0.102771275 -0.05303646 -0.038105603 0.013488423
0000c0 27 d0 09 3e 6d 99 04 3d a3 84 c1 bd 72 93 92 bd
       0.1345831 0.03237288 -0.094491266 -0.07157029
0000d0 a5 68 24 3c 6e 37 1d bd 05 02 14 be b1 8b 54 3e
       0.010034715 -0.03838294 -0.14453895 0.20756413
0000e0 23 85 d8 bb c4 14 0d 3d 7d c7 9e b9 1d 24 10 be
       -0.006607668 0.03444363 -0.0003028474 -0.14076276
0000f0 7f 19 9b 3c 4e fd 6c 3d a7 ea 6e 3d fb e5 93 bc
       0.018933056 0.057858758 0.05832925 -0.018054
000100 bc 58 aa 3d 3b 60 01 3e e3 22 80 3d a5 5f 8b bd
       0.08317706 0.12634365 0.06256654 -0.06805352
000110 b0 fa 8e 3c 1b 20 98 bc b7 42 ac 3d 98 24 0d 3e
       0.017453521 -0.018569997 0.08411162 0.1378349
000120 67 3c 20 3e 01 40 fd bd 23 b2 4b 3d a7 b1 a1 3d
       0.15648042 -0.123657234 0.04973043 0.078952126
000130 90 a7 cc bd 07 36 b6 bd 46 a7 c5 3d f3 c5 74 be
       -0.099928975 -0.08897024 0.096510455 -0.23903637
000140 e1 f6 62 3d a8 c1 0f 3e 90 d2 26 be b7 fb 7a bd
       0.055411223 0.14038718 -0.1629126 -0.06127521
000150 13 12 6d 3d 65 39 a3 3b 68 41 01 be b3 5f ae 3d
       0.057878565 0.004981207 -0.12622607 0.08514347
000160 69 0c 1e bb 42 8e 90 3a bf 31 19 3e f1 eb 19 3c
       -0.0024116284 0.0011028724 0.14960383 0.009394632
000170 95 e5 0f 3e 9e 33 6a bd cf 24 c4 3d 39 cc 1f bd
       0.14052422 -0.057178132 0.09577333 -0.03901312
000180 76 8f 4d bd 1e 48 92 bc bf 50 68 3d 18 dd 80 3d
       -0.050185643 -0.017856654 0.05671763 0.0629217
000190 45 0c 75 bd ba 40 4a bb e3 08 96 3d 94 18 2e be
       -0.059826154 -0.0030861334 0.07325914 -0.17001563
0001a0 6c c4 bc bd 7b de ec 3d 8a 7c ce 3d 3c a3 f8 3d
       -0.09217152 0.11565872 0.10082348 0.121405095
0001b0 6c ae 1c 3e 20 ef f6 bc 93 b4 ec 3d 9f 95 14 be
       0.15300912 -0.03014332 0.11557879 -0.14510201
0001c0 1a b2 e4 3d c7 b4 a2 3c 4f fe 0a be 2d 4f 99 bd
       0.11166783 0.019861592 -0.13573574 -0.07485805
0001d0 bd e8 57 bc bd 70 e1 3d a6 a7 c2 3d 8f b3 20 3e
       -0.013178048 0.11007831 0.09504633 0.15693496
0001e0 d7 d1 9c 3d 55 8c 8d 3c eb c3 a1 3d 45 98 28 be
       0.07657211 0.01727883 0.078986965 -0.16464336
0001f0 86 e7 d6 bb 0a 57 dc bb 6f 58 2f 3b 72 66 6c 3c
       -0.0065583615 -0.006724243 0.0026755591 0.014428722
000200 73 7d 9d 3c a9 2f f7 bb c9 ad 01 3e 23 72 24 be
       0.019224858 -0.0075435233 0.1266395 -0.16059165
000210 ba 7e 35 3e 96 20 39 3a ce 72 13 3c a3 c3 4e 3d
       0.17724124 0.00070620456 0.00899954 0.050479542
000220 07 e3 5e 3b d0 1b a9 3d eb e1 07 3d fe 8f 63 bd
       0.003400983 0.08257258 0.033174437 -0.055557244
000230 4e 25 64 3d 11 b0 0f 3e 37 43 86 bd 1f fc 3f be
       0.05569964 0.14032008 -0.06555789 -0.1874852
000240 ca f5 b7 3d 94 bc 8f 3d 24 ed 8b bd b3 a3 6d bd
       0.089824274 0.0701839 -0.0683234 -0.058017444
000250 4f ce 9f 3d b2 7e 79 bd
       0.07803022 -0.06091184

encoder.layers.3.bias f4 [2]
000000 2d 14 d3 3d 63 e8 9d bc
       0.103065826 -0.01927585

predictor.layers.0.weight f4 [75, 2]
000000 be 0a ae be c2 69 ef 3d 6d d6 dd 3e d3 61 07 bf
       -0.3399257 0.116900936 0.43327656 -0.5288364
000010 9b a1 8d 3e 36 c7 f9 3e 2a 2a 9c be 28 9e 6b 3d
       0.27662358 0.48784798 -0.3050092 0.057523876
000020 a0 43 0b bf 66 93 b6 be 6d 42 51 b8 80 bc 40 3a
       -0.5440006 -0.3565933 -4.9891347e-05 0.00073523074
000030 d4 c4 03 3e c7 a7 af 3e a1 e7 64 be e9 21 9f 3e
       0.12868053 0.3430769 -0.22353984 0.3108056
000040 17 13 c2 3e 7e 96 0b 3e 68 91 d4 3e 27 46 03 bf
       0.3790519 0.13631627 0.41517186 -0.5127892
000050 6f 9e 85 be 05 b9 8e be 9e 5b 54 3e 4e 7f 31 be
       -0.26097438 -0.27875534 0.20738074 -0.17333719
000060 4b 82 ee bc 77 85 0b bf 86 51 83 b8 3e 4b 68 b8
       -0.029114863 -0.54500526 -6.261752e-05 -5.5383185e-05
000070 35 9b 0a 3d 5f 5f af 3d 5f 06 8f be a6 42 95 be
       0.033839423 0.085631125 -0.27934548 -0.2915241
000080 d1 bc 29 3f d2 26 bb 3e f7 bb 04 bf a4 93 a5 be
       0.66303736 0.36553055 -0.5184931 -0.32339203
000090 a3 06 ef be a0 13 74 bc 34 54 ad 3e b1 1a 17 3f
       -0.4668475 -0.014897257 0.33853304 0.590251
0000a0 61 e6 3b be f2 f5 9e be f2 bd 52 3e 47 48 39 3c
       -0.18349601 -0.31047016 0.20580271 0.011308736
0000b0 e5 b9 78 be de ba 50 be 82 67 3f 3e dc 55 fb 3d
       -0.24289663 -0.20383784 0.18691829 0.12272236
0000c0 26 52 6c b9 d7 ad 60 b8 4b 43 e8 3d f8 78 19 3f
       -0.00022537317 -5.3567663e-05 0.1134096 0.5995021
0000d0 e3 38 58 b9 00 d6 0e b9 fd 42 41 3e de f3 16 be
       -0.00020620557 -0.00013621897 0.1887321 -0.14741465
0000e0 fa 8d 1a 3f cf a9 80 3d 8f b5 ea be 14 91 11 3f
       0.6037289 0.062823884 -0.45841643 0.56861997
0000f0 3a ef 30 ba 8a 8f 2a ba a3 07 bb 3d 22 5e 1d 3d
       -0.0006749515 -0.00065063743 0.09132316 0.03841985
000100 25 15 02 bb 6e 3b 0b b9 d6 a4 f9 bd ba 58 20 bf
       -0.001984903 -0.00013278212 -0.12189643 -0.62635386
000110 f8 b2 69 3b 61 1a a3 3a ad 2a 31 be 8c 35 8c 3e
       0.0035659652 0.0012443775 -0.17301436 0.27384603
000120 59 59 be 3e a0 8a 0e 3f 46 11 85 31 87 32 60 32
       0.37177542 0.55680275 3.872773e-09 1.3050005e-08
000130 30 ca 79 bd 18 b1 68 be 4a 00 cf 3e 83 06 f9 be
       -0.060983837 -0.22723806 0.40429908 -0.4863778
000140 9a 5e 06 bf 4c 24 d9 3e 21 7a b6 3e 14 df 30 bf
       -0.524881 0.42410505 0.35640052 -0.6909039
000150 8b 2d da be ed 0f 1d be 5e 7a 00 3f 22 42 ff bd
       -0.42612872 -0.15338106 0.5018672 -0.12463786
000160 7b 6a 95 38 1f ca 31 38 52 ab 0d b9 85 a7 89 b9
       7.124707e-05 4.238833e-05 -0.0001351063 -0.00026255488
000170 ed 1b a2 be 4f 51 27 3f 61 f3 d9 3e 4a 84 26 bf
       -0.3166193 0.6535844 0.42568496 -0.6504561
000180 61 0e 0a bf b4 5d 31 3f ba b2 64 3e e6 4c 1d bd
       -0.5392819 0.69283605 0.22333804 -0.038403414
000190 67 21 45 ba d9 21 0a ba 99 80 a7 3e 27 45 06 be
       -0.0007519931 -0.0005269326 0.327153 -0.13112317
0001a0 54 6d 1e 3e a4 59 e2 bd c8 df 2d bd 8e b8 69 3c
       0.15471393 -0.11052254 -0.042449743 0.014265193
0001b0 15 8e 42 b7 18 60 29 b7 d7 5e d4 3e 08 8a d7 3e
       -1.1596382e-05 -1.00955585e-05 0.41478607 0.42097497
0001c0 50 ab c4 3e b3 3f da bd f1 17 0a 3f bc e0 65 be
       0.3841195 -0.10656681 0.5394278 -0.2244901
0001d0 79 5c ae 3e d7 9c 9a be 38 96 29 3e 25 9a b1 3e
       0.34054926 -0.30197784 0.1656121 0.34687915
0001e0 c9 d2 35 3e 73 28 49 be a4 67 f2 be 63 18 ea 3e
       0.1775619 -0.19644336 -0.47344697 0.4572173
0001f0 76 8c 94 3e 0a 54 0c ba b0 55 b7 3e d5 a1 92 3e
       0.29013413 -0.0005353099 0.35807562 0.28639093
000200 ae 74 90 3e 56 59 92 3e 44 6e 36 3f d2 90 12 3f
       0.2821402 0.28583783 0.71262 0.5725223
000210 e5 e3 d2 3e c1 c6 7a be ef aa 03 3e 44 3d 63 be
       0.41189495 -0.24489881 0.12858175 -0.2219134
000220 56 92 ed be ad 4c a1 3d e6 05 f0 3e 9c 5a fa bd
       -0.46400708 0.07875953 0.468795 -0.122243136
000230 dc 4d 68 be c2 d1 0e bf 51 28 0c b4 55 ab 01 b9
       -0.22685951 -0.55788815 -1.3053183e-07 -0.00012366225
000240 ff e8 8d bd 77 8c 2e bf 38 cb 86 3d 20 5e 0b bf
       -0.06929206 -0.6818308 0.0658173 -0.544405
000250 1c ac c8 b5 f4 af 36 b4
       -1.4951252e-06 -1.7014082e-07

predictor.layers.0.bias f4 [75]
000000 21 38 08 be 94 84 c4 be 9f b0 41 3e 64 4b b7 3e
       -0.13302661 -0.383824 0.18915032 0.35799706
000010 38 b9 0f 3f 38 c3 2d bb 12 e2 e5 be 5d bd bb be
       0.56141996 -0.0026514065 -0.4489904 -0.3666791
000020 f0 5e 10 3e 7e bb cd 3d 94 b7 6c 3d e9 c9 d4 3e
       0.14098716 0.10045527 0.05779226 0.41560295
000030 a3 2f 2b be 59 6c e0 b8 4d 56 d7 bd b4 df 23 be
       -0.1671739 -0.00010701334 -0.105145074 -0.16003305
000040 a1 28 7c be aa 7d 80 3e f9 b8 31 be 52 e8 d4 3c
       -0.24624874 0.25095874 -0.17355718 0.025989685
000050 34 40 e7 bc 07 0b 2b 3e 53 2b d5 bd 24 47 74 3e
       -0.028228857 0.16703425 -0.10408654 0.23855263
000060 65 b8 2a ba dc 15 0b 3e 70 5d 8c b9 03 47 f4 be
       -0.0006512462 0.13582557 -0.00026772497 -0.47710428
000070 db 47 5a 3d e4 24 cb 3d ed b7 1c bb 9b f4 21 be
       0.053291183 0.09919146 -0.002391334 -0.15815966
000080 fb 3c 6a bb 77 15 00 bf ee 34 39 bc 9b 1f 75 be
       -0.0035741914 -0.5003275 -0.011304123 -0.23937838
000090 92 c8 a0 3e ce 20 9e b3 f1 d0 a9 3e 97 61 ed bd
       0.31403023 -7.3634155e-08 0.33167222 -0.115908794
0000a0 d9 31 f7 3e 4c 16 3c 3e 51 27 2d be b2 ce 01 bf
       0.48280218 0.1836788 -0.1690953 -0.50706017
0000b0 54 1c 3e b9 22 e0 50 ba d1 8a cc be bc 1d ef 3e
       -0.00018130365 -0.00079679687 -0.3994966 0.46702373
0000c0 e5 c2 bb be b5 31 02 3e 08 28 7a ba 16 71 da be
       -0.3667213 0.12714274 -0.0009542708 -0.42664403
0000d0 35 77 87 bc 04 07 5a 3d ec 19 8d b7 4e b1 17 3f
       -0.016536335 0.053229347 -1.682058e-05 0.5925492
0000e0 19 f1 04 3e c7 62 6f be b9 10 0a bf da d8 ba 3d
       0.12982596 -0.23377524 -0.53931767 0.091233924
0000f0 c3 5d 12 bf 5f cf 5e 3e ab 8e 3d 3e 8c 1c de 3e
       -0.5717432 0.21758793 0.18511455 0.43381155
000100 4f 4b 9f 3e 9b cb d2 3e ff 93 11 bf ed dd 63 3e
       0.31112143 0.41170964 -0.5686645 0.22252627
000110 a2 71 5b 3e ab e7 13 be bf f6 23 bf b7 ed d3 b9
       0.21430066 -0.14443843 -0.6404838 -0.00040422168
000120 0c cb 0e 3f 6d 3e 11 be ae 4f 09 b7
       0.55778575 -0.1418397 -8.184388e-06

predictor.layers.3.weight f4 [1, 75]
000000 9d fd 1f be eb cf fb bd 0d 45 fe 3d 60 6e 5c 3d
       -0.1562409 -0.122955166 0.12415514 0.0538162
000010 e0 3f 00 be ec 80 c9 b8 e6 11 86 bd 8d 5e 54 bd
       -0.12524366 -9.6084405e-05 -0.065463826 -0.051847983
000020 6c 54 0d 3e e3 f7 d4 bd 19 a7 43 be 5e 93 ac 3d
       0.13801736 -0.10398843 -0.19106711 0.084265456
000030 fc 37 a1 bd 67 d8 e3 37 f3 5b 84 b9 85 6d 2f be
       -0.07872006 2.7161279e-05 -0.0002524551 -0.17131622
000040 97 ea b6 3d c1 3d 8d bd 40 68 a1 bd a5 b3 eb 3d
       0.08931463 -0.06896544 -0.07881212 0.11508874
000050 1b 98 0c be 76 a7 32 3c 47 d7 11 be cd bb 12 3e
       -0.13729899 0.010904184 -0.14242278 0.14329453
000060 b1 1a b4 b9 df 15 cd 3d b4 fd 8d b8 af f3 0f be
       -0.00034352162 0.10013937 -6.77066e-05 -0.14057802
000070 3b ee ac 3d a5 53 f2 bd 51 ff b1 b9 ee 7b f7 ba
       0.08443876 -0.1183236 -0.00033950296 -0.0018881538
000080 d3 bf 92 ba 42 85 1e be d3 5a e7 3a 40 f3 f2 bd
       -0.0011196084 -0.15480521 0.0017650969 -0.118628025
000090 ae 21 0c 3e 88 e9 81 b4 bb 7a cd bd bd f7 fe bd
       0.13684723 -2.419804e-07 -0.100331746 -0.12449596
0000a0 b4 59 b3 bd 4d 8f 20 be d5 51 a3 bd 62 9d ae bd
       -0.08757344 -0.15679665 -0.079745926 -0.08526112
0000b0 ad f2 19 b8 ca f4 f9 38 8d 8b 01 be 15 b8 08 be
       -3.6704052e-05 0.00011918841 -0.1265089 -0.13351472
0000c0 58 93 20 be e6 ed e9 3c c8 7e c3 b6 f9 ec c0 bd
       -0.15681207 0.028555822 -5.826212e-06 -0.09420199
0000d0 3f 18 30 bd 8a 45 5a 3b 31 55 3e b5 5b 86 9a 3d
       -0.042991873 0.0033305609 -7.0904485e-07 0.075451575
0000e0 52 4d 92 3c 86 65 90 bd e9 cc ef bd 9b 4b 01 3e
       0.017859135 -0.07050614 -0.117090054 0.12626497
0000f0 f4 8b 48 be cb 46 8b bd 6e a1 dd bc 77 d8 2f 3e
       -0.19584638 -0.06800612 -0.027054515 0.17172419
000100 70 8a dd 3d 5d 8d c3 3d 9a 1a 1a be 1b a4 7d bd
       0.108174205 0.09548447 -0.1504921 -0.06192408
000110 83 40 31 bd 1b 90 3b bd 80 b6 43 be 0d b4 29 3a
       -0.043274414 -0.045791727 -0.19112587 0.0006473668
000120 a3 45 b0 bd 10 6d 6a be 02 20 db 32
       -0.08607032 -0.22893167 2.5509511e-08

decoder.layers.0.weight f4 [75, 2]
000000 10 85 92 bd c8 c3 c2 be 44 24 dd 3e 82 53 12 3f
       -0.07154286 -0.38039994 0.4319173 0.5715867
000010 c4 f4 f3 be ed 51 81 be 64 b8 df 3d 61 02 b1 be
       -0.4764768 -0.25257817 0.109238416 -0.34572127
000020 69 ce b3 3e 40 30 9f 3d 30 79 c1 3e c2 ea a2 3d
       0.35118416 0.07772875 0.3778777 0.07954933
000030 44 e7 51 3e ea 3e c7 3e 8b 57 7b 3d 09 dc 29 be
       0.20498377 0.38915187 0.061362784 -0.16587843
000040 b0 2b bb 3e 06 4f eb 3e 88 1d 8d 3e d7 a4 fe be
       0.36556768 0.45958728 0.27561593 -0.49735138
000050 ca db b4 be 20 24 c7 bb cf 3d 11 3f 85 10 12 bf
       -0.35323936 -0.0060773045 0.5673494 -0.57056457
000060 ac bf bf b2 04 79 ac b4 f5 80 23 be ca b7 a1 be
       -2.2322489e-08 -3.2125547e-07 -0.15967162 -0.31585532
000070 0d 1c 8a 3e 5a 11 31 3e 8e a4 6f be 2c 03 d4 be
       0.26974526 0.17291775 -0.23402616 -0.4140867
000080 2e b3 5f 3d 1e d5 2c be 1a f8 05 3f ca 6d 1f 3e
       0.05461424 -0.16878173 0.523317 0.15569225
000090 57 4b 82 bb 00 e1 35 3e b9 36 27 3e 23 85 9b be
       -0.0039762664 0.17761612 0.16329469 -0.30375013
0000a0 2e d2 79 bc fd d9 14 3f 22 26 8c bd 98 45 cd 3e
       -0.015247865 0.58145124 -0.06843211 0.40092158
0000b0 35 d8 f6 3d 04 1b e2 bd f9 3f 8b be 7c 68 86 be
       0.12052957 -0.11040309 -0.27197245 -0.2625159
0000c0 c2 05 67 bb 73 62 09 3f 0d 90 e3 bd f1 61 86 3e
       -0.0035251235 0.53665847 -0.1111146 0.26246598
0000d0 cd 98 99 be 4c f8 75 be 47 a8 29 3e a2 05 36 3d
       -0.2999939 -0.24020499 0.16568099 0.044438966
0000e0 73 f8 0f bf 7d a9 df bb cb fb e4 be c7 3b 0b 3f
       -0.5623848 -0.0068256245 -0.44723353 0.5438809
0000f0 61 74 25 3e 0b 94 96 be 24 c5 fb bd 15 d4 11 be
       0.16157676 -0.29409823 -0.12293461 -0.14241059
000100 ec ee b2 3e 1d 00 ea bc d7 73 ae be d8 ab 4b be
       0.34947908 -0.028564507 -0.34072754 -0.19889772
000110 cd fd d2 3e 74 cb 72 be c8 19 e2 3e 2c 5e 00 3f
       0.4120926 -0.23710424 0.44160295 0.50143695
000120 c8 00 c8 3e 35 27 a2 3e 7f af b2 be 7d 53 08 bf
       0.39063096 0.31670538 -0.34899518 -0.53252393
000130 92 90 f6 3d 09 4c 65 3e 10 82 dd be e2 dc aa be
       0.12039293 0.22392286 -0.43263292 -0.33371645
000140 70 77 08 be 81 99 88 be 96 52 d7 be 10 84 f4 3e
       -0.13326812 -0.26679614 -0.42055196 0.47757006
000150 01 42 f3 be 49 c3 0a 3f 06 3e 08 be 2d eb ab 3e
       -0.47511294 0.5420423 -0.1330491 0.33577862
000160 c1 b6 95 3c 90 4e 01 bf be ef ec 3e 3a a4 8d 3e
       0.01827562 -0.505105 0.4627666 0.27664357
000170 13 db d0 be 15 cf 3e 3e 2e 7c 37 3e 00 2a a9 bd
       -0.4079214 0.18633683 0.17918465 -0.08259964
000180 45 be 16 bf 59 79 ba 3e 81 bf 96 be 63 99 8f ba
       -0.5888408 0.36420706 -0.2944298 -0.0010955747
000190 97 b6 ed 3e 54 08 d8 be ba 1e 45 be 32 fa a2 3d
       0.46428367 -0.42193854 -0.19250003 0.07957877
0001a0 5a 4e 1d bd 2c f4 08 3e 15 26 5c 3d 4f ef af 3e
       -0.0384048 0.13374394 0.053747255 0.34362265
0001b0 b1 b0 46 be 1f 7e d6 bd f4 19 79 3e f6 b4 f0 be
       -0.1940334 -0.104732744 0.24326307 -0.47013062
0001c0 9e ce 34 be 21 24 05 3f bd 7b cc be 49 4d 67 3e
       -0.17656943 0.52008253 -0.39938155 0.22588076
0001d0 b0 37 bb 3e ba 66 b2 3e 60 d6 52 bd 40 c4 b4 be
       0.36565924 0.34844 -0.051473975 -0.35305977
0001e0 a3 e3 bf bd 03 91 4a 3e 61 da fa be af 56 12 bf
       -0.0936959 0.1978188 -0.48994735 -0.5716352
0001f0 0d 8c 35 3f 3a 81 ca be 38 b5 1b 3e 8e 35 ff 3d
       0.70916826 -0.39551717 0.15205848 0.124613866
000200 7a bd c9 bd ed 69 9c 3d d6 3b 48 be 17 7d 07 3e
       -0.09850593 0.07637391 -0.19554076 0.13231312
000210 dd 74 6f be 2d 3a 19 3f 99 cb 0f bf 64 8b 94 3e
       -0.23384424 0.59854394 -0.5617004 0.29012597
000220 ac a3 86 3e 07 1b 00 3e 73 bc 00 bf 48 e4 04 bf
       0.26296747 0.1251031 -0.5028755 -0.5191083
000230 d8 e9 3c be ad 7b af 3e 24 25 b0 be 08 ef 66 be
       -0.1844858 0.34274045 -0.34403336 -0.2255212
000240 1d a1 99 3e e2 3f 08 be 0c 5e 9e be 31 50 78 bd
       0.30005732 -0.1330562 -0.30931127 -0.06062335
000250 b9 20 9a be 8d 49 a7 3e
       -0.3010309 0.32673302

decoder.layers.0.bias f4 [75]
000000 9b c3 9d be 62 ec e5 3c b9 83 c2 3e 31 2e 14 be
       -0.30813298 0.028066818 0.3799112 -0.14470746
000010 d2 c1 d5 bb ea 40 b8 3d 54 78 ee bd 5e 12 b9 be
       -0.0065233493 0.089967564 -0.116440445 -0.36146826
000020 e4 20 bd 3e af 88 50 3e d4 6e 09 3e 17 90 1f 3f
       0.36939156 0.2036464 0.13421184 0.6232924
000030 24 5f 61 b5 68 e8 ae 3e 7a d6 f6 3d 00 52 d2 be
       -8.395748e-07 0.34161687 0.12052627 -0.41078186
000040 c7 ce ff bd e5 47 c7 be 6c 1b 50 3e de e2 3e bd
       -0.124906115 -0.3892204 0.2032296 -0.046603076
000050 fa e8 9e 3e ef ac 7e bd b2 44 81 3e 66 cb 14 3f
       0.31037122 -0.06217664 0.25247723 0.5812286
000060 9b 52 9c 3c 82 a4 6c bd 72 12 54 be a7 65 1e 3e
       0.019082358 -0.057774074 -0.20710161 0.15468465
000070 6d 86 cf 3e 7b f7 b9 be d0 d7 f9 3e b5 8b c2 3e
       0.40532246 -0.36321625 0.48797464 0.37997213
000080 1f 20 cb 3c f0 70 68 be 10 7c db be d3 45 8c 3c
       0.02479559 -0.22699332 -0.4286809 0.017123139
000090 97 d1 6f 3e 50 c8 86 3e 53 34 92 3d 1d 63 14 3f
       0.23419796 0.263247 0.07138886 0.57963735
0000a0 db 63 05 3f b5 3a 2c bd c3 40 b2 3e f9 9f e6 3d
       0.5210549 -0.042048175 0.34815034 0.11260981
0000b0 02 5b 05 3f 28 ce a5 3e f4 ef 00 be d1 64 b8 be
       0.5209199 0.32383847 -0.12591535 -0.36014417
0000c0 4e e6 3b bc 0a 5f d7 3d 00 13 44 be bc 76 98 be
       -0.011468483 0.10516174 -0.19147873 -0.29778087
0000d0 52 36 10 3f 8c 99 78 3e 0a 5c aa 3c c3 41 03 3f
       0.56332886 0.24277323 0.02079584 0.5127222
0000e0 e1 19 1b 3f ad e5 22 3f 9b 05 3c bd 59 2b 58 3d
       0.60586363 0.6363171 -0.045903783 0.052775715
0000f0 e8 55 d1 3e 99 3f 51 bd 42 16 f4 3d 75 77 35 3e
       0.40885854 -0.051086042 0.11918308 0.1772135
000100 15 8b ad 3d 89 42 60 3e d4 07 da be 5e e0 1f bf
       0.084737934 0.21900381 -0.42584097 -0.6245173
000110 20 61 b0 be 45 f6 fc 3c 88 d5 e2 be 95 ab 33 3f
       -0.344491 0.03087915 -0.44303536 0.7018369
000120 85 8f 08 be 3c 0d 5a 3c 58 2e 30 bf
       -0.13335998 0.013308819 -0.68820715

decoder.layers.3.weight f4 [5, 75]
000000 89 3a 3d 3d d5 5f ac bd e9 93 23 bd f8 d0 99 3c
       0.0461984 -0.08416716 -0.03993598 0.018776402
000010 bf 23 34 bc bc 6c 49 3d aa 90 e2 bc b4 ad 19 bd
       -0.010994851 0.049175963 -0.027656872 -0.03751917
000020 52 93 b0 bd 09 8a a6 3d 8f a9 1b bd 8b 77 61 3e
       -0.08621849 0.08131797 -0.0380035 0.22018258
000030 40 3d 86 b0 7b b6 50 bd 06 f1 73 bb fb 8a 7f 3d
       -9.767192e-10 -0.050955277 -0.0037222519 0.0623884
000040 61 da 65 bd 7e 59 be 3d 52 d6 a2 bd 66 6c ce 3b
       -0.056116465 0.09294413 -0.079510346 0.006299543
000050 8a b0 cf bd 3e 4b 64 bd 10 91 0c 3e 48 c6 13 3c
       -0.10141094 -0.05573582 0.13727212 0.009019442
000060 c5 31 88 bd f8 30 9b 3c 72 99 41 3d e3 3d 54 3d
       -0.06650118 0.018944249 0.047265477 0.051816832
000070 22 cd 26 be 15 69 a5 3d 10 15 f4 3d c5 77 83 bc
       -0.1628919 0.080766834 0.1191808 -0.016048322
000080 d3 42 b3 3d f7 f2 a6 bc bd 1b 8a 3d f4 66 aa 3d
       0.0875298 -0.020379527 0.06743572 0.08320418
000090 60 90 1d bd 7c 56 2c 3d 7c 33 08 3d 6f b1 66 bd
       -0.038467765 0.042074665 0.033252224 -0.056321558
0000a0 43 23 ff 3c d0 a6 d6 bd 53 24 1f be 12 dc 9c bc
       0.031144744 -0.10481036 -0.155412 -0.019147906
0000b0 a3 53 a5 3d eb 3c 84 bd 09 e5 f6 3c ba 5d c9 bd
       0.08072593 -0.06456932 0.03013851 -0.0983233
0000c0 65 3f 83 bd 95 14 34 bd 08 88 ec 3d ce 90 e1 3d
       -0.06408576 -0.04396494 0.115493834 0.110139474
0000d0 8d 81 fa 3c 60 e6 fc 3c 7d 56 8b 3c 57 49 90 3d
       0.030579353 0.03087157 0.017009014 0.070452385
0000e0 2c 27 f1 bd 77 6e 0b be db 54 b1 bc 47 9b 8c 3d
       -0.117750496 -0.13616358 -0.021646908 0.06865554
0000f0 53 93 b7 bd cb 88 90 3d c4 af 0d 3e cb 43 58 bd
       -0.08963647 0.07057341 0.1383658 -0.052799027
000100 13 06 e7 3c 6b 39 09 bd dd 3b 8d 3d 88 5d 04 3e
       0.028201139 -0.033502024 0.06896184 0.12926304
000110 ea 64 9b 3d a9 17 8a bd a7 b6 a9 3e ac 2a 2e bd
       0.07587607 -0.06742794 0.33147165 -0.042521164
000120 7f 76 af 3d 0a 48 76 bd 22 ee 8f 3e 5b f2 a5 3c
       0.08567523 -0.060127296 0.28111368 0.020257166
000130 fa 94 90 bd 24 76 4a 3c 65 20 11 bd d8 65 01 3e
       -0.07059665 0.0123572685 -0.035431284 0.12636507
000140 e4 79 a4 3c 1a 86 f2 bd ca aa 96 bd 0f 6e 91 3d
       0.020077653 -0.11841984 -0.07356794 0.0710107
000150 89 08 13 bd ae ab a3 bc cd 1b ac 3d 80 85 aa 31
       -0.03589681 -0.019979324 0.0840374 4.9628284e-09
000160 e2 4f 22 3d 80 35 62 3d c4 cc 12 be d7 92 b3 bd
       0.039626963 0.055226803 -0.14335924 -0.08768242
000170 24 a4 9d bc d5 7f 84 bd 0f f1 02 bd fd 92 1b bd
       -0.019243307 -0.064696945 -0.031968173 -0.037981976
000180 2a 40 d3 bd f3 22 8b bd 9b 56 44 3d eb 4a aa bd
       -0.10314973 -0.067937754 0.047934156 -0.08315071
000190 0e 3c 84 be a6 8e c6 bd 36 fc 20 3e 6d cb ac bd
       -0.25827068 -0.09695177 0.15721211 -0.08437238
0001a0 70 df 68 be 20 c0 4e bd 8d f2 b5 3c af e9 ba 3a
       -0.22741485 -0.050476193 0.022210384 0.0014260317
0001b0 69 98 8b bd 4f 5f 38 bd 9a c0 86 3d 9a 8e a9 3d
       -0.06816179 -0.04501277 0.065797046 0.08279152
0001c0 21 0c e1 3d f9 76 2a 3d 5a d0 70 3d f0 dc 35 3e
       0.109886415 0.041617367 0.05879245 0.17760062
0001d0 c1 e4 10 be 68 81 c6 bd 3b 30 ca bd a4 85 b1 3d
       -0.14149763 -0.09692651 -0.098724805 0.08668068
0001e0 c4 76 fd 3d 34 0e 43 be 83 aa 90 bd 79 ea 46 be
       0.12376168 -0.19048387 -0.070637725 -0.19425382
0001f0 25 8d 63 bd 2e 51 80 3b d1 34 98 be 87 c2 af 3d
       -0.055554528 0.0039159274 -0.29727796 0.08582025
000200 21 9c 8f bd 2a e3 69 bc 64 95 98 bc 4b c3 5e bd
       -0.07012201 -0.014275352 -0.018625923 -0.054385465
000210 7d 48 96 bd 4f fc ce bc 4f a3 63 3d f8 ea 15 bd
       -0.07338045 -0.025266794 0.055575665 -0.036601037
000220 5c 6d b5 bc 07 65 08 3e 01 ea 91 3d 9c 7e aa bd
       -0.022146873 0.13319789 0.07124711 -0.0832493
000230 5d e9 e8 3c c3 70 3a be d6 aa 9e be 9c 94 e2 bd
       0.028431589 -0.18207078 -0.30989712 -0.11063501
000240 4c 71 ab 3d c3 fc b0 be 34 77 c8 3d 75 5e 5c bc
       0.08371219 -0.34567842 0.09788361 -0.013450255
000250 6f 1c 0d be b2 15 0f bf 37 1c 71 be e3 5d f7 3d
       -0.13780378 -0.5589248 -0.2354592 0.12078454
000260 f1 33 4e 3d ad 1d 9a bd f9 a7 5c bd 43 7c 62 bd
       0.050342504 -0.075251915 -0.05387113 -0.055294286
000270 de 75 d5 bb 36 db 31 be b1 69 c0 3d 4b ae 5e be
       -0.006514295 -0.17368779 0.09395159 -0.21746175
000280 25 2e aa 3c db 5b e3 bd 1c bb ff b1 8f c8 31 bc
       0.020773957 -0.111015044 -7.4427486e-09 -0.01085104
000290 93 af f1 bc 35 66 11 be 87 84 1a be 2c 16 0d bd
       -0.029502666 -0.14199145 -0.15089618 -0.034444973
0002a0 49 72 9e 3d f4 96 7c be aa 67 cd 3c d8 12 1c bd
       0.07736642 -0.24666959 0.025073845 -0.03810391
0002b0 c4 a9 b1 bc eb 1d 36 3d 2a 79 87 3c 1b 40 36 bd
       -0.021687396 0.044462126 0.016537268 -0.04449473
0002c0 30 7b 6a bd e6 55 c7 bc b4 ee 0e 3e 1f f1 32 be
       -0.057246387 -0.024332952 0.13958246 -0.17474793
0002d0 37 7d 8c 3d b7 c8 d5 3d 04 58 14 be 82 2f ff bd
       0.0685982 0.10438674 -0.144867 -0.12460233
0002e0 ee c8 9b be 39 49 06 bd 8c e1 30 3d 05 ab 21 3c
       -0.30426735 -0.032784674 0.04318385 0.009867434
0002f0 24 26 10 3d d4 b3 c7 3d 76 69 c8 3c 16 9b 44 bc
       0.035192624 0.09751096 0.02446435 -0.011999866
000300 8c 09 e7 3d c8 6b af 3d f0 c8 96 bd 9b 3c 3b 3d
       0.11281118 0.085654795 -0.073625445 0.045712095
000310 da 2a d0 bd 4a ce 85 be b7 69 8c 3c 4e 0b 87 bc
       -0.10164423 -0.2613395 0.017140253 -0.016484883
000320 ec 49 47 be 19 7e 8d 3d 76 a7 f2 3d e3 ec 12 3c
       -0.19461793 0.06908817 0.11848347 0.008967611
000330 58 ab 90 3d e7 99 17 be 51 10 0a 3e a9 c7 76 3c
       0.07063931 -0.14804803 0.13482787 0.015062251
000340 4c 24 58 3d b6 dc a8 bd 51 72 e9 3d 10 21 15 bd
       0.05276899 -0.08245222 0.11398757 -0.036408484
000350 20 d2 fb bd 8d 61 09 3d 7a 07 d2 bc de a7 62 3d
       -0.122959375 0.033540297 -0.02563833 0.055335872
000360 18 52 cd bd a3 f8 a8 bd 9d 49 cb bd 5d 6a 88 bb
       -0.10025424 -0.08250549 -0.0992615 -0.00416307
000370 cb cd 1d be c1 cb f1 3c 5c 18 57 be eb cd 02 3e
       -0.15410535 0.029516103 -0.21005386 0.12773864
000380 a0 94 a1 bd a1 9d 96 3d bf 11 67 3d 7d 0c 5b be
       -0.07889676 0.07354284 0.05641341 -0.21391483
000390 e4 f9 88 3d fb d3 db 3d ce b3 81 3d d2 e7 32 3d
       0.06688288 0.107337914 0.06333123 0.043678112
0003a0 8f 79 0c 3e 83 c1 21 3d c0 27 93 3d af 81 8d bd
       0.13718246 0.039491188 0.07185316 -0.06909501
0003b0 2c 95 27 3d f4 4b c6 b0 68 d5 38 be 62 a2 1a 3e
       0.040913746 -1.4427983e-09 -0.18050158 0.15101007
0003c0 76 c3 10 bd e7 ff 44 bd ac 9b c8 3d eb 8c b0 3d
       -0.035342656 -0.04809561 0.09795317 0.08620628
0003d0 71 01 25 3e 4b 56 d2 3d 67 1d 48 3e 2e d1 43 3c
       0.16113831 0.10270365 0.19542466 0.011951728
0003e0 5b 8e 4d be 84 22 bc 3d 95 8f b3 3d a1 04 46 be
       -0.20073836 0.09186271 0.087676205 -0.19337703
0003f0 81 f9 5b 3d 8d d7 f3 bd e0 0a b9 3d 9b 9a f2 bd
       0.053704742 -0.119063474 0.09035277 -0.11845895

decoder.layers.3.bias f4 [5]
000000 88 97 99 3d 2e 53 fd 3d 4b de b9 bc ed ff 18 be
       0.074996054 0.12369381 -0.022689005 -0.14941378
000010 60 1a c4 bd
       -0.09575343
